reinforcement_learning/models_cartpole/best_cartpole_dqn_agent.pt (torch_old, 10948 bytes, 6 tensors)

fc1.weight f4 [64, 4]
000000 60 07 e0 be 0e d1 b1 3e 35 e3 06 40 72 2f 2b 3f
       -0.43755627 0.3472981 2.1076176 0.6686927
000010 2e fd da 3e a7 a6 9f 3e 43 d2 6d 3e 34 47 8e bd
       0.42771286 0.31181833 0.2322474 -0.06947175
000020 f6 31 34 3e fc 72 a2 be a4 ec 0e bf aa 27 59 be
       0.17597184 -0.3172835 -0.55829835 -0.21206537
000030 8b 22 fb 3e 36 f3 87 be f8 64 02 c0 40 47 0b bf
       0.49049792 -0.26552743 -2.0374126 -0.54405594
000040 35 d5 91 3e 84 2f ea 3e 61 d1 a5 3f 25 ce d1 3e
       0.28482977 0.45739377 1.2954522 0.40977588
000050 a9 b0 e8 3e 20 09 89 3e bf 49 2f be 95 de ac be
       0.4544728 0.26764774 -0.17117976 -0.33763567
000060 bb fb 04 3e f9 99 09 bf 52 d9 8f bf cc 66 99 3e
       0.12986653 -0.5375057 -1.1238196 0.2996124
000070 7b 3d b9 3d 30 dc 47 be 74 35 00 c0 fd e3 bd be
       0.090449296 -0.19517589 -2.0032625 -0.37088004
000080 65 d0 4b 3c 59 18 2b be 22 00 25 3e 2d a7 8f be
       0.012439822 -0.16708507 0.16113332 -0.28057232
000090 c7 ed 08 3e a6 03 17 3f c8 e9 d6 3e 92 e8 9f 3e
       0.13371955 0.5898994 0.41975236 0.31232125
0000a0 2e c4 a1 be 21 cd 01 bf 96 dd 32 bf 2b 3d ca be
       -0.31594986 -0.50703627 -0.69869363 -0.39499792
0000b0 82 aa a8 3e 54 9a e9 bd 24 a4 d5 3e 7a 4a 68 bc
       0.32942587 -0.11406389 0.41726792 -0.014177913
0000c0 a5 22 7f be 5f bd 8f be d3 f8 c6 be 84 13 3d be
       -0.2491556 -0.28074166 -0.38861713 -0.18464476
0000d0 c0 c6 d0 be 87 ac 54 bd 9f ac ea 3e 10 ad fe ba
       -0.40776634 -0.051922347 0.45834824 -0.0019430239
0000e0 5b 0e ff be 31 64 7b be 53 6c 22 bf ad 08 4c be
       -0.4981564 -0.24549939 -0.6344654 -0.19925185
0000f0 8f 08 b1 bd b8 46 33 bd 6f 0f df bf c5 df 63 be
       -0.086442105 -0.043768615 -1.7426585 -0.2225333
000100 94 06 c1 bd 03 ab 59 be 4c 9d 30 bc 22 09 60 be
       -0.09425083 -0.21256642 -0.01077969 -0.21878484
000110 23 8f 02 3e 6b d2 88 3e 01 7a c0 3f 45 f1 9f 3e
       0.12749915 0.26723036 1.5037233 0.31238762
000120 08 ef 08 bc 86 a6 ec 3c 98 c5 04 c0 6c 95 27 be
       -0.008357771 0.028887998 -2.0745602 -0.16365594
000130 eb 62 0f 3f 35 53 61 3d 54 5c a3 be 92 79 9b 3d
       0.5601031 0.055010993 -0.31906378 0.07591547
000140 99 8b 2e 3e ac da 4f bd 36 7b 4b 3d 62 0d 8b be
       0.1704544 -0.05074565 0.04967805 -0.27158648
000150 7f 84 c6 3e dc 37 90 be 57 5c 81 3e 5e 94 37 3e
       0.38772961 -0.28167617 0.25265762 0.17927691
000160 57 88 ee 3e a0 b0 83 be eb 8f fb bf a1 29 07 bf
       0.46588394 -0.25720692 -1.9653295 -0.52797896
000170 56 20 a5 bc b4 ae 87 3e 74 91 b8 3e 8e c4 65 3e
       -0.02015702 0.26500475 0.36048472 0.22438261
000180 fa 1a c6 3e 5e 50 10 bf 00 27 83 bf 12 ae 00 bf
       0.38692456 -0.5637263 -1.0246277 -0.5026561
000190 80 e7 05 bf 57 97 8e be 2c fa c5 3f c0 f0 0b 3d
       -0.52306366 -0.27849838 1.5466971 0.034165144
0001a0 de f5 1e 3d d8 46 36 3d 97 4d e1 3f c1 82 0b 3e
       0.038808696 0.044501156 1.7601804 0.13624097
0001b0 ee 20 16 3f 0c d9 45 bf f3 6b 59 bf 8d 04 a5 be
       0.58643997 -0.7728431 -0.8493034 -0.32230034
0001c0 d1 52 a3 3c a2 d7 8b 3e 79 cf 91 be 2e f0 44 3e
       0.01993695 0.27312952 -0.28478602 0.19232246
0001d0 2a f1 b2 be c3 b3 c5 3e a8 ea 9b bd 22 7a e5 3e
       -0.3494962 0.3861371 -0.076131165 0.44819742
0001e0 57 55 8f be 9b 9c 8b 3e 7e 72 cc 3f 16 96 f7 3e
       -0.27994797 0.27267918 1.597244 0.48356694
0001f0 9c 9d 92 bb a4 d1 a7 be 12 cd b5 be c0 92 88 3d
       -0.004474355 -0.3277713 -0.3550802 0.06668615
000200 5c c6 a1 be db 8c 1d 3e 5f 1a 26 be 42 04 50 3e
       -0.3159665 0.15385763 -0.16220997 0.20314124
000210 65 88 da bd 29 91 8d be 62 dd 33 3f 46 80 01 3f
       -0.106705464 -0.2764981 0.7025968 0.50586355
000220 86 96 b2 bd d3 55 0c 3e 8f 9e 15 3f ea 0a 8b 3e
       -0.08720116 0.13704614 0.58445066 0.27156764
000230 68 82 0c be 3a 28 b9 be 6c 7b a5 bf dc ac 91 be
       -0.13721621 -0.36163503 -1.292829 -0.28452194
000240 74 14 01 be 00 41 db bb d4 2c 32 be 00 9b ec bd
       -0.12605458 -0.006691098 -0.17399913 -0.115530014
000250 49 05 aa be fa e8 83 3e 9d 7a d6 3f 34 d2 04 3f
       -0.33207157 0.25763685 1.6756169 0.51883245
000260 8a ad 92 bd fd ad 19 3e 09 25 33 bf e4 4e 9d be
       -0.07162006 0.15007778 -0.69978386 -0.3072425
000270 c6 66 d2 3e 05 f4 0a 3f d5 58 12 bf 13 f1 4f 3e
       0.41094035 0.54278594 -0.57166797 0.20306806
000280 18 fd 8c bd aa db ee 3e 9b a6 f8 bd f4 18 81 bd
       -0.06884211 0.46651965 -0.121411525 -0.063035876
000290 2a 78 13 bc 60 53 35 bf 2c 18 4b bf 48 39 41 3b
       -0.009000817 -0.70830345 -0.7933376 0.0029483605
0002a0 6b 0c b0 3e 0d 90 14 be 3a 02 f1 bf f4 e6 98 be
       0.34384474 -0.14508076 -1.8828804 -0.29863703
0002b0 73 4a 31 bf f9 68 d3 be 47 a5 f1 be 17 e7 84 be
       -0.69254225 -0.41291025 -0.4719641 -0.25957558
0002c0 b6 82 1b 3f 47 37 32 3e db 46 59 bf 38 fa 15 3d
       0.60746324 0.17403899 -0.8487374 0.03661558
0002d0 78 36 27 3f 84 38 2c be 9f 1a b1 be f2 2c e1 bd
       0.6531749 -0.16818434 -0.34590623 -0.10994901
0002e0 c7 c9 ae be f5 ea 35 3e 2d 6e c8 3e 86 e7 05 3e
       -0.3413832 0.1776541 0.39146557 0.130766
0002f0 4d 14 91 be e0 d1 80 3d 64 ef 9d be c5 cf 8b 3e
       -0.283358 0.062900305 -0.30846703 0.27306953
000300 a8 7b 2e 3e b4 65 11 be c2 a8 eb bf fa 65 d4 be
       0.17039359 -0.14198953 -1.8410876 -0.41484052
000310 ef 7a ba 3e 8c c4 97 be 72 13 7b bf 94 f1 ab 3e
       0.36421916 -0.2964214 -0.98076546 0.33582747
000320 4d 2e 2f bf 8b f5 ef be ef 78 a2 be 52 42 8b be
       -0.68430024 -0.46867022 -0.3173289 -0.27199036
000330 f6 a1 42 be f0 bc 9c 3e 6e 2f 11 be d3 aa ea 3c
       -0.19007096 0.30612898 -0.14178249 0.028645908
000340 e5 53 2a bf 53 94 ac be ef ab 8a 3f a4 be a0 3e
       -0.6653426 -0.33706912 1.083372 0.31395447
000350 f0 7d f5 be 40 bb 92 be cb e1 90 3d 54 a0 3e be
       -0.47947645 -0.28658485 0.070743166 -0.18615848
000360 11 eb 2c bf 44 a8 e0 be fa 1e e8 be 8f 6b 9e be
       -0.6754618 -0.43878376 -0.45336133 -0.30941436
000370 b2 12 35 3f 7a d4 62 be d2 85 95 bf 6f f5 97 be
       0.7073165 -0.22151366 -1.1681464 -0.29679438
000380 f2 52 cd 3e 9a 8f 0e be 57 1e c3 bf b7 44 24 be
       0.40102345 -0.13921967 -1.5243634 -0.16041838
000390 89 33 00 bd 08 7a 28 be 7b d4 12 bf 21 b4 b5 bd
       -0.031299148 -0.16452801 -0.5735547 -0.088722475
0003a0 3b 9c f9 be 9f f6 ba 3e eb bc 3e 3f 81 97 68 3e
       -0.48752007 0.36516282 0.74507016 0.22714044
0003b0 0d df 77 bb 28 37 37 be 93 8c 8f be e0 87 fe bd
       -0.0037822158 -0.17892134 -0.28036937 -0.1242826
0003c0 47 56 0b bf 8f 76 bb 3e e3 9a 2f 3f b7 91 5a be
       -0.54428524 0.3661389 0.68595713 -0.21344648
0003d0 45 3b e1 3e fd 88 75 be 44 8d e6 bf 99 94 f6 be
       0.43990532 -0.23978038 -1.8011861 -0.48160246
0003e0 ae 29 14 be 1c 61 ca 3e 2d 9b 1b 3e df 5a 12 bd
       -0.14469025 0.39527214 0.15195914 -0.035731193
0003f0 dd 3c ee be ea 26 23 3e 88 f7 a3 3f ec ed ae 3e
       -0.4653081 0.15932813 1.2809916 0.34165895

fc1.bias f4 [64]
000000 2b 97 12 bf c4 44 29 3f 4f 6c 3e 3f e3 01 0a bf
       -0.57261914 0.66120553 0.74384016 -0.5390913
000010 a0 83 32 be eb 79 7f bd b7 c6 41 3e d9 08 f2 3e
       -0.17433023 -0.06237213 0.1892346 0.47272375
000020 f5 37 d3 3e ee ab aa 3e 33 ce 47 3e af 2d 34 3f
       0.4125363 0.33334297 0.19512253 0.7038221
000030 05 a8 1f bf d4 75 34 bf 92 b7 ed be 0e fc c1 be
       -0.6236575 -0.7049229 -0.46429116 -0.37887615
000040 d9 da 37 3f ff 06 ba be 17 7d ad be 7f 87 8a 3e
       0.7181831 -0.36333463 -0.33884498 0.270565
000050 3c e3 dd 3e 70 a0 42 3f dd eb 02 bf 78 c4 1d 3f
       0.4333743 0.7602606 -0.5114115 0.6162791
000060 2a 17 e7 3d f6 8b 8a be 61 de c1 be 5c b5 5b 3d
       0.11283715 -0.27059907 -0.37864974 0.053639755
000070 e2 0a 2c 3f 81 7a 49 3f f7 59 d9 be 5e 34 50 3f
       0.67204106 0.7870255 -0.4245145 0.81329906
000080 fd 0b 02 3f af 10 4e be 1d de cb 3e a3 37 1b be
       0.5079954 -0.20123552 0.39817896 -0.15157942
000090 a2 3e f1 be 3c 66 e1 be bb c9 48 3f 44 a3 f4 3e
       -0.47118098 -0.4402331 0.78432816 0.47780812
0000a0 6a 42 fe 3e 7a 06 04 3f 0a 8b b1 be 9a f1 a6 3d
       0.49660045 0.5157238 -0.3467639 0.081515506
0000b0 5b bf 08 be 59 3c 3d 3e 24 a4 dd 3e 23 82 2c 3f
       -0.13354246 0.18480052 0.43289292 0.6738607
0000c0 4c 88 e9 be aa 9f d9 3e f5 75 cd 3e ba 88 de 3e
       -0.456118 0.42504627 0.40129057 0.4346369
0000d0 bb e5 77 be 31 14 dd 3c 08 06 ef 3d 08 be ab be
       -0.24208729 0.026987167 0.11671072 -0.3354342
0000e0 bf e2 b7 be d8 e2 03 3f 21 c6 bb 3e 55 6b db 3e
       -0.3591518 0.5151801 0.36674598 0.42855325
0000f0 db 45 3d 3f cd 1c f8 be 3a 4e 32 3f c4 6a 11 bf
       0.73934716 -0.48459473 0.69650614 -0.56803536

fc2.weight f4 [32, 64]
000000 f1 1f 90 3f 58 bd 8a 3e 08 bf e5 bc 2b 92 25 c0
       1.1259748 0.27097583 -0.028045192 -2.5870464
000010 f3 b5 c6 3e a2 ba 93 be 59 17 6a 3e a2 d5 20 be
       0.3881069 -0.28853327 0.22860469 -0.15706494
000020 90 04 4d 3e b9 0e 97 3e 62 2d 49 3e a8 5c 70 3e
       0.20021272 0.2950342 0.19646218 0.23472846
000030 cb 5c 91 bc 89 af c1 3e d3 b3 9e 3d 7e c6 07 bf
       -0.017744442 0.37829235 0.077491425 -0.5303725
000040 bc ba b7 3d f1 33 36 3e d7 f8 c6 bf f8 ff 90 3e
       0.08971164 0.17793252 -1.554469 0.2832029
000050 1e 6d 3f 3e b7 71 bd 3d 72 c5 2d c0 e9 70 c5 3e
       0.18693969 0.09250205 -2.715176 0.38562706
000060 8d 94 aa be d1 d4 19 3e 76 14 13 3f 83 24 f7 bc
       -0.3331646 0.1502259 0.57453096 -0.030168777
000070 ca d3 5a 3e 85 0b aa 3e 5d a4 8d 3f 17 71 f8 3d
       0.21369854 0.33211914 1.1065785 0.12130945
000080 72 4d 4c 3e a0 8a 58 3d df cf 80 3e d6 fa be be
       0.19951418 0.052866578 0.25158593 -0.37300748
000090 b8 25 62 bd 5d d6 83 3f 7d 80 62 bd fc 40 4e 3b
       -0.055211753 1.0299793 -0.055298317 0.003147184
0000a0 31 99 90 be 4e 7c 83 3e 24 3a a4 bf c3 d1 90 3e
       -0.28241876 0.25680774 -1.2830243 0.28285035
0000b0 34 63 81 be d5 55 bb be e9 62 d4 3e 74 f1 5c 3e
       -0.25270998 -0.36588922 0.41481712 0.21576482
0000c0 8b 4f 77 bf a3 c2 80 3e e8 fd 1d 3d 39 24 92 3e
       -0.9660575 0.25148496 0.038572222 0.2854326
0000d0 66 c6 c7 3c 7a ce 50 3e 3c c5 82 3d be cb ff be
       0.024386596 0.20391265 0.06385276 -0.4996013
0000e0 3b 8b d5 3d 67 7f b3 bd 32 0c 82 3e 91 0c 30 3d
       0.10426947 -0.087645344 0.2539993 0.042980734
0000f0 64 21 72 3e 95 5e 06 c0 c3 2a 40 3e 5c 03 67 3e
       0.2364555 -2.0995228 0.18766312 0.22559875
000100 98 21 d3 bc 03 70 61 bd 91 eb 11 3c ea 5c b1 3d
       -0.025772855 -0.055038463 0.008906261 0.086603
000110 d0 27 d0 bc 74 ce c3 bd bd 14 ad bd 1b c7 77 3c
       -0.02540961 -0.09560862 -0.08451221 0.015123154
000120 07 2a af bd a8 f7 ff bd 82 bd 87 3d 9e 6c ac 3d
       -0.08552938 -0.124984086 0.066279426 0.084191546
000130 4f db db bd 36 2a c5 bc 32 97 fd 3b f1 95 8b bd
       -0.10735189 -0.02406798 0.007738971 -0.068157084
000140 7c 32 f9 3c 40 80 83 bc 52 9d e8 bd 3a c4 ef 3d
       0.03041958 -0.016052365 -0.113581315 0.11707349
000150 0f b1 23 3c 1f 82 ba 3c 2c b3 48 3d 5c ed b0 3c
       0.0099909445 0.022767125 0.048998997 0.021597557
000160 fa 66 8e bc 6a 46 22 3b d4 1d 8f 3d d0 60 87 bc
       -0.017383087 0.0024761208 0.06988111 -0.016525656
000170 00 ce a9 bd dc 8d a3 3d d4 c6 a9 bd 75 f1 b0 bd
       -0.082912445 0.07986042 -0.082898766 -0.08639804
000180 8b 98 cf bd fd 4b 91 3d 82 d3 cd bd cd ef 04 3d
       -0.10136517 0.07094572 -0.100501075 0.032455254
000190 e0 18 dd 3d 68 17 c5 bd 35 3e c6 bc 30 73 af bd
       0.1079576 -0.09623605 -0.024199584 -0.08566892
0001a0 c6 2c 7d 3d 06 3c 0a bd b5 d7 f4 bd 77 98 90 bd
       0.061810277 -0.03374865 -0.11955205 -0.0706033
0001b0 0a 16 ef 3d 3a 67 67 bd 34 64 f1 bc bd d0 94 3c
       0.116741255 -0.05649493 -0.029466726 0.01816594
0001c0 45 6e 04 be f1 83 e8 bd 89 57 ec 3d 61 13 8a 3b
       -0.1293269 -0.11353291 0.115401335 0.004213736
0001d0 06 f4 c2 3d ac ee 64 3d 59 88 9f bc c4 29 b9 bd
       0.095192 0.055891678 -0.019474195 -0.09041169
0001e0 b0 96 7c 3d 80 77 72 bd eb 2f 00 be 77 42 5a 3d
       0.061667144 -0.059195995 -0.12518279 0.053286042
0001f0 fe cd 45 3b aa 5b 84 3d ac eb a7 bd 43 06 2a bd
       0.0030182595 0.06462796 -0.08199248 -0.041509878
000200 e2 cd 24 bf 96 de ad 3e d1 62 a8 3e f2 c7 25 bf
       -0.6437665 0.33958882 0.3288789 -0.6475822
000210 77 24 d3 be 92 d0 87 bc e1 77 44 3e 8f 30 bc be
       -0.41238758 -0.016578946 0.19186355 -0.36755797
000220 70 ec c6 3d 3c de ac 3e 75 74 b6 3e 25 0c a1 3e
       0.097130656 0.337633 0.35635725 0.31454578
000230 2c 22 dc be 0f e0 6f bf c3 a1 9c be 1d 54 b1 be
       -0.4299482 -0.9370126 -0.30592164 -0.34634486
000240 46 09 b9 3e 46 c2 13 bf 98 fc 60 bf db f4 d7 3e
       0.36139888 -0.5771831 -0.8788543 0.42178997
000250 1c aa bc 3e f8 8d b4 3e f6 e3 fc be 8f 02 57 3e
       0.36848533 0.35264564 -0.4939267 0.2099707
000260 ac 5a aa 3e de 95 1a be d9 2b 25 bf 10 9c 49 3d
       0.33272302 -0.15096232 -0.6452003 0.0492211
000270 be 38 8f 3e ef 2f af 3e 95 68 91 bf b2 96 86 3e
       0.27972978 0.34216258 -1.1360041 0.26286846
000280 6d ba c3 3e 71 e1 a4 bd 38 6e 60 3e 33 ba ba be
       0.3822817 -0.08050812 0.21917045 -0.36470184
000290 e0 7b 15 3d a4 eb 2d bf 3d 91 b5 3e d5 3b 15 3e
       0.03649509 -0.67937684 0.3546237 0.14573605
0002a0 0c 45 12 bc db 18 25 3c 47 91 a7 3e b9 f5 5d 3e
       -0.008927595 0.010076727 0.32728025 0.21675767
0002b0 50 91 75 be d5 fa 2d 3e 86 41 33 3e f1 3c 24 3e
       -0.23981214 0.16990216 0.17505464 0.16038872
0002c0 0e 83 17 bf 9a d4 7b 3e dd e9 ff 3d cf 23 22 3e
       -0.5918435 0.2459282 0.12495778 0.15833972
0002d0 fb 47 77 3d e4 be f1 bc 3e 1f 91 3e b7 0f 9d be
       0.06037138 -0.029509969 0.28344148 -0.30676052
0002e0 6e 60 9a bf 54 4f 3d 3e 7b 24 b6 3e e6 81 0a 3e
       -1.2060678 0.18487293 0.35574707 0.13526115
0002f0 4e 5d 96 3e b3 aa 39 bf 8b 3b 93 3e ef 93 a6 be
       0.2936806 -0.7252609 0.28756365 -0.3253474
000300 9c 3d f6 be d5 12 34 3e 94 e9 83 3e b2 4a 2f bf
       -0.4809388 0.17585309 0.25764143 -0.6847335
000310 f6 85 0b bf 10 b5 bb bd 07 a5 38 3e 99 88 b9 be
       -0.54501283 -0.09165394 0.18031703 -0.36237028
000320 be 22 64 3e 53 a4 8e 3e 8a c3 da 3e a3 ec 8d 3e
       0.22278878 0.27859744 0.4272731 0.27719602
000330 f1 b3 04 bf eb 0a 88 bf 77 1d b3 be 1d fe 18 be
       -0.5183707 -1.0628332 -0.34983417 -0.14940687
000340 fb 20 78 3e b3 1c 29 bf a1 e2 85 bf f8 29 cd 3e
       0.24231331 -0.66059417 -1.0459787 0.40071082
000350 97 21 28 3e 61 02 91 3e a8 bb 15 bf cd 34 86 3e
       0.16419064 0.28322127 -0.58489466 0.2621216
000360 9c 90 b2 3e 13 e2 84 be 5b 69 10 bf 12 8f d2 3d
       0.34875953 -0.2595373 -0.5641076 0.10281195
000370 5f 9c 79 3e c9 4c d5 3d 22 f8 8a bf e8 41 1e 3e
       0.24376057 0.10415036 -1.0856974 0.15454829
000380 32 5c 71 3e 77 f9 ef bd 76 da 06 3e ca f6 d5 be
       0.23570326 -0.117175035 0.13169274 -0.41789848
000390 68 83 0b bd 56 ad a1 be de 08 66 3e 28 c2 8c 3e
       -0.034060866 -0.31577557 0.2246432 0.2749188
0003a0 07 62 83 3d c6 26 69 3d 6c d7 d1 3e c5 0f 85 3e
       0.064151816 0.056921743 0.40984666 0.25988594
0003b0 31 9f fc bd 90 1d 3a 3e 7b e4 78 3e d7 61 ed 3d
       -0.12335051 0.1817534 0.24305908 0.11590927
0003c0 f6 5c 11 bf 4e 9b 2c 3e ad 69 31 3e 8b a5 b0 3d
       -0.5678247 0.16856119 0.17325468 0.08625325
0003d0 48 a7 4e bd a1 cc 58 3d 7d 3e 85 3e 76 7c 0b bd
       -0.0504525 0.052929524 0.26024237 -0.034054242
0003e0 8f 3d 6a bf 41 cc 2b 3d 91 11 e4 3d 73 1e cf 3d
       -0.9150018 0.04194284 0.11136163 0.101132296
0003f0 68 32 fd 3d d6 13 38 bf c5 27 35 3e 51 26 aa be
       0.1236313 -0.7190527 0.17690952 -0.33232358

fc2.bias f4 [32]
000000 4c ce 87 3e ac 1e a1 bd a6 5e a9 3e a3 ba 69 3e
       0.2652458 -0.07867178 0.33080024 0.22825103
000010 8a 9a 58 3e 92 44 44 3e 4b 2d ad ba e9 47 42 bd
       0.21152702 0.19166782 -0.0013212351 -0.04743186
000020 06 a0 03 3d 58 a0 96 3e 68 d7 3b be 69 76 05 3e
       0.032135032 0.29419208 -0.1834389 0.13033451
000030 b7 fb 98 bc 12 db de 3d c5 de 47 3e 0d aa ac 3d
       -0.018674714 0.10881628 0.19518574 0.08430872
000040 a7 f5 9f 3c 4e 13 10 3e 80 27 bc 3b 47 6c f5 3c
       0.019526316 0.14069864 0.0057420135 0.029958857
000050 c8 10 9d 3e 09 cf 4a 3e e0 ca 95 bd 7f ba b0 3e
       0.30676866 0.1980554 -0.07314086 0.34517285
000060 a8 05 d6 3d be d9 70 3e b7 84 6f 3e 47 24 87 3e
       0.104502976 0.23520562 0.2339047 0.26394865
000070 60 a9 71 3e 82 65 35 3e 38 bf 6d 3e 2c 57 4e 3e
       0.23599768 0.17714503 0.23217475 0.20150441

fc3.weight f4 [2, 32]
000000 00 70 30 bf e1 28 fe bd 5f 00 c4 3e e4 da c6 3e
       -0.689209 -0.12410141 0.38281533 0.38838875
000010 ed d1 0c 3f a0 0e d7 3e d5 91 29 3f b1 70 6c bf
       0.5500782 0.42003345 0.6623815 -0.92359453
000020 83 90 85 bf 9e b6 17 3f 79 ef ae bf 30 c3 05 bf
       -1.0434726 0.59263027 -1.3666831 -0.5225096
000030 54 fa 8a bd 72 57 d2 3e 62 e3 ea 3e eb 85 c2 bb
       -0.067860276 0.4108234 0.45876604 -0.0059363744
000040 fd 98 75 bf f5 5e 4f bf d2 fa 0c be e8 d2 1a bf
       -0.95936567 -0.8100427 -0.13767555 -0.6047807
000050 d9 92 24 3f 7a 91 95 be ea fb b1 3d 3a 47 fd 3e
       0.6428657 -0.29212552 0.08690627 0.49468404
000060 18 8a ae 3e ea c1 02 3f a6 9c 07 3f af eb b5 3e
       0.34089732 0.5107714 0.529734 0.35531375
000070 0c 93 e5 3e 3c 87 19 3f f7 7d 00 3f 5a cb ed 3e
       0.4483875 0.59971976 0.5019221 0.46444207
000080 24 42 1e 3b e4 f5 75 3d d0 49 95 3e 4e 3e 00 3f
       0.002414831 0.060048953 0.29157877 0.5009507
000090 eb 31 9b 3e 34 65 bb 3e 73 29 cb 3f f6 5f 85 bf
       0.30311522 0.3660065 1.5872024 -1.041991
0000a0 86 f5 83 bf 55 31 31 3f ac 33 a6 bf 08 db 47 bf
       -1.0309303 0.692159 -1.2984519 -0.7806859
0000b0 14 49 02 be b9 87 04 3f 3d 16 28 3f ad 82 ed bd
       -0.1272319 0.51769596 0.6565893 -0.1159719
0000c0 74 cd a6 3e 9d 49 92 be 60 8b 4c bd ee 99 57 bf
       0.32578623 -0.28571787 -0.049937606 -0.84219253
0000d0 3e 7f 38 3e 59 96 4d bf c8 e8 bd 3c d4 9a 8f 3e
       0.18017289 -0.8030754 0.023182288 0.28047812
0000e0 ee 98 1a 3f e8 75 44 3e b1 88 c3 3e 09 06 a9 3e
       0.603896 0.19185603 0.38190225 0.33012417
0000f0 c2 69 e7 3e bd 69 86 3e fa e4 eb 3e bc f5 a7 3e
       0.45197874 0.26252547 0.46073133 0.32804668

fc3.bias f4 [2]
000000 82 07 08 3e 33 53 3d 3e
       0.13284114 0.18488769
