reinforcement_learning/models_cartpole/best_eval_dqn_agent.pt (torch_old, 653905 bytes, 6 tensors)

fc1.weight f4 [400, 4]
000000 5f b2 e0 bd f3 7f 0a bd 6c 1c 90 bf 12 92 6e 3e
       -0.109715216 -0.033813428 -1.1258674 0.23297909
000010 f4 35 61 3e a3 cd ab 3d ef ce 36 bf ae c2 60 bd
       0.21993238 0.083888315 -0.71409506 -0.05487316
000020 e4 a9 cb 3e 1e bc a0 3c 10 6c e0 bd ea 02 c0 3e
       0.39778054 0.019620951 -0.10958111 0.37502223
000030 85 2c 14 bc c0 2b a2 3d c8 02 82 3e 8e 50 b6 be
       -0.009043817 0.07918501 0.25392747 -0.35608333
000040 6f f3 e1 be d3 0a 26 3e 58 0e 7c bf 5c fb 12 be
       -0.44131038 0.16215067 -0.98459387 -0.14353698
000050 bb e4 72 3e 25 1c 4e 3e 72 05 57 bf 5c cf bc 3b
       0.23720066 0.20127924 -0.83992684 0.005762024
000060 86 f0 67 be 7b e0 82 3c f6 47 8e 3f 40 e6 d3 3d
       -0.22650346 0.015976181 1.1115711 0.10346651
000070 25 84 2a be 0e 11 48 be dc 2b 15 be 9c 0b 88 3e
       -0.16651972 -0.19537756 -0.14567512 0.26571357
000080 f6 ed f1 3d d4 f5 28 be be 4e ac 3e 42 0a ab 3e
       0.118129656 -0.16500026 0.33653826 0.33406264
000090 3c 5b 95 be f9 af 0d bd 42 eb 71 3e 8b f7 6a 3e
       -0.2917117 -0.03459165 0.236249 0.22945993
0000a0 7a 20 69 be db 99 2a 3c 05 c3 36 bf 9b bf 5f be
       -0.22766295 0.010412659 -0.71391326 -0.21850435
0000b0 c8 87 d1 be 67 f7 38 be 02 88 81 3e c8 c7 9c be
       -0.40923905 -0.18063127 0.25299078 -0.3062117
0000c0 cb 15 4d be d7 de 8b bd 88 54 25 3f 64 7d 92 3e
       -0.20027845 -0.06829613 0.6458211 0.2861129
0000d0 78 7a d5 3e ef 57 d9 be 59 28 81 bf 0f 2a 14 be
       0.41695 -0.424499 -1.0090438 -0.14469169
0000e0 08 6e 31 3e 8a 0a 9f be 3e 0c 7e 3e ad ac 98 bd
       0.1732713 -0.31062728 0.24809358 -0.0745481
0000f0 72 26 80 3e 26 b8 97 3e 78 fe 4d bf ea 87 dc bd
       0.2502933 0.29632682 -0.80466413 -0.10768111
000100 68 5d 05 bf 06 b1 f2 3e 4b 51 4d 3e 2a 81 15 3e
       -0.5209565 0.47400683 0.20050542 0.14600053
000110 44 d3 8e be 09 e1 75 3e dc 2c a2 bf ea c7 b2 3d
       -0.27895558 0.24011625 -1.266994 0.08729537
000120 ad 17 2d be b0 bc e4 be cc 53 12 3e ec 4c c1 3e
       -0.16903563 -0.44675207 0.14289778 0.37754
000130 be 63 f7 3e 5b a0 33 be c4 72 e8 be bc 9e 81 be
       0.48318285 -0.1754164 -0.4540006 -0.25316417
000140 92 fc 19 3e f9 35 5e bd ca 3f 9c bd 92 31 55 be
       0.15037754 -0.05425069 -0.07629354 -0.20819691
000150 12 70 86 bd 1b f8 85 3c 62 11 f6 3f 8c f2 7b 3e
       -0.065643445 0.016353657 1.9224055 0.24604243
000160 ec d1 58 be 8c db 58 3e 12 25 d8 bd e0 90 0c 3c
       -0.21173829 0.211775 -0.105539456 0.008579463
000170 ea 8d cf bd 2e 89 b5 be 96 5f 50 bf 36 2c 99 be
       -0.1013449 -0.35456222 -0.8139585 -0.29916543
000180 de 86 65 3e 8b 65 6a 3d 66 56 84 bf 69 b6 c8 3d
       0.22414729 0.057225745 -1.0338867 0.09800417
000190 ec e0 80 be 8a ca b0 3e 28 26 0f 3f ff 5e 78 be
       -0.25171602 0.34529525 0.55917597 -0.24254988
0001a0 b4 91 3d bd c1 af 85 be b4 4b 66 3f 8d 9b f5 bd
       -0.04628153 -0.26110652 0.89959264 -0.119925596
0001b0 b1 00 84 3d 0d bf f5 3e b5 c8 80 be cd d4 4c 3e
       0.064454444 0.47997323 -0.25153127 0.20003052
0001c0 72 7e 0c bd 47 a2 52 bc 58 3d f4 bf a7 d2 5e be
       -0.034300275 -0.012856073 -1.9081221 -0.21760045
0001d0 ff 40 90 3d 1b c5 9f 3b cf 8e 88 3e 78 53 89 3e
       0.07043647 0.0048757917 0.26671454 0.26821494
0001e0 e1 84 8b 3e 4b 27 33 3e dc ea d7 3e db 83 15 3e
       0.27249816 0.17495458 0.4217137 0.1460108
0001f0 bf f0 0f 3e da fc ca 3e f9 02 43 3f 6f 79 68 3e
       0.14056681 0.39646035 0.7617641 0.22702573
000200 9a 02 81 3e 8f bc c9 3e 05 67 84 3d 32 c7 80 3e
       0.25197297 0.3940167 0.06464962 0.25151974
000210 d4 c4 dd 3d 40 72 b5 be bb 63 7b 3d 53 56 b1 bc
       0.108285576 -0.35438728 0.061374407 -0.021647608
000220 44 cc 3e 3e fc 7b d1 be 4a 43 e4 be 72 26 8b 3e
       0.18632609 -0.40914905 -0.44582587 0.2717777
000230 8a 5e b2 bc 67 e0 bc be f6 07 63 bf a8 4b ac bd
       -0.021773595 -0.36889955 -0.8868402 -0.08412868
000240 f5 84 6e 3e 90 67 b0 3e fd 0f 7d be c6 55 8c bc
       0.23292907 0.34454012 -0.2471313 -0.017130744
000250 ca 0a 37 3e 67 c9 a9 3e 88 33 92 3f 8f 98 f3 3e
       0.1787521 0.3316147 1.1421976 0.4757733
000260 22 d8 a8 3d 4b 1a 9e be ba ab 18 3d e1 14 99 be
       0.08244349 -0.30879435 0.037273146 -0.29898742
000270 de 17 93 bd e4 c9 c4 be 0f 3f 8e 3f 36 40 01 3e
       -0.07182287 -0.3843528 1.1112994 0.12622151
000280 39 0c 20 be 5f c1 9c be 96 86 c6 bd d3 59 06 3e
       -0.15629663 -0.3061628 -0.09693639 0.13120203
000290 25 bf b9 3e bf ba 11 3e de 9a 21 3f 96 da 5d 3e
       0.36278644 0.14231394 0.63126934 0.21665415
0002a0 8d 70 24 3e a6 d8 25 3e 0a fd 44 be 9b 9f 55 3d
       0.1605856 0.16195926 -0.19237152 0.052154165
0002b0 fb 66 0b bf fb 5e ad be ea ce 64 3e 27 c6 e4 be
       -0.5445401 -0.33861527 0.22344556 -0.44682428
0002c0 cb 85 0e be 2e d0 c5 3e d3 86 38 3f 47 32 d2 3e
       -0.13918225 0.3863539 0.72080725 0.41053984
0002d0 0f 92 a1 be 63 1e 92 be b1 9c 31 bf 01 fb 29 be
       -0.31556746 -0.28538808 -0.6937972 -0.16599657
0002e0 0d bb 86 3d b9 6c b4 be 04 3a 07 3f 91 a3 cb be
       0.06578646 -0.352392 0.528229 -0.3977323
0002f0 77 55 33 3e 25 d9 96 3e 8f 48 67 bc d6 9d 7e be
       0.17513071 0.29462543 -0.01411642 -0.24864897
000300 73 2d 9b 3e 4d f1 c1 3e 0a 81 33 3f 9f 65 b5 3e
       0.30308113 0.3787941 0.70118773 0.35429093
000310 22 1a 3a be 9c 5c 1b be c9 ad 85 3d b6 98 89 3e
       -0.18174031 -0.15172046 0.065272875 0.26874322
000320 ed a2 4e be df f2 9b 3e fa 9f 14 3f 6a de 60 be
       -0.20179339 0.30458733 0.58056605 -0.21959844
000330 29 06 ff 3e 1b 84 f7 3b 61 6d 66 be 9c 93 dd be
       0.49809387 0.00755359 -0.22502662 -0.4327668
000340 1d 49 1c be cb 46 dd bd b7 68 33 be 73 35 b1 bd
       -0.15262266 -0.10804518 -0.17520414 -0.08652773
000350 6e 6e 09 3e b8 74 e1 3e ae 5e f3 be c8 48 f0 3b
       0.13421032 0.44034362 -0.47533172 0.007332895
000360 6b c4 b4 3e 74 05 8e 3e 50 e5 93 3e 8b d5 00 be
       0.35306105 0.27738535 0.2888589 -0.1258146
000370 76 8e 62 3e 94 b7 86 be cf 7d 15 3e 52 96 f3 3d
       0.22124657 -0.26311934 0.14598773 0.11893906
000380 76 5f 3f 3e 7b 08 b9 be 69 6e dd be 47 52 84 3e
       0.18688759 -0.36139283 -0.432483 0.25844023
000390 05 7f 0b bf 42 10 f0 3e 8d 6c dd 3e f7 26 f6 bd
       -0.5449069 0.46887404 0.4324688 -0.12019151
0003a0 86 3a 77 be 0d 9d 41 be 12 f9 46 3f 0d 5f 80 3d
       -0.24143419 -0.18907566 0.777238 0.062681295
0003b0 b1 de 0d 3c 18 fa 46 3b d5 eb be bf eb d0 75 be
       0.008659051 0.003036147 -1.491572 -0.24005477
0003c0 a8 c1 2c bf 1f 93 5e 3e a8 e8 71 be e9 be 53 3e
       -0.67482996 0.2173581 -0.23623908 0.20678295
0003d0 32 72 4a 3e b2 f1 56 3e b2 c6 96 be 33 ed 0b 3d
       0.19770125 0.20990637 -0.29448467 0.034161758
0003e0 2e ba 1f be 44 df ee 3e e5 55 33 3e 47 d2 b8 bd
       -0.15598366 0.46654713 0.17513235 -0.09024482
0003f0 c1 b0 f2 3e ba f4 21 be 85 ec 28 bf 38 43 7e be
       0.47400478 -0.15816012 -0.659859 -0.2483033

fc1.bias f4 [400]
000000 a4 7f 46 3e fb bd e6 be 0c 85 f3 be 60 04 1a be
       0.19384629 -0.4506682 -0.47562444 -0.15040731
000010 25 7e 0b 3f bf 51 ad 3e 98 12 42 be 10 da f3 be
       0.54489356 0.3385143 -0.18952405 -0.47627306
000020 d2 ca 79 3e 82 2a 58 be 02 90 a3 be 90 e5 b9 be
       0.24393776 -0.21109965 -0.31945807 -0.36307955
000030 57 88 14 bf 0d 1c 57 bc 70 86 0f 3f 35 c5 af 3e
       -0.5802054 -0.013129246 0.5606451 0.34330145
000040 64 90 71 be 23 3e 0e be 9b 7b 0e bf b1 50 46 be
       -0.23590237 -0.13890891 -0.55657357 -0.19366719
000050 f1 ae 3a 3d 54 6a 9a be 7b 85 0a 3f 67 cf cc be
       0.045576993 -0.30159247 0.54109925 -0.40001985
000060 0f 64 50 3e 87 11 9a 3e 16 f7 8b 3d 0a ee 90 be
       0.2035067 0.30091497 0.06834237 -0.2830661
000070 8e 7c b7 be 48 ea 10 3f 28 9f 18 bf aa 78 e3 3e
       -0.35837215 0.56607485 -0.59617853 0.44427997
000080 47 28 04 bf d4 ec 32 be 07 7c dc 3d b3 e5 00 3d
       -0.5162396 -0.17473155 0.10765844 0.03146906
000090 a0 48 f0 3e 30 dd ae be 69 85 b4 bd d1 0e b1 bd
       0.46930408 -0.34153128 -0.088145085 -0.08645404
0000a0 43 45 99 3d 9d 7c 02 be b5 76 b1 3d d4 80 4a 3d
       0.07483914 -0.12742849 0.0866522 0.049439266
0000b0 7c 3a 86 3e 38 92 82 3e 71 65 dc 3e 83 4b f0 3e
       0.26216495 0.2550218 0.43046144 0.4693261
0000c0 3c 3e 04 be 01 2b 0a bf d2 5b 10 3f cb ea f0 be
       -0.12914366 -0.5397187 0.56390107 -0.47054133
0000d0 2f 5e 7d bd 5e 53 71 be b2 3f 83 be 11 26 e2 be
       -0.0618574 -0.23566958 -0.25634533 -0.44169667
0000e0 19 97 23 be 01 8a f1 3d 0d bf e1 3d 00 f8 bd be
       -0.15975608 0.117939 0.11022768 -0.3710327
0000f0 91 9b 07 bf 3d c4 ad be 66 b0 7c be 0f 21 9e be
       -0.5297175 -0.3393878 -0.24676666 -0.30884597
000100 28 49 31 3e b8 45 5a bd f4 d9 ab be c4 16 7b 3e
       0.17313063 -0.053289145 -0.33564723 0.24520403
000110 9b ca 8a be 1a d1 94 3d fa 6d 08 3f 03 a6 dd 3e
       -0.271077 0.072664455 0.5329281 0.4329072
000120 ee 1b d5 be 56 e8 ec 3e d6 f7 5d 3d 32 c8 77 3e
       -0.4162287 0.46271008 0.054191433 0.24197462
000130 8b 73 0c 3f 0a 8d 83 3e b3 91 11 3f 40 2f 53 3e
       0.54863805 0.25693542 0.56862944 0.20623493
000140 fe de 23 3e f5 69 aa be 79 df bb 3e 16 e4 53 3e
       0.16003034 -0.33283964 0.36693934 0.20692477
000150 18 0c 22 3f fe bc c6 be 56 9e 08 be 4f a7 03 3f
       0.63299704 -0.38816065 -0.1334165 0.5142717
000160 42 e9 02 bf 2b 57 8c bd d5 fe df be e7 3d b0 3e
       -0.51137173 -0.068525635 -0.4374911 0.34422228
000170 8f 0e b5 be ce 3d f3 3e 6b 77 0e bd d8 28 cb be
       -0.3536267 0.4750809 -0.034781855 -0.396796
000180 de 89 83 be b0 d2 2d 3e 03 89 c1 3e 18 df 0d bf
       -0.25691122 0.16974902 0.37799844 -0.5541854
000190 44 8d fb 3e e7 43 56 be 3f fa e5 3e a7 39 ec bc
       0.49131215 -0.2092434 0.44917485 -0.028836085
0001a0 80 7a b5 be f3 9c 28 3e 61 2a 99 3e 4e 37 66 3e
       -0.35445023 0.16466121 0.29915145 0.22482035
0001b0 0d 9c 39 be 2c e6 45 bc c1 57 00 3f 0f 34 b3 be
       -0.18125935 -0.012078803 0.501339 -0.35000655
0001c0 87 e7 ec 3e 52 14 ba 3e 1c ac 88 be c2 c0 0b be
       0.4627039 0.36343628 -0.2669381 -0.1364775
0001d0 e0 ae 12 3f 41 02 59 be 03 23 1d be 20 99 c0 bd
       0.5729809 -0.21192266 -0.15345387 -0.09404206
0001e0 bf 3c 2e 3e 39 f7 0b bf 83 6e ef bb fa aa b4 3d
       0.1701536 -0.54674107 -0.007306875 0.08821674
0001f0 bc 27 97 3e e8 0c 03 3f 81 78 32 3e dd d1 09 3f
       0.29522502 0.5119157 0.17428781 0.5383585
000200 fb fe 15 bf d8 35 51 3e 6e c3 1c 3f 7b 18 eb 3e
       -0.58592194 0.20430696 0.612357 0.45917115
000210 0c 05 69 3e 92 3d 4f be e8 14 ef be 03 bf b0 3e
       0.22755831 -0.20238331 -0.46695638 0.3452073
000220 b2 d5 aa be 82 9e d1 3e ca c6 1a 3e 4d c8 b2 3c
       -0.33366162 0.40941244 0.15114895 0.021824026
000230 9e 10 c0 bd 64 b8 fa 3d 6a af 00 bb b4 db bd 3e
       -0.093781695 0.12242201 -0.0019635805 0.37081683
000240 fb e8 a5 3e 52 cc 24 3f dc dd 01 3f ab 20 03 3f
       0.32404312 0.6437427 0.50729156 0.5122172
000250 5f f0 6f be d5 3f 08 3f 69 2a c0 be 6b ed 43 3e
       -0.23431538 0.532224 -0.37532356 0.19133537
000260 cb ce cb be 2d 19 9f 3e f8 41 d7 be a8 84 a5 be
       -0.39806208 0.31073895 -0.42042518 -0.3232777
000270 53 6a 26 be b3 89 a2 be e0 cc a8 3e 2e 3e e0 be
       -0.16251497 -0.3174568 0.32968807 -0.4379744
000280 d0 d0 74 bc 08 08 1a be fb 7f 9e be 7b 7f ba be
       -0.014942363 -0.15042126 -0.30957016 -0.36425385
000290 ed 1a 9a 3e 74 e0 ca 3e ee 32 b5 3d e7 d8 e7 be
       0.30098668 0.3962437 0.08847605 -0.4528267
0002a0 6b b9 99 be 36 3e 31 be e5 c5 5f 3e ca fe 97 3d
       -0.30024275 -0.17308888 0.21852835 0.07421644
0002b0 59 d3 69 bc 75 67 60 3e 27 42 e7 bd 73 2a 0c bf
       -0.014271581 0.21914466 -0.112919144 -0.5475227
0002c0 e9 37 c7 3e bc 08 ac 3d 23 dc 82 3e 06 13 ac be
       0.38909844 0.084001034 0.25558576 -0.33608264
0002d0 d5 5d 2a 3d 75 99 74 be dd 54 e8 3e 2b c4 9b 3e
       0.04159339 -0.23886664 0.45377246 0.30423102
0002e0 d0 64 e0 be 5f 99 a9 be a0 b2 b0 3e 95 6c ae 3e
       -0.43826914 -0.33124825 0.3451128 0.34067217
0002f0 58 fc e5 3e 1e e5 64 be 5a 9b 1f 3e 68 b4 0b 3e
       0.44919086 -0.22353026 0.15586606 0.13643038
000300 61 a9 ca be 1b f2 27 3e 6a 4f 77 3e 6e 87 91 bd
       -0.3958235 0.1640095 0.24151388 -0.07105909
000310 e9 34 0e bf 27 91 82 be 75 19 b9 3e 32 43 46 bf
       -0.55549484 -0.25501367 0.36152235 -0.7744628
000320 24 76 b9 be 92 4e e8 be 1d 6b ae be fc c3 85 3e
       -0.36222947 -0.45372444 -0.34066096 0.26126087
000330 b4 5d e4 be 59 a9 a9 be 2b 88 ab 3e cd a4 be 3e
       -0.4460274 -0.33137015 0.33502325 0.37235108
000340 30 6a 39 3e 69 7f e9 bd 84 62 01 bf 82 26 ae 3e
       0.18106914 -0.11401255 -0.5054095 0.34013754
000350 2b f6 34 3e 4c 6f 40 3e 6f 57 a2 be e1 65 16 3e
       0.1767203 0.18792456 -0.31707332 0.14687301
000360 9a fd dd 3d 37 0f d6 3e b9 94 3d 3e 88 67 ff 3d
       0.10839386 0.41808483 0.18513764 0.12470919
000370 94 49 06 be 1a 43 10 bf b3 66 af 3e e5 81 60 3d
       -0.13114005 -0.5635239 0.3425804 0.054811377
000380 d3 53 92 bc dd 26 23 3e 23 a1 c8 3e f8 60 e0 be
       -0.017862236 0.15932794 0.39185438 -0.4382398
000390 76 0d 0b bd b9 93 5a be fa a3 8e 3e 65 96 11 3f
       -0.033948384 -0.21345414 0.2785948 0.5687011
0003a0 95 9f 1d be 3a 41 ec 3d 82 18 3b 3e ef ea 8b be
       -0.15392907 0.115358785 0.18271068 -0.27327678
0003b0 6b c0 29 3e 55 31 69 bd 8f 48 d6 3e 3f fc 80 be
       0.16577308 -0.056931812 0.41852233 -0.25192448
0003c0 e9 c0 d7 3e 5a 07 53 3d 35 22 e7 3e 16 11 c1 3d
       0.42139366 0.051520683 0.45143285 0.09427087
0003d0 3e 71 14 3f 64 50 90 3e 3d f4 b3 be a5 9f d0 be
       0.57985294 0.28186333 -0.35147277 -0.407468
0003e0 3c 4b c2 3d c6 c9 b4 be 09 35 a7 be 5a ca 18 3e
       0.09487006 -0.3531019 -0.3265765 0.14920941
0003f0 4d bd 00 be 7c 40 e5 be 95 a7 f2 be 00 44 fa be
       -0.12572213 -0.4477576 -0.4739348 -0.48880005

fc2.weight f4 [400, 400]
000000 4e 88 2a 3d c3 dd 28 be ac 9f 28 3d bd 12 39 bd
       0.041633897 -0.16490845 0.0411679 -0.045183886
000010 d8 7a 95 ba c0 b6 8c 3d 14 e8 23 3d 65 4d 8a 3d
       -0.0011404408 0.06870794 0.04001625 0.06753043
000020 45 71 3f bc 58 ef a1 3d 8c 42 04 be 91 bf 6d bd
       -0.01168472 0.07906979 -0.1291601 -0.05804402
000030 b1 13 0f 3e 91 3e f4 bc 17 17 b2 bb 7c 8b 55 3d
       0.13972355 -0.02981499 -0.0054348814 0.052134976
000040 fd bc 3e 3d 0b 5b 94 be e8 8c 34 3c f2 a2 8c bd
       0.046566952 -0.2897571 0.011019923 -0.06867017
000050 5c 86 27 3d 42 e7 04 bd 42 52 bb 3d a7 78 fb bd
       0.04089962 -0.032447107 0.09146549 -0.12278872
000060 ed d8 a0 b7 5c 4b d9 3c a3 21 80 bd 9e 10 56 bc
       -1.91745e-05 0.026525192 -0.06256416 -0.013065485
000070 46 12 07 bf d2 81 03 3d 76 f6 ef be 28 fa b1 3d
       -0.5276226 0.03210623 -0.46867722 0.08690292
000080 4a 84 10 bc 19 3f 0e 3a 70 33 5b 3d 45 16 60 3d
       -0.008820603 0.00054262724 0.05351585 0.054708738
000090 3d 4e 4e 3d a7 60 15 bd a1 f6 b6 bc 3a 3c 29 3d
       0.050367583 -0.036469128 -0.022334399 0.041317202
0000a0 b5 43 d0 3c 9f b8 94 bd 58 02 43 3d 9f 55 75 3d
       0.02542291 -0.07261776 0.047609657 0.059896108
0000b0 0f ff 83 b9 ec f9 ed 3c 6e 0c 0c 3d 41 79 5c 3d
       -0.000251763 0.029049836 0.03419154 0.053826574
0000c0 8f 50 ac bd db 42 cf 3d 10 d7 fc 3c b6 c2 9a 3c
       -0.08413803 0.101201735 0.030864269 0.018891674
0000d0 18 86 2e 3d 9d 9b 74 bd a1 f1 36 3d 7d 89 c8 3d
       0.04260835 -0.059718717 0.04466403 0.09791849
0000e0 ff 48 3e bd 23 c9 ed bb 31 51 69 3d 0a 7d 7d bf
       -0.046456333 -0.0072566434 0.056962196 -0.9901892
0000f0 6b 09 02 3e 75 fe cb bc 4e 66 1b bd 53 c8 c9 bd
       0.12698905 -0.024901608 -0.037939362 -0.09852662
000100 3b 6a 2a 3d e1 b0 8c 3c b6 58 48 bc 94 a0 b6 3c
       0.041605216 0.017174186 -0.012228182 0.022293366
000110 34 45 f3 3c 3c 72 ad 3b 29 b6 9d 3d 42 c3 cd 3b
       0.029696085 0.005293159 0.0770076 0.00627938
000120 c3 36 a9 bd d4 00 0d 3c 0d 0f 52 bd 42 7c 18 3d
       -0.08262398 0.0086061545 -0.051283885 0.037227876
000130 f8 2c a5 3d 7b 14 88 bc b6 d4 5e 3d c8 ae 6a 3d
       0.08065218 -0.016611328 0.054402076 0.05729559
000140 5f 78 09 3d 32 d4 a7 bc 22 41 82 3d 16 1a 34 3d
       0.03356206 -0.020486925 0.06360079 0.04397019
000150 de 69 c8 3d 2d 9e 41 be a0 72 0d 3e 03 9e 2d bb
       0.097858176 -0.18907996 0.13813257 -0.0026491887
000160 c4 d9 89 ba af 94 95 3c ee 1c c1 bd 30 7d 73 3d
       -0.001051717 0.018259374 -0.09429346 0.05944556
000170 d4 d3 3c bd ca a0 bc 3c e2 97 e5 3c a6 e5 17 be
       -0.046100453 0.023025889 0.028026525 -0.14833698
000180 00 da e9 3c 9d 2e 8d 3d e6 97 1d 3d 7d 30 4d bd
       0.028546333 0.068936564 0.03847494 -0.05009507
000190 d7 e0 8e 3d 1e eb 15 be 65 61 b4 3d f0 ed ae bb
       0.069764785 -0.14640471 0.08807639 -0.005338423
0001a0 73 40 b7 bd 0d 94 39 bc ad 23 82 3d c8 2b 71 3c
       -0.089478396 -0.011326802 0.06354461 0.014719911
0001b0 ad 59 83 bd b6 a6 0c 3d 95 c8 89 3d 0f 18 38 be
       -0.06413589 0.034338675 0.06727711 -0.17977928
0001c0 6e e7 5c bc dc 08 72 3d cb 46 00 bd 84 06 b7 ba
       -0.0134829115 0.05909048 -0.031317513 -0.0013963734
0001d0 af 14 88 3d c4 c6 7d 3c 68 4f 87 bd f9 61 eb 3c
       0.0664457 0.015489284 -0.066069424 0.02873324
0001e0 f5 27 14 3d 6d ab 73 bd 43 ad e1 bd dd 89 d7 3c
       0.03617092 -0.059489656 -0.11019375 0.026310856
0001f0 91 3b 7d 3d 80 1c 40 3d 83 6d 8a 3d f5 dd 23 3d
       0.061824385 0.04690218 0.06759169 0.040006597
000200 1a 3b 4c be 5b 15 59 3d ba 3a 56 3c 1f ff 14 3d
       -0.1994442 0.05299888 0.013075525 0.036376115
000210 55 37 2c 3d 7a 5f 6e bd 05 a8 dd 3d 30 79 2c bc
       0.042044956 -0.058196522 0.10823063 -0.01052694
000220 76 4e 98 bb 3c c2 5a 3d 84 2c 82 3d f6 e1 94 3d
       -0.004648025 0.053407893 0.06356147 0.07269661
000230 2e 7d 96 3b 64 6e 04 3d 02 99 a1 3c 39 64 88 3d
       0.0045925593 0.03233184 0.01972628 0.06659741
000240 75 ca 03 3c d8 69 e4 3c 2a 78 aa 3d 37 eb dc 3c
       0.008043875 0.027882501 0.08323701 0.026967628
000250 f3 2a 41 3c 9f 07 12 bd 8b a7 76 3d 12 79 65 bd
       0.011790025 -0.0356518 0.060218375 -0.056023665
000260 86 9f 5a be 65 90 6c 3d 77 1c 03 be 95 a0 21 3d
       -0.21349916 0.057754893 -0.12803827 0.039459784
000270 51 a8 2d 3d fa f7 a2 bd 30 e8 2f 3d 03 fb 74 bb
       0.042396847 -0.07957454 0.04294604 -0.003738106
000280 0e 37 97 3a f2 e5 ba bc 2b 3c d5 3d 35 b2 a2 bd
       0.0011536793 -0.022814725 0.10411867 -0.079441465
000290 e2 56 42 3d 6f 38 05 3d c7 8c 57 3d 24 57 15 bc
       0.04744614 0.032524522 0.05262449 -0.009115014
0002a0 06 f8 a3 bf 96 fb ad bb 4a a4 b6 bc ab 79 79 3d
       -1.2810066 -0.0053095324 -0.022295136 0.060907047
0002b0 54 30 5b 3d b2 a4 b7 3d 85 43 e1 bc b2 fa 60 bd
       0.053512886 0.0896696 -0.027498016 -0.05492658
0002c0 35 0b 51 3d a7 42 bc 3c da 85 82 3d 7a f5 87 bf
       0.05103608 0.022981001 0.063731864 -1.0621789
0002d0 95 a7 34 bd 43 a4 86 bb c7 fe d3 3d 7d 7d da 3c
       -0.04410513 -0.004108937 0.10351329 0.026671166
0002e0 a9 60 78 be 98 84 a6 bd d1 71 af 3d c3 0b 0d 3d
       -0.24255623 -0.08130759 0.08566631 0.034435045
0002f0 84 a0 52 3d 9c c8 8d bd 50 c4 b8 3c 97 53 05 bd
       0.05142261 -0.06923029 0.022554547 -0.03255042
000300 99 df 7e be 31 ed f4 bb 91 c1 52 3d 60 86 40 3c
       -0.24889983 -0.0074745645 0.05145413 0.0117507875
000310 5d 22 6f 3d f2 ec f8 bd 96 4d b8 bb a6 db db bd
       0.05838238 -0.12154569 -0.0056244833 -0.10735254
000320 06 ca c8 bd 7a 86 16 3d 31 fd 1c be 67 91 aa 3c
       -0.09804158 0.03674934 -0.1533096 0.020821286
000330 7f d3 e0 3c 5d 93 d2 bc 17 ca a0 3d 99 4b 62 bb
       0.0274446 -0.025705034 0.078510456 -0.0034529923
000340 7f 84 95 3d 92 d0 58 3d 98 56 a6 be 01 81 9b 3d
       0.07300662 0.052933283 -0.3248794 0.07592965
000350 a9 da 2b 3d 25 d5 e5 bc 58 d3 dc bd 77 42 e9 bc
       0.041956577 -0.028055737 -0.10782498 -0.028474076
000360 86 86 4b 3c 0b 3c 39 3d ad e7 1d 3d 21 f8 ab 3b
       0.01242221 0.045223277 0.03855102 0.005248085
000370 2a 5e 5a bd 37 ab 54 be 4b 81 2e bc 05 70 0c 3e
       -0.053312458 -0.20768438 -0.010650943 0.13714607
000380 26 b4 45 bd 6d e7 17 3d 5a d6 c1 3c dd ea 52 bd
       -0.048267506 0.03708594 0.023661781 -0.051493514
000390 2f 3b 80 3d 3b 8b e5 3b c0 e2 22 3d ef 02 97 3c
       0.062612884 0.007005123 0.039767027 0.018434016
0003a0 b8 cf 3b 3b 5b 25 d4 3d bf e0 a7 3d 5b e1 c7 bd
       0.0028657746 0.103586875 0.08197164 -0.0975978
0003b0 0b 05 7a 3a b3 fc 9d 3d 5e 6b 3a 3d e1 96 b8 bc
       0.00095374946 0.07714214 0.04551255 -0.022532882
0003c0 d9 a4 f7 bc 0a 3a db 3d a8 4d 9a 3d 5c 72 34 3d
       -0.030229973 0.107044294 0.07534343 0.044054374
0003d0 0d c9 47 3d c9 3f 8e 3d 3a b0 56 bd d7 4d 48 bd
       0.04877572 0.0694576 -0.052414156 -0.04890236
0003e0 0c fa 55 3d 2b aa 6c bd 13 49 42 bf 9b 52 37 3d
       0.052240416 -0.057779472 -0.7589275 0.044756513
0003f0 09 55 85 3d ed 2f 33 3b d0 d3 43 bf 47 a2 2d be
       0.0651036 0.0027341798 -0.76495075 -0.16956435

fc2.bias f4 [400]
000000 60 9a 51 3d 54 e2 e0 3d 39 4c aa 3d a1 da e3 bd
       0.051172614 0.10980669 0.083153196 -0.111256845
000010 6b 97 02 bd c0 18 2f bd f9 5b f0 bb bb 0d da 3c
       -0.031882685 -0.042748213 -0.0073351827 0.026617875
000020 6f c2 e1 3d df af c5 3a a9 9f 67 3d 26 eb 35 3d
       0.110234134 0.0015082321 0.05654875 0.04441371
000030 8a eb 08 3d d5 8e a4 bd 5b 33 22 3d 6a 52 03 bd
       0.033427753 -0.080350555 0.039599758 -0.032061018
000040 2f ee 27 3d 1c a6 b8 3c 10 24 85 bd 1d 5c 07 3c
       0.040998634 0.022540145 -0.06501019 0.008261708
000050 07 89 50 bd d7 68 e5 b9 5d 8f 81 3d 92 e5 51 3c
       -0.05091193 -0.00043756395 0.063261725 0.0128110815
000060 8e 81 0e bd 5d 97 32 3c 38 33 2f 3d b7 a1 a3 3d
       -0.03479152 0.010900346 0.042773455 0.07989829
000070 f3 86 7e 3d 30 97 0a 3e a4 70 4b 3d bc 00 9f 3d
       0.062140416 0.13534236 0.04966797 0.07763812
000080 68 60 42 3c 9a e2 a6 3c 1b e2 6a 3d 85 4d 08 bd
       0.011863805 0.020371724 0.057344537 -0.033277053
000090 81 d7 26 3d 7f b8 fa 3b 03 95 3d bd b5 a3 50 3d
       0.040732864 0.007651388 -0.046284687 0.050937373
0000a0 d9 5f 76 3d 4a 28 e9 3d 9f b4 a2 3c 6f 44 c3 3d
       0.06015 0.11384638 0.019861517 0.09534537
0000b0 6d e1 a7 bd 17 f2 fb bc 3a cf 00 3d c1 7c 13 3d
       -0.081972934 -0.030755086 0.031447627 0.036007646
0000c0 fd 69 f8 bc c3 e3 b3 3b 9a 41 ab 3c 67 27 d3 bd
       -0.030323977 0.005489798 0.020905305 -0.1031025
0000d0 78 82 10 3c b0 b7 52 3d 4c ca 9f 3c 02 e3 76 3d
       0.008820169 0.05144471 0.019505642 0.060275085
0000e0 5e f0 92 3d c8 49 21 3d 9f 16 02 3d 1e 0d 9a bc
       0.07174753 0.039377004 0.031759854 -0.018805083
0000f0 d5 80 96 3d 80 fc ee 3c f3 2f a2 3a 3b 9e 04 be
       0.073487915 0.029173136 0.0012373909 -0.12950985
000100 c6 47 00 3e 6d f8 9d 3d a2 23 3f bb 53 f3 9b bd
       0.1252738 0.07713399 -0.0029165526 -0.0761477
000110 ba 3b f4 bd 50 b7 9e 3c 82 cd 8c 3c 93 79 0a 3d
       -0.119254544 0.01937452 0.017187838 0.03380735
000120 b2 b9 04 bd 3e 23 54 3d e2 df 02 3d 48 a9 41 3d
       -0.032403655 0.051791422 0.031951793 0.04728058
000130 4b 53 af bc c8 ad 29 bd 9b 1e 14 3d 42 bb c9 3d
       -0.021402022 -0.041425496 0.036162 0.0985017
000140 b5 0e b7 3d 02 c3 5e 3d 6c d2 03 bb be e4 d0 3d
       0.08938352 0.054385193 -0.0020114435 0.10199879
000150 a6 3b 90 3b f4 f1 19 3d f6 58 01 be b6 f8 83 3d
       0.004401642 0.03758426 -0.12631592 0.06443922
000160 b4 2f 8d 3d 32 37 2b bd 29 3a 80 3d 51 23 52 bd
       0.06893864 -0.041800685 0.06261093 -0.05130321
000170 87 3d 54 bd fe aa 23 3d 26 b7 3c 3d 6a 15 16 bd
       -0.05181649 0.039957993 0.0460731 -0.036641516
000180 e9 76 ec bc 75 93 d4 bd a9 f3 b3 3c af a5 11 3b
       -0.028865295 -0.10379688 0.021966772 0.0022224
000190 d0 73 62 bd 7e 85 98 3d 27 3c 28 3d 87 ec c5 bc
       -0.05528623 0.074473366 0.04107299 -0.024160637
0001a0 86 5d 67 3d 3e 0b 46 3d 96 43 9e 3d d2 23 43 3c
       0.056485675 0.048350565 0.07727735 0.011910396
0001b0 31 7b f3 bc f5 9e ad 3d 7a b9 d5 3c c5 cc be bc
       -0.029721828 0.08477584 0.026089419 -0.023291001
0001c0 0a f1 d2 3c 51 a7 8c bd f8 ec d3 3d 8b 51 d6 3d
       0.025749702 -0.068678506 0.103479326 0.10464772
0001d0 97 ff 1e bd a6 1f d3 3c 85 41 85 3c 31 a1 21 bd
       -0.03881797 0.025771927 0.016266594 -0.039460365
0001e0 f7 62 4a 3c 10 b8 9f 3c 91 f0 ae 3d 43 75 2e bd
       0.012352697 0.019496948 0.08541978 -0.0425923
0001f0 9e e8 54 3c 92 4a 8b 3c 24 a0 79 bd cd 0d 0a 3d
       0.012994913 0.017003331 -0.060943738 0.033704568
000200 ff 2f 77 3d e3 1d e7 bc af aa c9 3a 40 58 8e bd
       0.060348507 -0.028212493 0.0015385951 -0.06950426
000210 21 d9 de 3d 04 97 a3 3d 44 28 0b 3d b8 fd 8a 3d
       0.10881258 0.07987788 0.033973947 0.06786674
000220 86 37 94 3d 85 c7 80 3c dd 5b 33 3c 8c 79 d9 bc
       0.07237153 0.015720138 0.010947195 -0.026547216
000230 60 4c 96 bd ef 0e ef 3c 21 ba b2 3d 99 75 9c bb
       -0.07338786 0.029181926 0.087269075 -0.004774761
000240 fa 43 1f 3b 8e 41 3b 3d 03 04 0e bd d2 30 c9 3d
       0.0024301992 0.045716815 -0.034671795 0.09823765
000250 ad eb 65 3d 11 6b 50 3d 9b 92 36 bd 11 3f b7 3c
       0.05613296 0.050883356 -0.044573408 0.02236894
000260 63 f9 e0 3c 6b 04 da 3d 7b ca 2c 3d 2d 00 f3 bc
       0.027462667 0.10645374 0.042185288 -0.02966317
000270 72 85 f2 3d 14 0d 06 ba 11 19 2f bd ae 6d 98 3c
       0.11841859 -0.0005113643 -0.042748515 0.018606987
000280 ab a0 da 3d 48 88 9a 3d 26 de 4d 3d 10 1b 7f 3d
       0.10675176 0.07545525 0.050260685 0.06228167
000290 8d 21 02 bd 48 e3 a7 3c ca de c0 3c 9e f9 b2 bd
       -0.031770278 0.020494118 0.023543734 -0.08739017
0002a0 85 40 9f 3c 11 1d 20 bd 47 42 c4 bb c5 c5 dc 3c
       0.019439945 -0.03909022 -0.005989346 0.026949773
0002b0 be a0 2d bd c2 88 2b 3d e4 4e 7c 3d f1 e8 1d 3d
       -0.042389624 0.04187847 0.061598673 0.03855223
0002c0 16 da 8e bd 05 4d 51 3d 50 08 05 bd eb 93 17 bb
       -0.0697519 0.051098842 -0.03247863 -0.0023128937
0002d0 d6 a8 32 bc 73 35 23 bc c9 39 4d bd 4d 8f 09 3d
       -0.010904511 -0.009961474 -0.050103936 0.033583928
0002e0 09 5c 02 3c b7 19 22 bc cf 3f 36 3d 02 0b a6 bd
       0.007956513 -0.009893826 0.044494446 -0.08107568
0002f0 74 ac 0b 3d 8f bd 87 bd 30 5f b6 3d 66 5b 76 3d
       0.03410001 -0.06627952 0.08904874 0.060145758
000300 a9 19 ee 3d ac 7b 8c 3b 8c c1 d7 3b 2e ca 80 3d
       0.11625988 0.004287204 0.006584352 0.06288563
000310 13 97 fc 3c 12 20 88 3d 4c b6 68 3b 80 ca d1 39
       0.030833757 0.06646742 0.0035509048 0.0004001446
000320 4b da 21 3d d9 f4 26 bb 75 50 d4 bc b1 bf c8 3d
       0.03951482 -0.002547553 -0.025917271 0.09802187
000330 e8 cf fc 3c f7 7a dd bc b0 25 44 3d 16 67 ed 3c
       0.030860856 -0.027036173 0.047887504 0.02897982
000340 36 0d 0e 3d 06 6b ec bb fb 52 ec bc 75 15 06 3d
       0.034680568 -0.0072149066 -0.028848162 0.032735307
000350 09 65 94 3d 6d 71 86 3a e2 41 a3 3d d2 38 ce 3d
       0.072458334 0.0010257192 0.079715505 0.10069431
000360 a0 33 00 3e 13 23 fe bc 30 45 63 bb fc 5e a9 3d
       0.12519693 -0.031022584 -0.003467869 0.0827007
000370 24 a7 8c 3d 4e 02 e2 bc 5d 99 8b 3c 94 3f d6 bb
       0.06867817 -0.02758899 0.017040903 -0.006538341
000380 8a 84 80 3c b0 4e 28 bd ec 27 0c 3d 07 96 8a 3d
       0.0156882 -0.041090667 0.03421776 0.06766897
000390 8a 59 af 3d e3 92 61 3c 22 dc 78 3b 8a 0e 1b bd
       0.08562 0.013767931 0.0037973006 -0.037855662
0003a0 34 d0 89 3d 3a 3b 4d bd 5d 7a b3 bd 31 e6 18 bc
       0.06729165 -0.05010531 -0.08763573 -0.009332226
0003b0 46 94 e7 3b ba a2 63 3c d2 6a 13 3b 2d 20 87 3d
       0.007067236 0.0138937775 0.002249409 0.06597934
0003c0 9f 99 2c bd 07 5a 59 3d db b4 83 3d 78 42 4b bc
       -0.042138692 0.053064372 0.0643098 -0.012405984
0003d0 c6 ea 5b 3b 5f 35 3e 3d 70 e5 a9 3d b7 b9 27 bd
       0.0033556684 0.046437617 0.08295715 -0.040948596
0003e0 35 bd 0e 3d 01 50 c9 bd 01 24 79 bd d7 b3 ac 3c
       0.03484841 -0.09829713 -0.06082535 0.021081848
0003f0 f0 32 22 3d ed fe 2b 3b ff 96 07 bd 80 98 d8 3d
       0.03959936 0.0026244477 -0.033102985 0.10575962

fc3.weight f4 [2, 400]
000000 f7 8a 1a 3e 9f aa 03 3e 85 2d f7 3d a1 fe 00 bf
       0.15092073 0.12858056 0.12069229 -0.5038853
000010 f2 c2 75 3d f9 c3 9c be 97 61 3b 3d 0c f8 09 3e
       0.060000367 -0.30618265 0.045747366 0.13473529
000020 b2 a0 f9 3d 7d eb 96 3c 00 ed b1 3d 17 dc f7 3c
       0.12188853 0.018422836 0.08687782 0.030256314
000030 61 5a ea 3c 8f c0 49 bd 2a c1 2f bd bd 14 2f bd
       0.02860755 -0.049255904 -0.042908825 -0.042744387
000040 f6 56 34 3d 41 ed 90 bd 4a 45 77 bf eb 64 eb bb
       0.044028245 -0.070765026 -0.965901 -0.007183661
000050 71 c3 c3 3e 0a 66 7e bc 99 4d 5a 3e 39 99 84 3d
       0.38235047 -0.015527258 0.21318664 0.064745374
000060 80 9a 02 bb b9 2a 83 3d 9c 64 c7 3d dc 80 05 3e
       -0.0019928515 0.06404633 0.097359866 0.13037437
000070 45 48 79 3d 25 02 25 3e 7f a0 3b be 5b d8 0d 3e
       0.060859937 0.161141 -0.18322943 0.13852064
000080 0a 1c 97 bb fd cd b7 3c f9 5e 08 3e 66 1c 09 bd
       -0.004611497 0.02243709 0.13317479 -0.03347435
000090 d0 24 10 3d 01 64 8e 3d 64 fa 33 3e 74 73 c1 be
       0.035191357 0.06952668 0.17575985 -0.37783396
0000a0 a0 ac 65 3d 9f c5 1f 3e d1 72 e1 3c 8c 68 a4 be
       0.05607283 0.1560273 0.027520569 -0.32111013
0000b0 1c c2 80 be 6e 1e 06 3d e8 e2 bd bb bf 5f 8f bc
       -0.25148094 0.032743864 -0.0057948716 -0.01750171
0000c0 24 fd 53 3e 82 f1 64 bc ca 87 a6 bc 64 f9 d7 3e
       0.20702034 -0.013973596 -0.020328421 0.42182457
0000d0 c0 9d b6 bb 3a 3f 4a 3d 81 58 9d bc 96 73 65 3d
       -0.0055730045 0.049376704 -0.019207241 0.056018434
0000e0 0a 1a 66 3d f7 52 52 3c 95 74 15 bc 97 21 15 bd
       0.056177177 0.012837163 -0.009122034 -0.036408987
0000f0 e6 12 0e bd a8 49 26 3c 4a e8 be bb a9 2b 22 bf
       -0.03468599 0.010149397 -0.005826031 -0.6334787
000100 e6 64 b7 bc 16 8a e0 3d 57 30 31 be f8 ff 62 be
       -0.02238698 0.10963838 -0.17303596 -0.22167957
000110 7f ec dc be a2 44 45 3d f2 e4 ff 3d 4b 35 db bd
       -0.43149182 0.048161156 0.1249484 -0.10703524
000120 a0 ce 37 bc dd b4 bc 3d c2 69 6e bc 02 20 d5 bd
       -0.011218697 0.092141844 -0.014551582 -0.10406496
000130 b6 41 93 bc fb 97 df be 17 2e d7 3c ec d0 39 3d
       -0.01797567 -0.4367064 0.026267095 0.04536526
000140 08 34 fe 3d 37 00 10 3d 03 a2 af 3c 72 3d ca 3c
       0.12412268 0.035156455 0.021439558 0.024687503
000150 56 6c 18 3d 27 8d 02 3e ed 69 22 3f 85 e2 cf be
       0.037212692 0.12749158 0.6344288 -0.40602508
000160 97 b8 2f 3e 9b fb 44 bf d7 8a a3 bd 15 64 27 bd
       0.17160259 -0.7694642 -0.07985466 -0.04086693
000170 ca 9c 80 3c 1a 75 17 3e 6b df 4f be 22 61 ef 3c
       0.015699763 0.14790764 -0.20300071 0.029221121
000180 41 1e 9a bc 74 0d ee be 6a 3a d8 bc 80 da bb 3c
       -0.018813254 -0.4649464 -0.026395041 0.022931337
000190 33 6c 10 bf c9 c6 9a 3d 26 ce e8 3d 7c b3 81 bf
       -0.564151 0.075574465 0.11367445 -1.0132899
0001a0 cb 4c f4 3d e9 a7 00 3e b5 55 6f bc cf 5f c7 3c
       0.119287096 0.12564053 -0.0146078365 0.024337677
0001b0 6f 14 44 bd 15 b8 12 3e 37 09 ef bc 67 2e 23 bd
       -0.04787105 0.14328034 -0.029179199 -0.039839175
0001c0 01 8d f9 3d 5b 9a 02 be 1a 27 0c 3d 57 1c 46 3e
       0.121850975 -0.12754194 0.034216978 0.19346748
0001d0 c0 62 d8 bc c9 9e 2b bd f7 3e 19 3d ce 38 14 3f
       -0.026414275 -0.041899476 0.037413564 0.5789918
0001e0 7e 4b 1f be df 78 3b 3c 91 1b 9d bd 2e 1c 32 bc
       -0.15556142 0.011442392 -0.076712735 -0.010870976
0001f0 ac ef 82 3d 68 c6 f4 3b 07 cf 3c be 85 d2 0a 3e
       0.0639337 0.007469941 -0.1843835 0.1355687
000200 20 a5 cc 3d db 03 46 bd 1e a7 1a 3f 4d 40 a2 bd
       0.099924326 -0.04834352 0.6041125 -0.07922421
000210 e2 0d a8 3d d3 6d 9d 3d fc a0 0e 3e e1 7b 6b 3c
       0.08205773 0.07686963 0.13928598 0.014372797
000220 6b 3a 24 3d 73 75 24 3d 49 87 41 3d 85 66 b7 bd
       0.040094774 0.04015107 0.04724816 -0.08955101
000230 ec c8 b9 bd 1d f4 47 3b 53 56 08 3e 0c 2a 9f bc
       -0.09071526 0.0030510493 0.1331418 -0.01942923
000240 03 d4 55 be d8 e7 0c bd 4c d5 c5 bf 6a cb 10 3d
       -0.20881657 -0.03440079 -1.5455718 0.03535024
000250 18 82 ce 3d 34 19 8a 3d 84 c2 02 3b 27 03 fa bc
       0.10083407 0.06743088 0.0019952366 -0.030519081
000260 bc 07 00 3e 1f 71 fc 3d 06 01 16 be d0 33 f4 bc
       0.1250295 0.12326264 -0.14648828 -0.029809862
000270 cb 90 fd 3d 19 67 07 3c 25 31 fb bc aa 7e 44 3d
       0.12381133 0.0082643265 -0.030663082 0.04797236
000280 80 83 42 3e 6a 65 bb bd 40 1f 90 3d bc 12 03 3d
       0.18995476 -0.091502026 0.070372105 0.03200029
000290 46 0a b8 3c 11 71 4c bc 60 16 33 3d a4 59 bb 3e
       0.022465836 -0.012478129 0.04372251 0.36591828
0002a0 00 bc 1b 3d 3c c3 71 3c ba ac fd bb 85 78 12 bd
       0.038021088 0.01475602 -0.007741538 -0.035759468
0002b0 9b ee c1 bd bc 7b 30 3e 48 e4 14 3e c8 9f 20 bd
       -0.094693385 0.17234701 0.14540207 -0.03921488
0002c0 44 81 b0 be a0 73 86 3d 1b ec 65 bf 2b 5e 7f bb
       -0.34473622 0.065650225 -0.89813393 -0.003896604
0002d0 38 0b 08 3d af 0d 8b 3c 3a b0 8b bc 7a 1a f4 bc
       0.033213824 0.016974298 -0.017051805 -0.029797781
0002e0 93 e0 0f 3d 7f db 52 ba b5 a0 06 3e a4 7a 2b bf
       0.03512628 -0.0008043572 0.13147242 -0.6698401
0002f0 e2 0f 33 3d f3 cc b6 be 7c 44 df 3e 67 d8 31 3b
       0.04371632 -0.3570324 0.43606937 0.0027137042
000300 06 b4 fe 3d 96 c1 6e 3b ab 90 35 bd 15 b2 f7 3c
       0.124366805 0.0036431304 -0.04432742 0.030236283
000310 d5 d2 d7 bd 2c 97 43 3d 6a cb ba 3c b9 ef d9 3e
       -0.1053826 0.04775159 0.022802074 0.42565706
000320 c3 e9 a7 3d 69 f6 0e bf b9 99 09 b8 34 d1 dc 3c
       0.081988834 -0.5584474 -3.280651e-05 0.026955225
000330 16 4c 80 3d 56 37 12 bd 3e ba 08 3d 38 33 70 3d
       0.06264512 -0.035697304 0.03338074 0.058642596
000340 bf 28 12 3e a6 a9 3a be 90 1d 23 3d 28 37 f9 3b
       0.14273356 -0.18228778 0.039823115 0.007605452
000350 c3 ce d1 3c 0a 32 30 be 77 97 6e be 23 e6 92 3d
       0.025611287 -0.17206588 -0.23299967 0.07172801
000360 61 72 27 3e b3 7d 3c bf 97 21 ff bc cf af c0 3d
       0.16352226 -0.736293 -0.031143947 0.09408533
000370 39 49 2d 3d 8c 52 a5 3c f6 a1 a5 3c 1a 60 e3 3a
       0.04230616 0.020180963 0.02021883 0.0017347366
000380 bb c3 1d be c9 bf 42 3d 5d d8 1a 3d 76 00 1e 3d
       -0.15406696 0.04754618 0.037803996 0.03857466
000390 6d fe 0b 3e 94 24 27 be 1a 69 bb bb 2a 11 46 bd
       0.13671274 -0.16322547 -0.005719316 -0.048356213
0003a0 3b 71 06 3e 21 98 ec be a4 a2 a9 be f7 4e 7a bd
       0.13129131 -0.46209815 -0.33131897 -0.061110463
0003b0 03 74 01 be 34 53 19 3c c1 0e 7a bc cd c6 dd bd
       -0.12641911 0.009358216 -0.015262307 -0.10828934
0003c0 d2 e1 3c bd d1 30 d7 3d 6b 90 02 3d 4d cc 1d 3d
       -0.046113797 0.10507358 0.03187601 0.038524915
0003d0 bc be 52 3c 95 ea 2c 3b f3 e5 18 3e 32 43 3e be
       0.012862857 0.002638494 0.14931469 -0.1858032
0003e0 14 a5 03 3e a1 c7 87 bf 56 c4 b7 3e 0a f0 10 be
       0.12855941 -1.0607797 0.3589198 -0.14154068
0003f0 cc 76 41 be 2f e0 0b 3d 6c 40 65 bd 11 3f 61 be
       -0.18892974 0.034149345 -0.05596964 -0.21996714

fc3.bias f4 [2]
000000 9d e7 fa 3c 1e 88 11 3d
       0.03062802 0.035530202
