reinforcement_learning/models_cartpole/dqn_agent_good.pt (torch_old, 653905 bytes, 6 tensors)

fc1.weight f4 [400, 4]
0	0x3eb88540	0.36039162
1	0x3e09a422	0.13441518
2	0xbf77b401	-0.9675904
3	0xbd718a1c	-0.058969602
4	0x3e17a19b	0.14807741
5	0xbc236712	-0.009973304
6	0xbf621d70	-0.8832617
7	0xbee49bc1	-0.4465008
8	0x3dc47704	0.09593013
9	0x3c8eed89	0.01744725
10	0xbd87849a	-0.066170886
11	0xbe6d29ea	-0.2316052
12	0xbef07964	-0.46967614
13	0x3e9c9930	0.30585623
14	0x3ef11394	0.4708525
15	0xbe7bd941	-0.24594595
16	0x3ea05861	0.31317428
17	0x3e34381d	0.1759953
18	0xbf863782	-1.048569
19	0x3eaed8e9	0.34149864
20	0x3e0ae271	0.13562943
21	0x3e905ef3	0.2819744
22	0xbdf9bfd3	-0.12194791
23	0x3e8189da	0.25300485
24	0x3ec76c75	0.38949934
25	0xbe63af4e	-0.22234842
26	0xbee5143f	-0.4474201
27	0x3eaa4626	0.33256644
28	0xbd9adf24	-0.07562092
29	0x3c7c7b37	0.015410236
30	0x3eb42a6b	0.35188612
31	0xbd7a32f3	-0.061083745
32	0x3f213621	0.6297322
33	0xbe0b233c	-0.1358766
34	0xbf5218c8	-0.82069063
35	0xbe325e8d	-0.17418881
36	0x3ebf94e5	0.37418285
37	0xbcc944bb	-0.024568906
38	0xbd6373c8	-0.05553034
39	0xbe8c0a15	-0.27351442
40	0xbebbfc2a	-0.36715823
41	0x3eeffebc	0.46874034
42	0x3f012fdd	0.5046366
43	0x3de28db4	0.11062184
44	0xbe9cf475	-0.30655256
45	0x3e96dfd5	0.29467645
46	0xbf3eaaae	-0.74479187
47	0xbebbf903	-0.36713418
48	0xbec405ce	-0.3828568
49	0x3d13f8d5	0.036125977
50	0xbeb7d962	-0.35908037
51	0x3cbeeef8	0.023307309
52	0x3dd6abdf	0.104820006
53	0x3e805699	0.2506607
54	0xbe590084	-0.21191603
55	0x3ed92b08	0.42415643
56	0xbf043883	-0.5164873
57	0x3ea1f2f2	0.31630665
58	0x3efa9243	0.48939714
59	0xbcf7ad2b	-0.03023394
60	0xbc607379	-0.013699406
61	0xbf03bafd	-0.51457196
62	0xbed6c327	-0.41945764
63	0xbe0d59f4	-0.13803846
64	0xbead286a	-0.33819896
65	0x3eb3f30c	0.35146368
66	0xbf33eca7	-0.7028298
67	0xbe0b0c21	-0.13578846
68	0xbe848f4b	-0.25890574
69	0x3ec75dcc	0.3893875
70	0x3ea5520a	0.32289153
71	0x3e8d8fdb	0.27648816
72	0x3ed167ab	0.40899405
73	0xbee825c9	-0.45341328
74	0x3dc38313	0.09546485
75	0xbe331541	-0.17488576
76	0xbe08667c	-0.13320345
77	0x3ec8b402	0.39199835
78	0x3df11b5b	0.11772796
79	0xbe33f06e	-0.17572185
80	0xbdb1dad3	-0.086843155
81	0x3e51671a	0.20449486
82	0xbf6128dc	-0.8795297
83	0xbeb246fd	-0.34819785
84	0xbe9cd533	-0.30631408
85	0xbe97c079	-0.29639032
86	0x3e80775a	0.25091058
87	0xbe96f6d0	-0.29485178
88	0x3e152c8c	0.14567775
89	0xbd270137	-0.040772643
90	0x3f4b0a5d	0.7931269
91	0x3e15a7d0	0.14614797
92	0xbec65c38	-0.38742232
93	0xbe283c1b	-0.16429178
94	0xbf02456f	-0.508872
95	0xbe7718b7	-0.24130522
96	0x3eb1e49d	0.3474473
97	0xbdd0f5a5	-0.10203103
98	0xbf8fe559	-1.1241866
99	0xbe70d1c4	-0.23517519
100	0x3e91ae89	0.28453472
101	0x3e2fbe75	0.17162497
102	0x3ec662b2	0.38747174
103	0x3e0d143c	0.1377725
104	0xbd9727fe	-0.07380675
105	0x3ebf14ef	0.3732066
106	0xbe7dc785	-0.24783142
107	0x3da27b2b	0.07933649
108	0xbc2e9772	-0.010656225
109	0xbe3a8e86	-0.18218431
110	0xbeea8ace	-0.45809025
111	0x3e97c0af	0.29639193
112	0xbedb3ee7	-0.42821428
113	0xbeb99b4c	-0.36251295
114	0x3d52891b	0.051400285
115	0x3e9c9077	0.30578968
116	0x3ec8d9fc	0.3922881
117	0x3ea0bf0b	0.31395754
118	0xbf3b900f	-0.7326669
119	0xbeafed46	-0.34360713
120	0xbeb0b40e	-0.3451237
121	0xbe38b2f2	-0.18037012
122	0xbf41d81f	-0.757204
123	0xbd6ba084	-0.057526127
124	0x3e9fd0c3	0.3121396
125	0xbe0c3d61	-0.13695289
126	0xbf6e0aaf	-0.9298505
127	0xbe89acee	-0.26889747
128	0x3a18a5e9	0.00058230624
129	0xbe4af100	-0.19818497
130	0xbf5039d0	-0.81338215
131	0xbd67aedc	-0.056563243
132	0xbe65d9a7	-0.22446309
133	0xbbaf286e	-0.0053453958
134	0x3f138682	0.5762712
135	0x3e8ed199	0.27894285
136	0x3c1bb658	0.009503923
137	0x3e74ea9e	0.23917624
138	0x3f71e784	0.9449389
139	0x3e8b860c	0.27250707
140	0xbe3f0dad	-0.1865756
141	0x3eb9b4df	0.36270806
142	0x3df97a87	0.12181573
143	0xbddf7173	-0.109103106
144	0xbe65f0b2	-0.22455099
145	0xbe158e65	-0.146051
146	0x3e8fd464	0.2809173
147	0x3d04e08c	0.032440707
148	0xbeb611e8	-0.35560536
149	0xbe2e1cbb	-0.17003147
150	0xbf602455	-0.8755544
151	0xbf06ee29	-0.52707154
152	0x3eae6de7	0.34068224
153	0x3d37c3f5	0.044864614
154	0xbd62f09b	-0.05540524
155	0xbb064b48	-0.0020491648
156	0x3d835ee2	0.06414582
157	0xbcf24ba0	-0.029577076
158	0x3ec73573	0.38907966
159	0x3e06e1f3	0.1317213
160	0xbe00ccfc	-0.12578195
161	0xbefe8487	-0.49710485
162	0x3f5122eb	0.81693906
163	0xbe6334b6	-0.22188076
164	0xbe7ad92a	-0.24496904
165	0x3e10e26c	0.14148873
166	0x3f98f74d	1.195047
167	0x3eb930a0	0.3616991
168	0x3c656630	0.014001414
169	0xbdd0fdd9	-0.102046676
170	0x3f843071	1.0327283
171	0x3c4a9182	0.012363793
172	0x3ec3b20d	0.3822178
173	0xbe5a16d2	-0.21297768
174	0xbf8c16da	-1.0944474
175	0xbebd74b9	-0.37003115
176	0x3c1b7180	0.00948751
177	0xbda848c0	-0.08217001
178	0x3ef7785e	0.4833402
179	0xbdf64188	-0.12024218
180	0x3eeb86d7	0.46001312
181	0xbe88b6c2	-0.26701933
182	0x3fa24f1f	1.2680396
183	0x3d593564	0.053029433
184	0xbeb82290	-0.3596387
185	0x3de71556	0.112833664
186	0x3f1724f4	0.5904076
187	0x3eb34b37	0.35018322
188	0xbe5475ed	-0.2074811
189	0xbe40003f	-0.18750094
190	0x3ec2ba2f	0.38032672
191	0x3d7c1bb1	0.061549846
192	0x3f079874	0.52967
193	0xbeb90c4a	-0.36142188
194	0xbed9c3a3	-0.4253207
195	0x3e713e64	0.23558956
196	0x3f089164	0.5334685
197	0xbddd6bb9	-0.10811562
198	0xbf33e6ef	-0.7027425
199	0xbe3a6823	-0.18203788
200	0x3e5de845	0.21670635
201	0xbe7478be	-0.23874184
202	0x3e609dae	0.2193515
203	0xbe5bd0db	-0.21466391
204	0x3e70751e	0.23482177
205	0x3ed04a63	0.40681753
206	0xbec0d77e	-0.37664407
207	0x3c3f1f96	0.0116652455
208	0x3eda1f27	0.42601892
209	0xbd836a89	-0.06416804
210	0x3e826f3f	0.254755
211	0xbea1f9f9	-0.31636027
212	0xbdeb1a4a	-0.114796236
213	0x3e949bdf	0.2902517
214	0x3f317184	0.69313836
215	0x3e385e4a	0.18004718
216	0xbdad795d	-0.08470414
217	0x3e91dc11	0.2848821
218	0x3d4efe72	0.050535627
219	0xbe368eba	-0.17827883
220	0x3d83a735	0.064283766
221	0xbed27a18	-0.41108775
222	0x3f4eec89	0.80829674
223	0xbdd398ad	-0.10331855
224	0xbe850224	-0.25978196
225	0x3ebda96b	0.37043318
226	0x3f342f5f	0.7038478
227	0x3ea69fde	0.32543844
228	0x3eb1a74b	0.34697947
229	0x3e93735c	0.2879895
230	0x3f00e26f	0.5034551
231	0xbcd9b5d6	-0.026575964
232	0x3e43c315	0.19117387
233	0xbe0eed33	-0.13957672
234	0x3f8b2593	1.0870842
235	0x3db324a5	0.08747224
236	0x3ed6d9cd	0.41963044
237	0xbd96648e	-0.07343398
238	0x3d9c52e2	0.07632996
239	0xbec8d890	-0.39227724
240	0x3e87ab33	0.26497802
241	0xbed16953	-0.40900669
242	0xbe8adc1c	-0.27121055
243	0xbde4ff68	-0.111815274
244	0xbec191d6	-0.37806576
245	0xbd0cd0de	-0.03437888
246	0xbe02e777	-0.1278361
247	0x3ea9bbb3	0.33151016
248	0xbe848795	-0.2588469
249	0xbeeb9f33	-0.46019897
250	0x3edab2f3	0.42714652
251	0xbefb7883	-0.4911538
252	0xbec3d19c	-0.38245857
253	0xbe7ce4af	-0.24696611
254	0xbeadee8b	-0.33971056
255	0x3e29e0d9	0.16589679

fc1.bias f4 [400]
0	0xbe803ead	-0.25047818
1	0xbee05b93	-0.43819866
2	0xbecf8ada	-0.40535623
3	0x3d4f8b6a	0.050670065
4	0x3e748a44	0.23880869
5	0xbef7a6fe	-0.48369592
6	0x3e486244	0.19568735
7	0x3e2195cb	0.15779798
8	0x3ea0522c	0.31312692
9	0xbec581ab	-0.3857549
10	0x3df4eb41	0.119589336
11	0x3d8f4efd	0.06997488
12	0xbeba039b	-0.36330876
13	0x3e81079f	0.25201127
14	0x3e0c3220	0.13690996
15	0xb7b740b7	-2.1845435e-05
16	0x3e81bdc5	0.25340095
17	0x3e412590	0.18861985
18	0x3e657455	0.22407658
19	0x3ed61b88	0.4181788
20	0xbdd4703a	-0.10372968
21	0xbe016722	-0.12636998
22	0xbe818bca	-0.25301963
23	0x3e927875	0.28607526
24	0xbea48b29	-0.3213742
25	0xbeebf7ff	-0.46087644
26	0x3e8931e0	0.26795864
27	0x3d48e166	0.04904308
28	0xbe105eb9	-0.14098634
29	0xbd39d4b0	-0.04536885
30	0x3d12c20c	0.03582959
31	0xbeace155	-0.33765665
32	0x3e0d61ac	0.1380679
33	0x3f0643e5	0.5244735
34	0xbe622697	-0.22085033
35	0x3e8f7e5d	0.28026095
36	0x3f01fcb9	0.5077625
37	0xbed03f98	-0.40673518
38	0xbc8064d3	-0.015673077
39	0x3eb0a058	0.34497333
40	0xbe1c28e9	-0.15249981
41	0xbec419b9	-0.38300875
42	0x3e909cba	0.28244573
43	0xbecaa691	-0.39580205
44	0xbe89f94c	-0.2694801
45	0xbea0da93	-0.3141676
46	0x3f03fed5	0.5156072
47	0x3ccfb19b	0.025353244
48	0x3d9aab8e	0.07552253
49	0x3ec183cd	0.3779587
50	0x3e9c1b95	0.30489793
51	0xbf093de2	-0.5361005
52	0xbdd88f4f	-0.10574209
53	0x3f133268	0.5749879
54	0x3e8642e9	0.26222923
55	0xbe81cd8d	-0.25352135
56	0x3e98ddc3	0.2985669
57	0xbee6dae7	-0.45088884
58	0xbe921363	-0.28530416
59	0xbe8ec79a	-0.2788666
60	0x3c17f130	0.009273812
61	0xbe88dd95	-0.26731554
62	0xbe7fd5a1	-0.24983837
63	0x3d383b7c	0.044978604
64	0xbb71ccef	-0.0036895832
65	0x3c9b9d6f	0.018995969
66	0x3ed95b0e	0.42452282
67	0x3e6e860c	0.23293322
68	0xbe67623e	-0.2259607
69	0x3ef9ef0f	0.488152
70	0x3db41668	0.08793336
71	0xbdffc99f	-0.12489628
72	0xbef50350	-0.4785409
73	0xbc416efa	-0.011806244
74	0x3e9f4ceb	0.3111337
75	0x3f037ff1	0.513671
76	0xbe96477e	-0.2935142
77	0xbc6f1643	-0.01459271
78	0xbe5510ea	-0.20807233
79	0x3eaee16f	0.34156367
80	0x3e699353	0.22810106
81	0xbebc2b93	-0.36751994
82	0x3e4a38e4	0.19748265
83	0x3e14cfc8	0.14532387
84	0xbe59a59d	-0.21254583
85	0x3e7bc1a8	0.24585593
86	0x3ee8aaeb	0.454429
87	0xbec2337d	-0.37929907
88	0x3ef225ca	0.47294456
89	0x3e7d492f	0.24734949
90	0xbf13b045	-0.5769084
91	0x3ea53b6a	0.32271892
92	0x3e8417f5	0.25799528
93	0xbec266f8	-0.37969184
94	0xbea70a0c	-0.32624853
95	0x3ebf0a48	0.3731253
96	0xbe9156d0	-0.28386545
97	0x3e70a8da	0.23501912
98	0x3e29b972	0.16574648
99	0xbe4dd0d8	-0.20099199
100	0xbe7cda41	-0.24692632
101	0xbea7b3f2	-0.32754475
102	0x3e4c7ee6	0.19970283
103	0xbe046890	-0.12930512
104	0x3efe7550	0.49698877
105	0x3eb74c20	0.35800266
106	0xbd8975a9	-0.06711895
107	0x3e1e9714	0.15487319
108	0xbd89bceb	-0.06725486
109	0xbde81064	-0.11331251
110	0x3ed319ae	0.4123053
111	0xbeec8495	-0.46194902
112	0x3e73addd	0.23796792
113	0xbe2fc1ed	-0.1716382
114	0x3d6d7651	0.057974163
115	0xbd0b4af4	-0.034007028
116	0xbe53683d	-0.20645232
117	0x3dae8bdd	0.085227706
118	0x3e17593a	0.14780131
119	0xbecb6678	-0.39726615
120	0x3e6bab8a	0.23014656
121	0xbe97e372	-0.29665715
122	0x3e58ce34	0.2117241
123	0xbeef5454	-0.46744025
124	0x3e1669c6	0.14688787
125	0x3f0defd2	0.5544406
126	0xbf07e04b	-0.5307662
127	0xbe817c42	-0.25290114
128	0x3e0f1f89	0.13976873
129	0xbe6ffeba	-0.23437014
130	0x3dcc60f1	0.099794276
131	0xbeb484b0	-0.35257483
132	0x3ecd2509	0.40067318
133	0xbecc3d09	-0.39890316
134	0xbe4c020f	-0.1992266
135	0xbe819c39	-0.253145
136	0xbeb979d0	-0.36225748
137	0x3d9468c2	0.072465435
138	0xbef755dd	-0.48307696
139	0xbe75e116	-0.24011645
140	0xbda9f802	-0.08299257
141	0x3ab1e16d	0.001357121
142	0x3e3a32e8	0.18183482
143	0x3eba8594	0.36430037
144	0xbbb00173	-0.0053712665
145	0x3d652880	0.055946827
146	0xbe428b90	-0.18998551
147	0x3e1085f5	0.141136
148	0xbe7fe59c	-0.24989933
149	0x3ea95f37	0.33080456
150	0xbe326955	-0.17422993
151	0x3ec53df6	0.38523835
152	0xbefb0fda	-0.4903553
153	0x3eb7ab67	0.35872957
154	0xbd8db9b7	-0.06920188
155	0x3e5fe410	0.21864343
156	0x3dcd8333	0.1003479
157	0x3eba2070	0.36352873
158	0x3ec7a232	0.38990933
159	0x3d656c88	0.056011707
160	0xbeadbc9a	-0.33932954
161	0xbf07dec2	-0.53074276
162	0x3ea5e409	0.3240054
163	0x3ddd50d3	0.108064316
164	0x3ed06b4b	0.40706858
165	0xbea0cec2	-0.31407744
166	0xbee3f071	-0.4451938
167	0xbee0a399	-0.43874815
168	0xbef24910	-0.47321367
169	0xbe9b287b	-0.30304322
170	0x3e8ec559	0.2788494
171	0xbe367919	-0.17819633
172	0x3e192313	0.14954786
173	0x3e837d6e	0.25681633
174	0x3e72974d	0.23690529
175	0x3efe342c	0.4964918
176	0x3e1f4837	0.15554892
177	0x3e38e4fc	0.180561
178	0x3dfce427	0.12348204
179	0xbd9f697d	-0.07783792
180	0x3ed96503	0.42459878
181	0xbd790bae	-0.060802154
182	0xbf0ee64d	-0.5582016
183	0xbe26407b	-0.16235535
184	0x3f0ecda7	0.5578255
185	0x3f0277bd	0.50963956
186	0xbe8987f0	-0.26861525
187	0x3e3031b5	0.17206462
188	0x3e0223dd	0.12708993
189	0x3e8b9f27	0.2726986
190	0x3e82987d	0.25506964
191	0xbee8c56c	-0.4546312
192	0x3e312b71	0.17301728
193	0x3e78e7f7	0.24307238
194	0xbe441811	-0.19149806
195	0xbc719644	-0.014745299
196	0x3eb63480	0.3558693
197	0xbec3d6d7	-0.38249847
198	0xbeb08a31	-0.34480432
199	0xbe1970e5	-0.14984472
200	0xbd20cd69	-0.039258394
201	0x3e41a3eb	0.18910186
202	0xbef8c5f6	-0.48588532
203	0x3eab7c3f	0.3349323
204	0xbec44c52	-0.38339478
205	0xbe5f35f0	-0.2179792
206	0xbe8b8ea1	-0.27257255
207	0x3ec5a4b0	0.3860221
208	0x3f0ec99e	0.55776393
209	0xbe0feed6	-0.14055952
210	0x3eb58953	0.35456333
211	0xbd6c921a	-0.05775652
212	0x3dd41577	0.103556566
213	0x3ea26384	0.3171655
214	0x3e9153a3	0.28384122
215	0x3e19b1ca	0.15009227
216	0x3eecb0dc	0.46228683
217	0xbc776037	-0.015098623
218	0xbe53871f	-0.20657013
219	0x3efa0a24	0.48835862
220	0x3de575f6	0.1120414
221	0x3d8cb4af	0.068704
222	0x3e9ed285	0.3101999
223	0x3e8f2ea9	0.27965286
224	0x3e3d321b	0.18476145
225	0x3e50bd4e	0.20384714
226	0x3d730e4c	0.059339806
227	0xbebe3b85	-0.37154785
228	0x3ec43801	0.38323978
229	0xbe546ef3	-0.20745449
230	0x3e6abffa	0.22924796
231	0xbea318c2	-0.31854826
232	0xbeaff914	-0.3436972
233	0xbe8c6739	-0.27422503
234	0x3cc5b46c	0.024133883
235	0x3dc71c5b	0.09722205
236	0xbf0194d0	-0.50617695
237	0xbea7d7c7	-0.32781813
238	0x3c16a74d	0.009195161
239	0x3ee4cf67	0.44689485
240	0xbdc76436	-0.097359106
241	0xbe31d306	-0.17365655
242	0xbe217dde	-0.15770671
243	0xbed93d97	-0.42429802
244	0xbe09a67e	-0.13442418
245	0xbf0399e4	-0.51406693
246	0x3eba142d	0.36343518
247	0xbe7a68be	-0.24454018
248	0xbe8c5704	-0.27410138
249	0xbf0c2b5d	-0.5475367
250	0xbe45953c	-0.1929521
251	0xbed9aeea	-0.4251626
252	0xbea00da6	-0.31260413
253	0x3d85ba5f	0.06529688
254	0xbe948f99	-0.29015806
255	0xbcdc00cc	-0.026855849

fc2.weight f4 [400, 400]
0	0x3e2e437b	0.1701793
1	0x3e367892	0.17819431
2	0x3e17872e	0.1479766
3	0xbd4359bf	-0.04769301
4	0x3e5be729	0.214749
5	0x3de9a5b7	0.11408561
6	0x3dd1a631	0.102367766
7	0xbd97ee60	-0.07418513
8	0x3e07c136	0.13257298
9	0xbeba11e0	-0.36341763
10	0xbdf31b0c	-0.11870393
11	0x3d117e64	0.035520926
12	0x3e4a4689	0.1975347
13	0xbbc12165	-0.0058938735
14	0xbe17a9c5	-0.14810856
15	0x3d39caa8	0.045359284
16	0x3da7f2be	0.08200596
17	0xbe37e0ae	-0.17956802
18	0x3c9c6b2e	0.019094076
19	0xbd5b6cd6	-0.05357059
20	0x3dc57de0	0.096431494
21	0xbde3bdbd	-0.11120174
22	0xbc336d5e	-0.010951368
23	0x3d8693bf	0.06571149
24	0x3edd90bc	0.43274486
25	0x3d8c1057	0.06839054
26	0x3cdc1469	0.026865201
27	0xbc9a29e4	-0.018818803
28	0x3bd3ed2c	0.006467482
29	0x3dd50fcd	0.104034044
30	0x3e16f238	0.14740837
31	0x3eb282c9	0.34865406
32	0x3dec33e6	0.11533336
33	0xbe1d9113	-0.15387373
34	0x3d5d86a3	0.054083478
35	0x3d001d47	0.03127792
36	0xbd342bd9	-0.04398713
37	0x3d9ceb40	0.07662058
38	0x3e2fcbdd	0.17167611
39	0xbe416175	-0.18884833
40	0xbdb636fc	-0.08897206
41	0x3eaabea3	0.3334857
42	0xbf0c6913	-0.5484783
43	0x3eac6e23	0.33677778
44	0xbd181eda	-0.037138797
45	0x3d5247ae	0.05133789
46	0xbe238389	-0.15968145
47	0xbe14f4f6	-0.1454657
48	0x3e0e19de	0.13877055
49	0x3e1de163	0.1541801
50	0xbc8392a6	-0.016061138
51	0x3bbf5c93	0.005839893
52	0x3d6a8f3e	0.057265513
53	0xbdd5e43c	-0.10443923
54	0xbb414e67	-0.0029496194
55	0x3b9c234f	0.0047649513
56	0xbec6823f	-0.38771245
57	0x3d997427	0.074928574
58	0x3ca1e548	0.01976265
59	0x3d80b283	0.062840484
60	0xbd27d202	-0.040971763
61	0x3c32ad35	0.010905554
62	0xbdbeaa6f	-0.093098514
63	0xbe22d97a	-0.15903273
64	0xbda378bf	-0.07982015
65	0xbe2bd701	-0.16781236
66	0xb73da967	-1.130472e-05
67	0xbd893153	-0.06698861
68	0x3dca6d68	0.09884149
69	0xbe486160	-0.19568396
70	0x3db3cc1f	0.087791674
71	0x3d4dfc35	0.05028935
72	0x3ce9e05c	0.028549366
73	0xbe2e2bee	-0.17008945
74	0x3d946e8b	0.07247647
75	0xbce1f979	-0.027584778
76	0x3dfd2554	0.123606354
77	0xbd4f93d9	-0.050678108
78	0xbd96af51	-0.07357658
79	0x3e02cb2e	0.1277282
80	0xbde70a28	-0.11281234
81	0x3da34980	0.079730034
82	0x3cfb5fc4	0.030685313
83	0xbecdda55	-0.40205637
84	0xbcbfac9b	-0.023397734
85	0xbe9bf3be	-0.30459398
86	0xbcb6f4dc	-0.022333555
87	0x3c566744	0.013086144
88	0x3d920c5a	0.07131262
89	0xbda3f839	-0.08006329
90	0x3bc08188	0.0058748163
91	0x3ca357e1	0.019939365
92	0xbdbe4e2d	-0.092922546
93	0x3d16fde8	0.036863238
94	0x3d0374cd	0.03209381
95	0x3d99bd32	0.07506789
96	0x3cc812a0	0.024422944
97	0xbe109ecb	-0.14123075
98	0xbd6e7044	-0.058212534
99	0x3f1564b3	0.5835678
100	0x3e6ce3be	0.23133752
101	0x3cceef29	0.025260525
102	0xbc89a27b	-0.01680111
103	0xbb63d66c	-0.0034765257
104	0xbce45767	-0.027873708
105	0x3e1c1a1e	0.15244338
106	0x3ecc6932	0.39924008
107	0xbe7efaf5	-0.2490042
108	0xbc611b01	-0.013739348
109	0xbc9d63fe	-0.019212719
110	0x3de284ee	0.110605106
111	0x3e2eb280	0.1706028
112	0x3d71b9c2	0.059015043
113	0xbe047998	-0.1293701
114	0xbe7a2a6a	-0.24430242
115	0xbe154f61	-0.14581062
116	0x3d620e00	0.055189133
117	0x3b5db435	0.0033829336
118	0x3e34c9f7	0.17655168
119	0xbc19d64f	-0.009389474
120	0xbdbd15a5	-0.09232644
121	0xbd1ffd9b	-0.039060216
122	0xbf228e87	-0.6349873
123	0x3c4da811	0.012552277
124	0x3dc287a6	0.09498529
125	0xbd7ed2b5	-0.062212665
126	0x3cc71291	0.024300845
127	0xbd74639c	-0.059665307
128	0xbe52f8b7	-0.2060269
129	0x3de9491c	0.11390898
130	0xbe3e9202	-0.18610385
131	0x3cafcac1	0.021458985
132	0x3d3d598e	0.046227984
133	0xbca6d00d	-0.020362878
134	0xbdab2755	-0.08357111
135	0x3d464bcd	0.048412133
136	0x3ead965f	0.33903787
137	0x3e298d8e	0.16557905
138	0x3cfbaf90	0.030723363
139	0xbd2890d5	-0.041153748
140	0xbdf0877b	-0.11744591
141	0x3d834668	0.06409913
142	0x3d59300f	0.053024348
143	0xbe81ccd9	-0.253516
144	0x3e30a1ea	0.17249265
145	0xbd111cc8	-0.03542784
146	0x3d7d307a	0.06181381
147	0xbe4e8675	-0.20168479
148	0x3d7f58c3	0.06234051
149	0xbaef4777	-0.0018255551
150	0xbe5539f4	-0.20822889
151	0xbcb15a06	-0.021649372
152	0x3dac3576	0.08408634
153	0xbdc2963d	-0.09501312
154	0xbdfafce2	-0.12255265
155	0xbcbc7db8	-0.023009166
156	0xbdb5dc74	-0.08879939
157	0xbcdb67fc	-0.026782982
158	0xbd4b1db6	-0.04958888
159	0xbced47c0	-0.028964877
160	0x3c1f07b5	0.009706427
161	0x3dcfe6d9	0.101514526
162	0xbed41cc5	-0.414282
163	0xbc99844d	-0.018739844
164	0xbdca321d	-0.098728396
165	0xbd35299b	-0.04422913
166	0x3e78d6c5	0.24300678
167	0x3da5226e	0.080632076
168	0x3d1e8511	0.03870112
169	0x3e816141	0.2526951
170	0x3d20334b	0.039111417
171	0x3da07199	0.07834167
172	0xbe41b292	-0.18915775
173	0xbbe75914	-0.0070601795
174	0xbdaec348	-0.08533341
175	0xbd56e96f	-0.052468713
176	0x3da222a5	0.07916764
177	0x3d297c21	0.041378144
178	0xbe5ad24d	-0.21369286
179	0xbe3df32a	-0.18549791
180	0xbe25b35f	-0.16181706
181	0x3e50a427	0.20375119
182	0x3d89222f	0.06695973
183	0xbd176174	-0.036958173
184	0x3cfccfde	0.030860838
185	0x3b7c358b	0.0038484063
186	0x3e98527d	0.29750434
187	0x3db4d3d9	0.08829469
188	0x3e702f1f	0.23455475
189	0xbe5686e9	-0.20949902
190	0xbd94edc3	-0.07271912
191	0x3d419370	0.047259748
192	0x3e32236e	0.17396328
193	0xbd859603	-0.06522753
194	0xbd70bab1	-0.058771793
195	0xbe4ab73e	-0.19796464
196	0xbd8cf9c9	-0.0688358
197	0x3dfc2603	0.12311938
198	0x3da574dd	0.080789305
199	0x3e0cc4af	0.13746904
200	0xbd54927f	-0.051897522
201	0x3d55cefb	0.052199345
202	0x3eb726c5	0.35771766
203	0xbd5f7a9f	-0.0545603
204	0xbc875727	-0.01652105
205	0xbd1adb03	-0.037806522
206	0x3cdf2985	0.027241478
207	0xbdae950c	-0.08524522
208	0xbe1a608e	-0.15075895
209	0xbe0e6eac	-0.13909405
210	0x3db11039	0.08645672
211	0xbdf8575f	-0.1212604
212	0x3e03f69e	0.12887046
213	0x3c24ce35	0.010058929
214	0x3dee6626	0.11640577
215	0x3e0f3284	0.13984114
216	0x3cb38377	0.021913273
217	0xbce27653	-0.027644312
218	0xbe011ccd	-0.12608643
219	0xbdcfad57	-0.10140484
220	0x3d9e08de	0.07716535
221	0x3cdc79b2	0.026913498
222	0xbdb7d9c8	-0.08977085
223	0xbce4e54c	-0.027941369
224	0x3dc72af4	0.097249895
225	0xbb30fc6e	-0.0027005929
226	0x3deef5ac	0.11667952
227	0x3e2fdad6	0.17173323
228	0xbd06e605	-0.032934207
229	0xbbbbdf6e	-0.005733422
230	0x3d2e470f	0.042548236
231	0x3d5eb18a	0.054368533
232	0x3b338926	0.002739498
233	0x3d290d9a	0.041272737
234	0x3d9d5ece	0.07684098
235	0xbe693b73	-0.22776584
236	0x3d6acdf7	0.05732533
237	0xbd857423	-0.06516292
238	0x3c904c1a	0.017614413
239	0xbd352e4c	-0.044233605
240	0x3dbe8f9a	0.093047336
241	0x3ea1d481	0.3160744
242	0x3e528a33	0.20560531
243	0x3d7d9111	0.061905924
244	0xbc88b6bd	-0.016688699
245	0x3ded4b89	0.11586673
246	0xbd631452	-0.0554393
247	0x3bd90113	0.0066224425
248	0x3c241b8a	0.010016331
249	0x3d7b759a	0.06139145
250	0xbd4d9978	-0.050195187
251	0x3c431e36	0.011909058
252	0x3db95633	0.09049644
253	0xbe2ed8a5	-0.17074831
254	0x3db8dac4	0.09026101
255	0x3e947228	0.28993344

fc2.bias f4 [400]
0	0x3a930ae9	0.0011218461
1	0xbd323791	-0.043510024
2	0xbae09cbb	-0.0017136553
3	0x3d1c4b41	0.038157705
4	0xbb9f6e26	-0.0048654256
5	0xbbb9c341	-0.005669028
6	0x3ca60c70	0.020269603
7	0x3d1da214	0.038484648
8	0xbd49eed9	-0.04930005
9	0x3d353608	0.04424098
10	0x3c62f77a	0.013852948
11	0x3c4d3678	0.012525193
12	0x3d1c26d3	0.038122963
13	0xbb515e99	-0.0031947254
14	0x3d73a0f5	0.059479672
15	0x3d99f4ab	0.0751737
16	0x3c5452cd	0.012959194
17	0xbc1f1e34	-0.009711791
18	0xbb8e6a9c	-0.004346205
19	0x3d7de0dc	0.06198202
20	0xbbdbe424	-0.006710546
21	0xbc47895f	-0.012178748
22	0xbd087da6	-0.033322953
23	0x3d93a659	0.07209463
24	0x3cef6d58	0.029226944
25	0x3d123a0f	0.0356999
26	0xbd357892	-0.044304438
27	0xbc303aaa	-0.010756174
28	0x3d3c8a60	0.046030402
29	0x3bf9693a	0.007611421
30	0xbd365cff	-0.04452228
31	0x3d437338	0.047717303
32	0x3cad88ff	0.021183489
33	0x3d16fa6a	0.036859907
34	0x3cb7d34f	0.022439627
35	0xbd305847	-0.043052938
36	0x3c99d2fd	0.018777365
37	0x3cd271aa	0.025688965
38	0x3d8f9dc1	0.07012511
39	0x3c5a06e3	0.013307306
40	0x3d345b8f	0.04403263
41	0x3d3a4741	0.04547811
42	0x3d056603	0.03256799
43	0x3d963aff	0.07335471
44	0xbd0dfcd6	-0.03466495
45	0xbcc15eb6	-0.023604732
46	0x3c1bf474	0.009518731
47	0x3c619041	0.013767303
48	0x3c2522fd	0.010079143
49	0x3d69f0f2	0.05711455
50	0xbce55093	-0.027992522
51	0x3c6767a3	0.01412383
52	0xbbf1c0e4	-0.0073777307
53	0x3d89c276	0.067265436
54	0x3c052b09	0.008127936
55	0xbcbe2c94	-0.023214616
56	0x3cebd938	0.028790101
57	0x3d5bc926	0.053658627
58	0xbc46250c	-0.012093794
59	0x3b8691dd	0.0041067437
60	0x3d9375d9	0.07200212
61	0x3d832135	0.06402818
62	0x3d0b18e4	0.033959284
63	0xbb17d104	-0.0023165355
64	0x3d3ac272	0.045595594
65	0x3b125c65	0.0022332903
66	0x3db13f58	0.0865466
67	0x3d30043d	0.042972792
68	0xbb06ee83	-0.0020588941
69	0xbceaf3e5	-0.028680751
70	0x3d172c10	0.036907256
71	0x3cc43e40	0.023955464
72	0xbd4e9298	-0.05043277
73	0xbd4ccfd8	-0.050002903
74	0x3cb973cf	0.02263823
75	0xbd1744d3	-0.03693087
76	0xbd0cecc0	-0.03440547
77	0x3d361e3d	0.04446243
78	0x3d5122bb	0.051058512
79	0x3d38e268	0.045137793
80	0xbd0d110d	-0.03444009
81	0x3d02569a	0.03182087
82	0xbcee1999	-0.02906494
83	0xbc0bceb1	-0.008533166
84	0x3d4d9b20	0.050196767
85	0x3d49fc4d	0.04931288
86	0x3d08bfa3	0.033385884
87	0x3c4db17b	0.012554522
88	0x3b3d6889	0.002890142
89	0x3cd83186	0.026390802
90	0xbdb2e2f3	-0.087346934
91	0x3d68ca31	0.05683345
92	0xba91136e	-0.0011068413
93	0xbce84c53	-0.028356707
94	0x3d0986ca	0.03357581
95	0x3da2ee60	0.07955623
96	0x3d2e86dc	0.04260908
97	0x3cb86893	0.022510802
98	0x3d233cdc	0.039852962
99	0xbc377450	-0.011197165
100	0x3d63a7f5	0.0555801
101	0xbd3f6554	-0.046727493
102	0x3d3a858a	0.04553751
103	0x3d3dcf56	0.04634031
104	0x3dbfe4d3	0.09369817
105	0x3d19839d	0.03747903
106	0xbb2050d0	-0.002446223
107	0xbd55e076	-0.052216016
108	0x3db7fb6d	0.089835025
109	0x3db7213a	0.08941884
110	0xbd429512	-0.047505446
111	0xbd549536	-0.05190011
112	0x3d937311	0.071996816
113	0xbc48c48c	-0.012253892
114	0x3c4f5314	0.012654085
115	0xbd4fc5a8	-0.05072561
116	0x3d1cc90e	0.03827768
117	0xbb06f351	-0.0020591805
118	0xbd3ac999	-0.045602415
119	0x3d9d7017	0.07687395
120	0x3c987312	0.018609557
121	0xbc9ff4a4	-0.019525833
122	0x3d9b57b2	0.07585086
123	0xbd486396	-0.048923098
124	0x3d984711	0.0743543
125	0xbc76d850	-0.015066221
126	0xbc99bed8	-0.01876776
127	0x3da595b4	0.08085194
128	0xbd4606b8	-0.04834625
129	0xbcbfbf5e	-0.02340668
130	0xbd1f1846	-0.03884151
131	0xbba9cbe1	-0.005181775
132	0xbd5d9851	-0.05410034
133	0xbd18c3d7	-0.037296142
134	0x3c59114d	0.013248754
135	0x3c8afde2	0.016966764
136	0x3d24668a	0.04013685
137	0xbd22ede0	-0.039777637
138	0x3d9e95e0	0.0774343
139	0xbc518fd4	-0.012790639
140	0xbc370296	-0.01117005
141	0x3d9811b0	0.074252486
142	0xbcb39153	-0.021919882
143	0xbdc120c5	-0.094300784
144	0x3d2cdfe2	0.0422057
145	0x3c1f81c0	0.009735525
146	0x3c223a51	0.009901599
147	0x3d2afdb1	0.041745845
148	0xbd442937	-0.047890868
149	0x3daa8fe5	0.08328227
150	0x3d539dcc	0.05166416
151	0xbd84b3f3	-0.06479635
152	0x3d6ff409	0.05858234
153	0x3d1cec72	0.03831143
154	0x3c2110de	0.009830682
155	0xbc989bd2	-0.018628988
156	0x3d2014c5	0.039082307
157	0x3d69e353	0.05710156
158	0x3d9e5fb0	0.07733095
159	0xbd927ea0	-0.07153058
160	0x3d814f59	0.063139625
161	0x3d730c42	0.05933786
162	0x3d54d135	0.051957328
163	0x3c9595e4	0.01825995
164	0x3d09c766	0.033637427
165	0x3cf5d822	0.030010287
166	0x3d310042	0.043213136
167	0xbcc039ba	-0.023465026
168	0x3daf2f07	0.08553892
169	0xbd3d870f	-0.04627138
170	0x3d259874	0.040428594
171	0x3d864d5f	0.06557726
172	0xbd36c36c	-0.044619963
173	0x3b086d89	0.0020817241
174	0x3dad3af8	0.08458513
175	0x3d251959	0.040307377
176	0xbc8de964	-0.017323203
177	0xbc626fc8	-0.013820596
178	0x3c564547	0.01307804
179	0xbc431fbb	-0.011909421
180	0x3dcbf54d	0.09958897
181	0xbcdf58ea	-0.027264077
182	0x3d1ea5c4	0.038732305
183	0xbd177590	-0.03697735
184	0xbcadb5b7	-0.021204812
185	0xbd3175ea	-0.043325342
186	0x3c72c96f	0.014818533
187	0x3cb3a0a0	0.021927178
188	0xbd7c09ac	-0.06153266
189	0x3da3b48b	0.0799342
190	0xbb74b195	-0.0037337292
191	0x3c6b7ae9	0.014372566
192	0x3ce0291a	0.027363349
193	0x3ccb8ff8	0.024848923
194	0xbd916242	-0.07098819
195	0xbdaa9f1f	-0.08331131
196	0x3d45b0b2	0.048264213
197	0x3da87795	0.082259335
198	0x3d8c0fb9	0.06838936
199	0x3ddbcb12	0.10732092
200	0xbc04f857	-0.008115849
201	0x3cf66f21	0.030082287
202	0x3d1761f0	0.036958635
203	0x3bab9a8f	0.0052369307
204	0x3d49ad41	0.049237493
205	0x3d85d71c	0.065351695
206	0x3d2602e7	0.04053011
207	0x3c260e1d	0.010135201
208	0xb970d361	-0.00022966928
209	0x3b3b9d7e	0.0028627808
210	0xbd53ec7d	-0.051739205
211	0xbc6d5065	-0.0144845
212	0x3d8e8c5a	0.06960364
213	0xbd3e2cba	-0.046429373
214	0x3d8b580e	0.068039045
215	0x3c2bb67f	0.010480522
216	0x3c2353ad	0.00996868
217	0xbd0dc921	-0.03461564
218	0x3d6f2338	0.058383197
219	0x3cb35d6b	0.021895131
220	0x3c7cefc3	0.015438023
221	0x3d87e732	0.06635894
222	0x3d295ef6	0.041350327
223	0x3c706d1f	0.014674454
224	0xbd1954c9	-0.037434373
225	0x3c4c8797	0.012483499
226	0xbd42b81e	-0.04753887
227	0x3c9bbb24	0.019010134
228	0x3b397aa1	0.0028301852
229	0xbca4bbe3	-0.020109123
230	0x3d61ea14	0.055154875
231	0xbc563618	-0.01307442
232	0xbd3fee73	-0.046858262
233	0x3c90b8f9	0.017666327
234	0x3cc332f6	0.023828011
235	0x3d0128f8	0.03153321
236	0x3da27dd4	0.07934156
237	0x3d5f5c41	0.05453134
238	0xbdc4a371	-0.096014865
239	0x3d3d80d5	0.046265442
240	0x3d53d563	0.051717173
241	0xbd1d26bc	-0.038367018
242	0x3dcac6b9	0.099011846
243	0xbd2704dd	-0.040776122
244	0x3ceb866b	0.028750619
245	0x3ce6eb22	0.028188292
246	0xbd524009	-0.0513306
247	0x3c8600a2	0.016357724
248	0x3d0a93f0	0.03383249
249	0xbcc7fab9	-0.024411546
250	0x3d59e823	0.0531999
251	0x3cda8be9	0.026678042
252	0x3d540bed	0.051769186
253	0x3d7e2031	0.06204242
254	0xbc0417c9	-0.008062311
255	0x3d0272df	0.03184783

fc3.weight f4 [2, 400]
0	0x3d858a1b	0.06520482
1	0x3c267d2f	0.010161682
2	0xbc54c8b4	-0.0129873045
3	0x3e3d8d37	0.185109
4	0x3e02a9df	0.12760113
5	0x3d4256db	0.047446113
6	0xbe8db85c	-0.27679718
7	0xbe1e73d4	-0.15473872
8	0x3d2d6066	0.04232826
9	0x3e8034db	0.25040326
10	0x3e6032ef	0.2189443
11	0x3d9cbed1	0.07653583
12	0xbcf2c73f	-0.029636024
13	0x3db4b9e1	0.08824516
14	0x3d9c12ea	0.07620795
15	0xbe17e7b4	-0.14834481
16	0x3d3e7cd5	0.046505768
17	0xbd261040	-0.04054284
18	0xbeffae4b	-0.49937662
19	0x3db9728b	0.090550505
20	0x3a04d505	0.0005067143
21	0x3e9aef9f	0.3026094
22	0x3c86630a	0.016404647
23	0x3d81319b	0.063082896
24	0xbc4f7bac	-0.012663763
25	0x3df73040	0.1206975
26	0xbef123b5	-0.47097555
27	0x3d2a7151	0.041611973
28	0xbb2d594c	-0.002645093
29	0x3d9150ef	0.07095515
30	0x3d16a9d6	0.036783062
31	0xbe3b5fee	-0.18298313
32	0xbb825490	-0.003977366
33	0x3e38bcf7	0.18040834
34	0x3b95ce30	0.0045716986
35	0x3d232c31	0.039837066
36	0x3d2b9920	0.04189408
37	0x3c750a8c	0.014956128
38	0x3d6b9d48	0.057523042
39	0x3ded7526	0.1159461
40	0x3e128a8f	0.14310668
41	0x3dbcdf04	0.09222224
42	0x3d932d5b	0.07186385
43	0x3d89bf9b	0.06725999
44	0x3d029cba	0.031887747
45	0xbb6c1984	-0.003602595
46	0x3e305e77	0.17223535
47	0x3ceb64a7	0.028734518
48	0xbbef630e	-0.0073055094
49	0x3e200e16	0.15630373
50	0xbc784af4	-0.015154589
51	0xbe74d988	-0.23911107
52	0x3ddff919	0.109361835
53	0x3d840788	0.06446749
54	0x3cbabec4	0.022796042
55	0xbd19b0d2	-0.037522145
56	0xbd0dc4e8	-0.034611613
57	0xbcb91c08	-0.022596374
58	0xbd8b1ef4	-0.06793013
59	0x3dcce688	0.10004908
60	0x3df7ab6a	0.120932415
61	0x3d5e7ba7	0.054317143
62	0xbe5f2120	-0.2178998
63	0x3eb1a47c	0.34695804
64	0x3d831cb6	0.064019606
65	0x3dc7e2d1	0.09760059
66	0x3def0eff	0.11672782
67	0xbdfef633	-0.124493025
68	0xbd8d3860	-0.06895518
69	0x3d5b0536	0.053471766
70	0xbd16723a	-0.03673003
71	0xbd834d15	-0.064111866
72	0xbb0c80f3	-0.0021439164
73	0xbeb15ad7	-0.34639618
74	0x3ca7782a	0.02044304
75	0x3d3d2991	0.04618222
76	0xbdae2477	-0.08503049
77	0xbd1164df	-0.03549659
78	0x3db67f28	0.08910972
79	0x3d5b18b1	0.053490344
80	0x3d2f9744	0.042868868
81	0xbd987404	-0.07444003
82	0xbd5f6833	-0.05454273
83	0xbf063e83	-0.52439135
84	0x3d9732d3	0.07382741
85	0x3d5f0410	0.054447234
86	0xbcf7c06d	-0.030243123
87	0x3d9417e8	0.07231122
88	0x3db88343	0.09009411
89	0xbabede5e	-0.001456212
90	0xbdd2a058	-0.102844894
91	0x3de52a94	0.11189762
92	0xbe539fdc	-0.2066645
93	0xbc170dda	-0.009219611
94	0xbdd86796	-0.105666324
95	0x3e066b44	0.13126856
96	0x3e3dd123	0.1853681
97	0xbc5d2553	-0.013497668
98	0xbd25626d	-0.04037707
99	0xbca9fbe8	-0.020750001
100	0x3dda537e	0.10660456
101	0xbd2fab66	-0.042888068
102	0x3d98e9e0	0.07466483
103	0x3da463b7	0.080268316
104	0x3d65e2b5	0.056124408
105	0xbd3f3ad8	-0.046686977
106	0x3cb8d196	0.022560876
107	0xbc07fb6b	-0.008299689
108	0x3e427658	0.18990457
109	0x3d7ec4be	0.062199347
110	0x3c7e6284	0.015526418
111	0xbe6da379	-0.23206891
112	0x3dc49abb	0.09599825
113	0xbc23406c	-0.00996409
114	0x3e044620	0.12917376
115	0xbf074933	-0.5284607
116	0xbd303eb6	-0.043028556
117	0xbd2d640c	-0.04233174
118	0xbc5537f6	-0.01301383
119	0x3e42bc3b	0.19017117
120	0xbd046ce2	-0.0323304
121	0x3a5f5594	0.0008519527
122	0x3df3b6c3	0.119000934
123	0xbe4298a6	-0.19003543
124	0xbe3967ca	-0.18105999
125	0xbe02b299	-0.12763442
126	0x3d9d3cfc	0.076776475
127	0x3df17d40	0.11791468
128	0xbcc48267	-0.023987962
129	0xbd3a3c5c	-0.04546772
130	0xbcd50c20	-0.026006758
131	0xbef132f6	-0.47109193
132	0xbc89c3b6	-0.016816955
133	0xbc49a50e	-0.0123074185
134	0xbf1b4853	-0.60657233
135	0x3ce32682	0.027728323
136	0x3dc356c6	0.09538035
137	0xbd3f50fd	-0.046708096
138	0x3db1261c	0.08649847
139	0xbcedd897	-0.029033942
140	0xbc951b7b	-0.01820158
141	0x3d882f6a	0.066496685
142	0xbd3814e3	-0.044941794
143	0x3f01746c	0.5056827
144	0x3dcb8bf1	0.09938801
145	0xbd3924b8	-0.045201033
146	0xbd3bedeb	-0.045881193
147	0xbd130020	-0.03588879
148	0xbd3682d7	-0.044558372
149	0x3deb8404	0.11499789
150	0xbca24aa9	-0.019810991
151	0x3ef16b4a	0.47152168
152	0x3dd140ce	0.10217439
153	0x3e440efe	0.19146344
154	0x3d9ede4d	0.07757244
155	0x3c891a4b	0.01673617
156	0x3ddce939	0.10786671
157	0x3e04ba94	0.12961799
158	0x3e4839e7	0.19553338
159	0xbcf4f054	-0.029899754
160	0x3db3401b	0.087524615
161	0xbe4351b1	-0.19074132
162	0x3da27758	0.07932919
163	0xb9cdf9ab	-0.00039286664
164	0xbe1b51ad	-0.15167876
165	0x3c5a6324	0.013329301
166	0x3cfefa16	0.03112511
167	0xbc95832c	-0.018251024
168	0xbe9f1fe5	-0.3107902
169	0xbe8965de	-0.2683553
170	0x3e79ad16	0.24382433
171	0x3de106ad	0.109876014
172	0x3ca3ad1c	0.019980006
173	0xbbd69415	-0.0065484145
174	0x3d737aff	0.05944347
175	0x3d9ccfc0	0.07656813
176	0xbe1ec5f1	-0.15505196
177	0x3d44f26b	0.04808275
178	0x3dd34a0e	0.10316859
179	0xbce52fd7	-0.027976913
180	0x3d58489b	0.052803617
181	0xbd421624	-0.047384396
182	0xbcba5d33	-0.022749519
183	0xbcd5a118	-0.026077792
184	0xbe963e77	-0.29344532
185	0xbe700a9e	-0.2344155
186	0xbc071e74	-0.008247007
187	0x3de44c1f	0.111473314
188	0xbe9f0a28	-0.31062436
189	0x3de98f55	0.114042915
190	0x3d21fb59	0.039546344
191	0x3dc2e652	0.09516586
192	0xbe3a0bdd	-0.18168588
193	0xbe1b5ef5	-0.15172942
194	0x3e283957	0.16428123
195	0xbf0160cb	-0.5053832
196	0xbdb8a1a7	-0.09015208
197	0x3dde35cf	0.10850107
198	0x3d8cd4e2	0.06876542
199	0x3d8a0f41	0.06741191
200	0x3da06e82	0.07833578
201	0x3dc35eda	0.09539576
202	0x3dd26831	0.10273779
203	0xbc9466ed	-0.018115485
204	0x3dd92c6d	0.10604177
205	0xbe1af84e	-0.15133783
206	0x3de01d5c	0.109431
207	0xbd0a2528	-0.03372684
208	0x3b81d80d	0.003962523
209	0x3d3978fb	0.04528139
210	0xbe9a0f24	-0.30089676
211	0x3d8e14a4	0.06937531
212	0x3e03ef19	0.12884177
213	0xbbaa2553	-0.0051924377
214	0x3e3e0f36	0.1856049
215	0xbbba887d	-0.00569254
216	0xbcfa398f	-0.030545024
217	0x3bac16e2	0.0052517513
218	0xbd156903	-0.0364771
219	0x3d033183	0.03202964
220	0xbbe66f28	-0.007032294
221	0x3d6e7599	0.05821762
222	0x3dd43c02	0.10363008
223	0x3d78ee21	0.060773972
224	0xbed162e6	-0.40895766
225	0xbc99fca6	-0.01879723
226	0xbc122835	-0.008920719
227	0xbd5c7e2e	-0.05383127
228	0x3db5fa72	0.08885659
229	0xbc925660	-0.017863452
230	0x3d94395a	0.072375014
231	0xbdd9ae37	-0.10628932
232	0x3ad5bc82	0.001630679
233	0xbe1b044a	-0.15138355
234	0x3de152cf	0.110021226
235	0xbd011d77	-0.03152224
236	0x3deede8b	0.116635405
237	0x3d94126d	0.07230077
238	0xbe9dccdd	-0.3082036
239	0xbe4d622a	-0.20056978
240	0x3db92e5c	0.090420455
241	0xbea01c14	-0.31271422
242	0xbe0133b0	-0.12617373
243	0x3d362b45	0.04447486
244	0xbcb687bf	-0.022281526
245	0x3c155720	0.0091150105
246	0xbc3ae014	-0.011405963
247	0xbae81824	-0.001770739
248	0x3dac9d55	0.08428446
249	0xbea1d3ac	-0.31606805
250	0x3d81b977	0.06334203
251	0xbd3785df	-0.044805404
252	0xbeac4110	-0.3364339
253	0x3d60f8f7	0.05492493
254	0xbe28a275	-0.16468222
255	0x3decce79	0.11562819

fc3.bias f4 [2]
0	0x3d968511	0.07349599
1	0x3d460844	0.048347726
