reinforcement_learning/models_cartpole/dqn_agent_good2.pt (torch_old, 653905 bytes, 6 tensors)

fc1.weight f4 [400, 4]
000000 53 c5 49 bd 2e c8 85 be 29 6e 3f 3f bf 0d 83 3e
       -0.04926045 -0.26129287 0.74777466 0.25596425
000010 41 16 a3 3c 00 d4 c7 3e ef d2 a9 bf ee ad 1d be
       0.019908072 0.3902893 -1.3267497 -0.1539838
000020 b8 10 1a 3e 0d 9e d1 bb e0 82 32 bf a7 cd 7b be
       0.1504544 -0.006397015 -0.6973095 -0.24590169
000030 8f 91 03 3f 2f fa 29 be 84 ac 97 bd 75 ff 52 be
       0.5139398 -0.16599344 -0.074059516 -0.20605262
000040 f7 d5 16 3e fe 75 4f 3e e6 0d 9d bf 45 cb 62 be
       0.14730059 0.20259854 -1.2269866 -0.22147854
000050 87 e5 1f be 9c b8 b4 be 82 74 28 3f 48 6a 56 3e
       -0.15614901 -0.35297096 0.65802777 0.2093898
000060 d2 d7 ea ba 99 07 6d be af 52 b8 be 05 3a 14 3e
       -0.0017917103 -0.2314743 -0.36000583 0.14475258
000070 3e a7 34 be d1 5d d8 be aa 73 b4 be a7 7b ad be
       -0.17641923 -0.42259076 -0.35244495 -0.33883402
000080 ab 7e 71 3e 50 e3 a6 3b 21 f2 7d 3f 09 bd bd 3e
       0.23583476 0.0050930157 0.99197584 0.37058285
000090 f8 7c b0 3e 3c ff a3 3d 24 0c 59 3f 9d d2 e7 3e
       0.34470344 0.080076665 0.8478415 0.45277873
0000a0 28 42 16 bf d5 5b dd 3d dc 62 07 bf 64 cc 4b 3e
       -0.58694696 0.10808531 -0.5288522 0.19902188
0000b0 80 24 99 3e ac 28 f9 bd b3 97 6b bf 57 b1 43 be
       0.2991066 -0.12165961 -0.9202835 -0.19110619
0000c0 39 39 54 3e c5 35 8f 3e 19 6f 03 bf 2f ca 31 be
       0.20724954 0.2797071 -0.51341397 -0.17362283
0000d0 c3 7b 01 be b1 3a be be 0e ef 54 be f1 d5 e3 be
       -0.12644868 -0.37154153 -0.20794317 -0.44499162
0000e0 83 a6 89 be 4c 8e 00 be af c7 8a 3a 3f 03 72 bd
       -0.2688485 -0.12554282 0.0010588075 -0.059085127
0000f0 a4 25 2e bf 96 79 a6 3e 61 b9 96 bd e4 41 dc 3e
       -0.68026185 0.32514638 -0.07359577 0.4301902
000100 e1 45 a0 3e a3 75 4c bd 73 ab f3 3e bf c6 18 3d
       0.31303313 -0.049916875 0.47591743 0.037298914
000110 6b db 9e 3e 34 33 88 3e bc 48 e7 be 6d 86 88 3e
       0.31026778 0.26601565 -0.4517268 0.2666506
000120 28 56 c3 bc 77 5c 24 3e dc 10 8c 3e b9 ca 9e 3d
       -0.023844793 0.16050898 0.27356613 0.0775351
000130 2b b7 72 be a4 ed 9d be a7 91 c0 3e fe cc cb bd
       -0.23702686 -0.30845368 0.37611124 -0.099512085
000140 4f 4e 02 3e e6 93 72 3d c9 62 23 bf 59 7d 56 3e
       0.12725185 0.05922308 -0.6382261 0.20946254
000150 83 ad d5 3d 37 82 a2 3d 1c 8f ab 3e a3 6f 95 be
       0.10433485 0.07934993 0.3350762 -0.29186735
000160 44 08 d9 be ad 2f 98 3e 4a 99 65 bf 95 45 8f be
       -0.4238912 0.29723874 -0.89687026 -0.27982774
000170 84 af 34 3d 32 29 23 be 4b 1c 8c 3f 64 4e 2f 3e
       0.044112697 -0.15933684 1.0946134 0.17119747
000180 32 cc 92 bd ef 11 b7 3e a5 67 e9 be b5 66 a0 3e
       -0.071678534 0.3575587 -0.45586887 0.3132836
000190 34 05 b4 be 07 88 5a 3e 17 e0 89 3f 83 65 a5 3e
       -0.3516022 0.21340953 1.0771512 0.3230401
0001a0 57 5b 20 bf 9c 1c bf 3d c5 e8 6d 3f ad 23 43 3e
       -0.62639374 0.09331629 0.92933303 0.19056578
0001b0 23 f3 d5 be 1b 4a f6 be e0 30 6e 3e 64 74 cf be
       -0.4178706 -0.48103413 0.23260832 -0.40518486
0001c0 d1 50 5d 3d 9a 77 92 bd a4 3f 1e 3f 0e 17 0a 3e
       0.05403215 -0.071517184 0.6181586 0.13485357
0001d0 da 34 3c bd 18 af bc be 4e cc ca be b5 6c d9 be
       -0.04594884 -0.36852336 -0.39608997 -0.4246575
0001e0 a1 75 8f be b4 c5 4c 3e b4 87 7e bf a5 e2 bf be
       -0.2801943 0.19997293 -0.99425817 -0.37477604
0001f0 5d 55 90 bb cd ad b9 be ad f0 4c bf 42 65 bd be
       -0.0044047073 -0.36265412 -0.8005474 -0.36991316
000200 56 ee df bc 5b 98 8d be 95 09 10 3f 68 e9 a9 bd
       -0.027335327 -0.276553 0.5626462 -0.08296472
000210 e6 ac 46 3d cf a9 ec be 80 39 4b 3f 52 cf 9a 3d
       0.048504733 -0.46223304 0.79384613 0.075590745
000220 56 d7 6c bc da a0 e4 3a 02 4a ab bf 12 5d 1a be
       -0.014455637 0.0017442957 -1.338196 -0.15074566
000230 84 9a c7 bd c2 5b 4d be 45 f3 c0 3e 22 f0 59 3e
       -0.097462684 -0.20054534 0.376856 0.2128301
000240 10 43 9c 3e 8a 26 c7 bd 01 80 21 bf ce c3 02 3d
       0.30519915 -0.097241476 -0.63085943 0.031925015
000250 a8 48 16 3e 13 0b 70 3e 0f 48 81 3e 33 cf 0a 3e
       0.14676154 0.23441724 0.2525029 0.13555603
000260 bc 0e 9f be 47 24 2f be 6a f8 c6 3e 1f fe b9 3e
       -0.3106593 -0.17103682 0.388614 0.36326692
000270 e8 5a c1 be d0 69 1a 3e b8 db 17 bf 82 05 65 be
       -0.37764668 0.15079427 -0.5931964 -0.22365382
000280 af 57 72 be 69 17 be be c4 37 8b 3f 5d aa 24 bd
       -0.23666261 -0.37127236 1.0876393 -0.040201534
000290 93 9a c4 bd 86 70 c6 3d 00 a6 04 3f bd 0d 65 be
       -0.09599795 0.09689431 0.51815796 -0.22368522
0002a0 65 f4 9b 3e 5b 17 8f 3e 3c 0d 79 3f 5c 6e 46 3e
       0.30459896 0.27947506 0.9728582 0.19378036
0002b0 0c 09 5b be 70 8e fb 3d 5f 2d 67 3f b7 79 5b 3e
       -0.2139017 0.12283027 0.90303606 0.2143315
0002c0 42 11 9a be b5 13 28 be d1 02 93 3f 53 a0 b2 3e
       -0.30091292 -0.16413768 1.1485234 0.34887943
0002d0 20 58 8e be 3f ad 13 3f 96 83 c5 3e 10 f9 6d 3d
       -0.2780161 0.5768623 0.38576955 0.058098853
0002e0 34 89 ae 3e 54 c8 ab bd 2d f4 7a 3f 31 94 87 3e
       0.34089053 -0.08387819 0.9802883 0.2648025
0002f0 64 3c 9b be fe 02 c8 be 7a a5 af bc e0 6a 7b be
       -0.30319512 -0.39064783 -0.02144121 -0.24552488
000300 5b fa 29 be 3b 85 24 be 97 69 90 3f 63 c5 30 3e
       -0.1659941 -0.16066448 1.1282223 0.17262797
000310 e7 98 e4 be c2 a6 cf 3e 7c b5 27 3e d2 06 b1 3e
       -0.44647905 0.40556914 0.16377825 0.34575516
000320 d8 28 09 3e b7 eb d1 3e 9a 7d c9 be 0a c6 6b 3e
       0.13394487 0.4100015 -0.3935364 0.23024765
000330 44 83 47 3e 50 0a 19 3e 4f 85 8e 3e 05 ae 9f be
       0.19483668 0.1494534 0.2783608 -0.31187454
000340 6d c2 18 bf a1 55 c5 be 32 97 46 bf f3 06 55 be
       -0.5967167 -0.38541892 -0.77574456 -0.20803432
000350 16 0e 8a 3e be 22 91 3e f9 67 71 bf ad 3a a0 3d
       0.26963872 0.2834682 -0.94299275 0.078236915
000360 99 c3 93 3e 43 6a e4 3d 28 44 5f 3e 8b 46 9b 3d
       0.28860167 0.1115308 0.21803343 0.075818144
000370 7f d0 20 bf 38 c6 da be 0c ad 22 bf 62 19 86 be
       -0.6281814 -0.42729354 -0.635453 -0.2619124
000380 16 3a 2b be b7 f0 ed 3d 58 95 6d 3f 7c 5b 5e 3e
       -0.16721377 0.11618178 0.92806005 0.21714586
000390 0c 79 80 be 13 69 a2 be 55 b4 f6 be f1 81 93 be
       -0.2509235 -0.3172079 -0.48184457 -0.28810075
0003a0 56 79 f6 bd 5b ba f9 bd 10 f8 72 3f 11 51 17 3e
       -0.12034862 -0.121937476 0.94909763 0.14777018
0003b0 09 7a ed 3d 6b 4d 86 bd ee 8a 8d 3e 4c 15 e5 be
       0.11595542 -0.06557735 0.27645057 -0.4474281
0003c0 d8 24 e6 bc cc 18 80 3d 76 a3 fc be e6 e0 aa 3e
       -0.02809374 0.0625473 -0.4934346 0.3337471
0003d0 1e 35 3c be d1 e6 ce be c9 f3 d5 3e ff 7b 0a bc
       -0.18379638 -0.40410474 0.41787556 -0.008452415
0003e0 48 af 91 bb 76 27 85 3d 54 de e3 3e 72 bb 49 3e
       -0.004445944 0.06501667 0.4450556 0.19700411
0003f0 58 dc 35 3e f1 ad 9f 3e f2 80 58 bf dd 50 ef 3c
       0.17759836 0.31187394 -0.84571755 0.029213363

fc1.bias f4 [400]
000000 57 89 5b be c7 67 21 bf da 7a ee 3e 80 2a f4 bd
       -0.2143911 -0.63048977 0.46578103 -0.11922169
000010 95 4c b7 be 21 e6 20 bf 7f 20 0e 3f 72 ce a4 3e
       -0.35800615 -0.6285115 0.55518335 0.32188755
000020 c0 49 b2 be 3e d6 8c be bd 50 a3 3e 88 10 34 be
       -0.34821892 -0.27507204 0.31897536 -0.17584431
000030 34 49 84 be 05 f7 37 bf 27 ab 1f bf d5 92 0b be
       -0.258371 -0.71861297 -0.6237053 -0.1363023
000040 3f dd c9 3e 6b e4 e2 3e 2a 8e 35 be 13 fa 12 bf
       0.3942661 0.44314894 -0.17730013 -0.5741283
000050 a9 64 64 3e 0c a8 0a 3f ac a8 0b 3f ba fe fc be
       0.22304024 0.5416267 0.5455425 -0.4941309
000060 c1 92 13 3e 44 4f ea 3e 19 d8 d0 bd c7 da 72 3d
       0.14411451 0.457636 -0.10197467 0.059290674
000070 fb c4 cb 3e 0d 97 6a be e6 62 14 bf 61 94 8d be
       0.39798722 -0.22909184 -0.5796341 -0.27652267
000080 be 04 36 3e a9 35 f5 bd 48 f5 83 be f0 0b ed be
       0.17775247 -0.119731255 -0.25773072 -0.4629817
000090 a9 87 68 3e aa 75 01 3e e4 f1 ce be 46 fd f4 3e
       0.22708 0.12642542 -0.40418923 0.47849482
0000a0 89 c2 e9 3e 81 b3 c5 be 20 34 c0 bd 42 ec 12 3e
       0.4565623 -0.38613513 -0.09384942 0.14347938
0000b0 90 e2 5e 3e 83 2d 6f be 0f 47 70 be d9 4b 12 be
       0.21766114 -0.23357205 -0.23464607 -0.14286746
0000c0 80 31 56 3d bd 64 ed 3e 09 b1 a9 be 55 21 3a 3e
       0.0522933 0.4636592 -0.3314288 0.18176778
0000d0 6d f3 a9 3e d4 de 35 be bc 6b de be df b4 de 3e
       0.33193532 -0.17760783 -0.4344157 0.4349737
0000e0 f7 9f b6 3e 07 93 2e be 93 f2 b9 bd d1 c4 98 3e
       0.35668918 -0.17048274 -0.090794705 0.2983766
0000f0 1c e6 05 3f 1a 02 ac be 11 7e a0 be ee e5 a1 3e
       0.52304244 -0.33595353 -0.3134618 0.31620735
000100 cd 32 cc 3d 6e 7f b6 be a6 41 11 3f da f7 df be
       0.09970627 -0.35644096 0.56740797 -0.43743783
000110 f7 9d 33 3d 93 5a b6 be 6e 9e ae 3e 3b 3a 71 be
       0.04385182 -0.35615978 0.34105247 -0.2355737
000120 97 cb 43 3e 24 69 14 bf fe 9e 03 bf d5 ec b2 3e
       0.19120632 -0.5797293 -0.5141448 0.34946314
000130 da 48 4e be 9e 7d 59 be 34 1c 9e 3e df 06 47 be
       -0.20144978 -0.21239325 0.30880892 -0.19436215
000140 91 da f4 be 2a d5 31 3e 99 f2 44 bd 10 84 f4 3e
       -0.47823003 0.17366472 -0.04808292 0.47757006
000150 84 c7 70 bd 6a 65 c1 be 55 aa e7 be 65 53 a0 3e
       -0.058784023 -0.37772685 -0.4524714 0.31313625
000160 50 4e 82 3e fa 4a 6e 3e 8c 05 ed be e9 6d c7 3e
       0.25450373 0.23270789 -0.46293294 0.38951042
000170 30 08 99 bd 34 83 e2 3e e5 d4 bc bd b2 5f 25 bf
       -0.07472265 0.44240725 -0.09220294 -0.64599144
000180 52 c4 ee be 2e eb bc be 33 b5 fd 3e 6a 16 04 bf
       -0.46634156 -0.36898178 0.49552307 -0.515967
000190 d2 f3 e5 3e 37 e0 62 3e f0 d5 a0 3e 84 cc 6b 3e
       0.44912583 0.22155844 0.3141322 0.23027235
0001a0 b7 cf f4 3e 0b 61 8c bd 62 87 85 be a6 b0 98 3e
       0.47814724 -0.06854447 -0.2607985 0.29822272
0001b0 d1 9c 2f be b2 1c fb 3e e8 32 89 3c 38 16 7a 3e
       -0.17149664 0.4904533 0.016747907 0.24422538
0001c0 79 a7 68 3d f9 a0 43 be 69 ff c7 3d d5 18 76 3e
       0.05680034 -0.19104375 0.097655125 0.2403291
0001d0 30 8a f3 be 09 b0 ad bd b3 c3 a6 3e e4 b2 d2 3e
       -0.47566366 -0.08480842 0.32571182 0.41152108
0001e0 c7 88 ae be a2 17 21 3e a6 fe 90 3e 02 14 04 3f
       -0.34088728 0.15731671 0.2831928 0.5159303
0001f0 06 15 ca be b9 af 93 bd cf 5b 58 be 8e 43 12 bd
       -0.39469165 -0.07211251 -0.21128772 -0.035708956
000200 69 27 ff 3d 7b c3 03 bf 19 bc 34 3e d4 9e fe 3e
       0.12458689 -0.51470155 0.17649879 0.4973055
000210 0f 13 d2 3e 69 55 04 bf c4 ff dd 3e d9 83 ba bd
       0.41030166 -0.51692826 0.43359196 -0.09107179
000220 2a c3 b8 be 98 fc a7 be 52 69 d9 3e fb da 5c be
       -0.36086398 -0.328099 0.42463166 -0.2156791
000230 fc 59 d3 3e 24 1e 59 3e ea 7d 7f be 95 4a 4a be
       0.4127959 0.21202904 -0.24950376 -0.19755013
000240 68 36 c5 be aa ff b1 3e 68 3a be 3d df 69 d8 3e
       -0.3851807 0.3476537 0.09288484 0.42268273
000250 c9 ea 8e be 63 37 e2 bd ba 9f a3 be 56 5f 1e 3e
       -0.27913502 -0.110457204 -0.319578 0.15466055
000260 6b be 30 bf f6 9f 76 be c7 b0 93 bd f8 a2 0f bf
       -0.69040555 -0.24084458 -0.07211452 -0.56108046
000270 dc 29 06 bf 74 be a6 be 57 4e f4 be b5 40 95 3e
       -0.5240762 -0.3256718 -0.4771602 0.2915093
000280 cf 12 93 3e f4 af 1a be 95 9f 73 3e 78 09 14 bf
       0.28725287 -0.15106183 0.23791344 -0.5782695
000290 c9 d9 ce be 1a 1d 02 bf ac 57 13 be 36 ac f6 3e
       -0.40400532 -0.50825655 -0.14388913 0.48178262
0002a0 d7 11 26 be 54 2c d0 be 85 ce 12 bf 8c 59 cb 3e
       -0.16217743 -0.4065882 -0.57346374 0.39716756
0002b0 3b 13 6d bb 75 87 41 3e 1c 4a 9e 3e cc d8 11 3f
       -0.0036174792 0.18899329 0.30915916 0.5697143
0002c0 e9 f0 56 be 4a cb b5 3e b4 1b 00 3f 9b 5a 18 bf
       -0.20990337 0.3550666 0.5004227 -0.5951325
0002d0 72 12 0f 3f 1e 33 39 bd c0 9c 9d 3e 83 d9 b8 be
       0.5588752 -0.045214765 0.30783653 -0.36103448
0002e0 b8 97 21 3e 37 e8 02 bf 34 69 7d 3e a0 ba 3d 3e
       0.15780532 -0.5113558 0.24747163 0.18528223
0002f0 be bc 9f 3e f0 f0 c0 be 08 d7 d7 be 55 c1 85 bb
       0.31198686 -0.3768382 -0.42156243 -0.004081885
000300 09 6e 9d 3e 0c fc 9d be c1 97 04 bf 25 d5 d3 be
       0.30748013 -0.3085636 -0.5179406 -0.41373554
000310 91 b1 17 3f 58 bf 94 bd 46 9e a3 be ee ec 9f be
       0.5925532 -0.072630584 -0.3195669 -0.3123545
000320 25 42 a7 be 41 cb 89 bd 54 e1 ca 3e 0c 07 7f be
       -0.32667652 -0.06728221 0.39625037 -0.24905032
000330 e6 17 d7 bd 52 ce e6 be 55 8a da 3e 6e cd 03 3f
       -0.10502605 -0.45079285 0.42683664 0.51485336
000340 cb e9 1c bf 87 84 76 3e 49 e1 7b be 73 08 d5 be
       -0.6129424 0.24073993 -0.24597658 -0.4160801
000350 c0 a2 bc 3c a7 14 b0 3e 28 83 bf be 90 7f da be
       0.023026824 0.34390756 -0.37404752 -0.42675447
000360 60 31 ff be f3 78 2f be 0a e5 90 3e da bf c6 3e
       -0.49842358 -0.17135982 0.28299743 0.38818246
000370 39 47 4a be 15 c6 cd 3e e6 24 d5 be 37 f5 dd 3e
       -0.19753732 0.40190187 -0.41629714 0.43351147
000380 f4 d7 e0 be d2 7c 05 bf 18 44 22 be a8 4e 97 be
       -0.4391476 -0.52143586 -0.15846288 -0.29552197
000390 a3 36 aa 3e e5 95 e3 3c 81 9c de be d1 a3 a2 be
       0.3324481 0.027781436 -0.43478778 -0.31765607
0003a0 ce 5e e3 bd 50 65 a7 3e 65 3a 8c 3d 3d 7f 7a be
       -0.11102067 0.32694483 0.068470754 -0.244626
0003b0 bc 66 9c 3e e9 4d 53 3e e5 d0 36 be df f2 fa be
       0.3054713 0.20635189 -0.17853124 -0.4901342
0003c0 25 dd 04 bf ee db e2 3e 7e f5 85 3e 62 25 b2 be
       -0.5189994 0.44308418 0.26163858 -0.34794146
0003d0 a5 ae 3e bc 84 f6 a8 3e 96 49 b1 3e ae b2 29 be
       -0.011638318 0.33000576 0.34626454 -0.16572067
0003e0 af 61 04 bf 9c db f8 be c4 43 9d 3e 13 8e 10 bf
       -0.51711553 -0.4860505 0.30715764 -0.5646679
0003f0 f4 4e eb 3e 2e 22 f7 3e 94 63 ca be 4b 04 0b 3f
       0.45958674 0.48268265 -0.39529097 0.54303426

fc2.weight f4 [400, 400]
000000 27 0b 08 3e ee 93 c1 bb 0d 00 83 be 6b e5 69 be
       0.13285504 -0.005907527 -0.25585976 -0.22841422
000010 a5 1e ea b9 27 60 fd bc 66 ea 3b bc 6c 00 24 bd
       -0.0004465479 -0.030929638 -0.011469459 -0.040039465
000020 aa eb 17 3e e8 da f9 3d 53 06 97 bd a4 c7 f4 bd
       0.14835992 0.12199956 -0.07374253 -0.11952141
000030 b6 bc bd bd 0b 6e 3b bd 76 a4 d4 3d 1f 3f 61 be
       -0.092645094 -0.045759242 0.10382931 -0.21996735
000040 4d af aa 3d 47 04 fc bc ae 33 2e 3d 78 ab 71 bd
       0.08334217 -0.030763758 0.042529754 -0.059001416
000050 df 93 a7 bd 61 94 94 3d bb 06 b9 be 27 6e 7e be
       -0.08182501 0.072548635 -0.36137947 -0.24846707
000060 21 82 d2 bd e7 13 36 3d 7d a5 c6 3e e1 06 1d 3e
       -0.10278726 0.044452574 0.38798133 0.15334655
000070 3a 48 4c 3d ba 95 d9 bc 99 38 a9 3c 91 b9 1e bd
       0.049873568 -0.026560653 0.02065687 -0.03875119
000080 0b 4d 9d 3d ea 3e 23 3e 80 51 17 ba ca eb 30 be
       0.076807104 0.15941969 -0.00057723373 -0.17277446
000090 5a 7d 9e be 3d 79 1a 3d d7 cb c5 3d e3 33 7c be
       -0.3095501 0.037713278 0.0965802 -0.24629168
0000a0 37 6b 41 3d 09 87 b2 3c 0d c7 6f 3e 12 54 d9 3d
       0.04722139 0.021792905 0.23415776 0.10611738
0000b0 9f c1 9f 3d 52 ea a2 3d 5b 30 e4 3d 87 4e 8c 3e
       0.07800602 0.07954849 0.111420356 0.27403662
0000c0 e0 76 c0 3d 17 2e d1 bc 68 31 0e be 19 91 d5 3d
       0.093976736 -0.025534673 -0.13886034 0.10428066
0000d0 cf 83 9f bd 5d b3 e7 bc a1 48 ab be d1 3f 4b be
       -0.07788812 -0.02828377 -0.3345385 -0.19848563
0000e0 63 ca d7 3d f0 1f b3 be 7e e0 02 3e 27 ec ab bc
       0.10536649 -0.34985304 0.1278095 -0.02098663
0000f0 74 8c 41 bd d1 1d b2 bc fb 24 89 3c 90 2c 57 be
       -0.047253087 -0.021742733 0.016741266 -0.21013093
000100 8f 3f af 3d 13 67 21 bd f2 e2 7b bd b6 c3 01 3e
       0.08557045 -0.03940494 -0.06149573 0.12672314
000110 eb 18 bb 3e 94 59 07 3e 3d d1 5c bd 52 52 c3 3e
       0.36542448 0.13217765 -0.053910483 0.38148743
000120 e5 2a 94 3d fb e3 a6 bd 6a 1d c2 3e 19 35 ec 3d
       0.07234744 -0.081489526 0.37913066 0.11533565
000130 fa 4e fa 3e 12 8a 1b 3d 4f d8 1d be 8d 61 3d bd
       0.4888838 0.03797347 -0.15414546 -0.04623561
000140 2f 2a b9 3a 1b bc f0 be f6 27 55 3e 66 85 02 bd
       0.0014126952 -0.47018513 0.20816025 -0.0318655
000150 b1 9f ee 3b eb 3c eb 3d 64 f7 df bc 66 95 3b bf
       0.0072822203 0.114862286 -0.027339645 -0.7327484
000160 60 d4 04 be 29 f2 95 3d a4 66 8a bd f1 30 75 3d
       -0.1297164 0.07321579 -0.067578584 0.059861127
000170 fe 02 45 3e dc 4d 4a bf 6b b6 8a 3e da 60 61 be
       0.19239423 -0.79025054 0.270923 -0.22009602
000180 31 e9 a4 3c 36 8e 4e 3d 35 f4 4e bf 73 26 64 3d
       0.020130726 0.05042859 -0.8084138 0.05570073
000190 9f a6 4a bc 40 b9 d9 bd 15 d3 a4 be 07 98 c2 be
       -0.012368827 -0.10631037 -0.32192293 -0.38006613
0001a0 bf 7b c4 3d 73 0e db 3d ae a3 e0 3c 5a 9b 3d 3b
       0.09593915 0.10696115 0.027421799 0.0028931708
0001b0 21 f4 f6 3e 77 9f d4 bd 9e 2a 13 bd 55 49 bc bd
       0.4823313 -0.10381978 -0.035929315 -0.091936745
0001c0 ee a0 57 be 71 19 3e 3e b2 70 2b bd c8 3d 4f 3c
       -0.21057484 0.18564393 -0.04185552 0.012649007
0001d0 f9 c1 32 3d 69 37 72 3e f1 0b 51 3e 6c 98 e4 be
       0.043642018 0.2365395 0.20414712 -0.4464754
0001e0 f6 7f d1 3e 61 a9 9b bb 9c 7e 2c 3e a7 2a f7 be
       0.4091794 -0.004750416 0.16845173 -0.4827473
0001f0 dc 99 e2 3c 00 c8 61 3b 1e 84 a6 3e ad fc 02 be
       0.027661256 0.0034451485 0.32522672 -0.127917
000200 1a eb a2 3e f9 89 05 be 2e eb a4 3e 2b 0b 39 bf
       0.31819993 -0.13040914 0.32210678 -0.72282666
000210 3d 2a 12 bd 6d 54 35 3e ed ed 35 3d 30 2e be 3e
       -0.035684813 0.17707987 0.044416357 0.37144613
000220 da 68 c2 bd 00 85 c7 3a bb c1 0b bf 23 3d 0c bd
       -0.09492655 0.0015222132 -0.54592484 -0.034237992
000230 9b f5 c5 bd 81 c0 a1 be 99 90 7d 3d 70 24 af 3b
       -0.09665986 -0.3159218 0.061905477 0.00534492
000240 30 9c 35 3d b4 d8 cd 3d 8e ab cf 3d 6f 4e 8b 3d
       0.044338405 0.100510985 0.10140143 0.068020694
000250 62 df 86 3c f1 12 37 3d 2d 57 3a be c7 50 74 3d
       0.01646394 0.0446958 -0.18197317 0.059647348
000260 0e f2 2c bd ea 5d cd 3c 72 cc 11 3f 83 a9 49 be
       -0.04222303 0.025069196 0.56952584 -0.1969357
000270 63 1f 01 3e 47 53 53 3e d8 9e 03 3c cf 5e af bd
       0.1260963 0.20637237 0.008033477 -0.08563005
000280 47 fe fd 3d f7 74 0a be 53 be 1e be b3 3e d1 3c
       0.12402015 -0.13521181 -0.1550229 0.025542593
000290 8f 87 02 3d 5f 6b 9c 3c 92 79 ca 3d 2c 41 e3 be
       0.03186756 0.019094167 0.09886469 -0.4438566
0002a0 5a 35 d0 3f 64 4d 6e 3c e7 93 8c 3c 91 57 a7 bd
       1.6266282 0.014544819 0.01716037 -0.08170999
0002b0 44 e5 3c 3e 13 1a 11 bf ef 15 8a be 2a 2c 1e 3d
       0.18446833 -0.5668041 -0.2696986 0.038616337
0002c0 e9 86 7d bd 09 cc 0d be e8 0f 74 be 42 63 26 3d
       -0.06189624 -0.13847364 -0.23834193 0.040622003
0002d0 af ac e4 3c 3f c2 a1 3e 59 c5 6f 3d 34 c1 96 bc
       0.027914373 0.3159351 0.058537815 -0.018402673
0002e0 37 9f 3e 3e 90 72 03 bd 95 fa 82 bd c3 df c2 3d
       0.18615423 -0.032091677 -0.06395451 0.095153354
0002f0 12 72 2a 3d e8 e8 ab 3d 9b 7d 1f bd c2 43 00 3e
       0.041612692 0.08394033 -0.038938146 0.12525848
000300 67 1c c0 be a7 a1 57 3e 9d 94 02 be aa 65 d7 bc
       -0.3752167 0.21057759 -0.12752004 -0.026293594
000310 ab 3c 18 be 63 e8 d0 3b 48 47 97 3e b7 4b be bc
       -0.14866893 0.006375359 0.2954657 -0.023229463
000320 8f ac b3 be a6 2a 1d 3e a1 e8 74 bd dc 11 76 bc
       -0.3509259 0.153483 -0.059792165 -0.015018906
000330 d7 41 90 3d 52 04 88 be b1 af 1a bf e0 5d 84 3d
       0.07043808 -0.26565796 -0.60424334 0.06463218
000340 f3 04 0f 3d e8 8c a1 3d 1f 8f a4 3e 4d 55 1c be
       0.03491683 0.07888204 0.32140443 -0.15266915
000350 5b 6a 85 3e b2 4f 96 3d 96 f3 30 be 35 77 91 bd
       0.26057705 0.073394194 -0.1728042 -0.07102815
000360 50 68 0d bd dd c6 2b be 8a bb 5a 3d 56 4c a2 3d
       -0.03452331 -0.16775079 0.053401507 0.07924716
000370 60 47 80 3e 69 12 34 3c e5 76 e3 bd d2 aa 4a bd
       0.25054455 0.010990717 -0.11106662 -0.049479313
000380 8c 82 a1 3c 0a cf 57 bc af 56 2a 3d 5b 32 e3 bd
       0.01971557 -0.013171921 0.041586574 -0.11093589
000390 cc d7 84 bd 9f 21 86 be 49 8a 86 3d 77 c3 1d bc
       -0.064864725 -0.26197526 0.065693446 -0.009629122
0003a0 9d ed f0 3e 9f 8c 5d bc 7b 6b 84 3e d0 c1 da 3e
       0.47056285 -0.013522296 0.2586325 0.42725992
0003b0 7f 41 de bc 87 d3 c4 be 7a c6 17 3f 52 d6 f8 bc
       -0.02713084 -0.38442633 0.59287226 -0.030375633
0003c0 8f 47 48 bd b4 89 64 bd 38 da 40 3e 4b 79 37 be
       -0.04889637 -0.055795386 0.18833244 -0.17917363
0003d0 76 bc c8 3d 76 eb 47 bf 33 f2 86 bc 2f 75 19 3e
       0.09801571 -0.7809366 -0.016472911 0.14986108
0003e0 a1 f2 5f 3d 0a 92 12 bc 70 ce ba bd 35 0e 42 3c
       0.05467475 -0.008945951 -0.09121406 0.0118442075
0003f0 45 6a 87 ba 20 0c b0 be b9 4a 5c bd 7f a3 04 bd
       -0.0010331353 -0.3438425 -0.0537822 -0.032382485

fc2.bias f4 [400]
000000 bf be 83 bd ac 00 d4 bb 23 3c aa 3b db 46 b4 3d
       -0.06432866 -0.0064698067 0.005195157 0.08802577
000010 d8 ca cc 3d 2e 69 ce 3d 45 c9 26 3d 2d ac b7 3d
       0.09999627 0.10078655 0.04071929 0.08968387
000020 b5 18 2d 3d b6 9f dd 3d fc af da 3d 32 2e 47 bc
       0.04225989 0.10821478 0.106780976 -0.01215701
000030 35 8a c6 3c dd a5 2e bd df 31 20 3c c7 50 b7 3d
       0.024235824 -0.04263865 0.009777515 0.08950954
000040 0b ef e0 3d 6d af c3 3c 5a e6 8f bd 2f ea 42 bd
       0.10983094 0.02388736 -0.07026358 -0.047586616
000050 81 df 31 3d 65 24 2d bd 97 46 8d bc 13 62 dd 3c
       0.04342604 -0.042271037 -0.017245574 0.027024304
000060 6c 03 0d bc 0e 17 7a 3d e7 8c 86 3d 91 a6 86 3d
       -0.008606773 0.061057143 0.06569844 0.06574739
000070 a5 03 76 3d 33 2f 40 bc 26 12 9f bc 90 d0 e4 bc
       0.06006207 -0.011730003 -0.019417834 -0.027931482
000080 d6 d5 b4 3d 70 b4 2c bd ad 25 14 3d 19 eb 2f 3d
       0.088298485 -0.042164266 0.036168743 0.042948816
000090 a7 15 1d 3d ad 89 c4 3d ed dd b5 3d bf d6 e2 bc
       0.038350727 0.09596572 0.088802196 -0.02769029
0000a0 7f 32 9b 3d 48 64 50 3c a8 b0 69 3d e7 c8 4d bd
       0.07577991 0.012719221 0.05705324 -0.050240424
0000b0 30 a2 71 bb 7f 5d 2e bd e5 ec 9d bd e5 51 1c bd
       -0.0036870353 -0.042569634 -0.077112 -0.03816404
0000c0 d3 45 4b 3d ff 50 a9 3c e2 b9 8f bc 42 09 3e bd
       0.049627136 0.020668505 -0.01754469 -0.046395548
0000d0 e4 40 d9 3d 07 cb 5e 3d 3a 8d 06 bd bb e3 02 bd
       0.1060808 0.05439284 -0.032849528 -0.031955462
0000e0 e9 79 9d 3d 1d 65 01 bc 57 ab 91 3d a5 ab cc 3c
       0.07689268 -0.007897642 0.071127586 0.02498419
0000f0 85 35 14 3d e8 6e 66 3c 48 19 3e 3d 46 9b 5a ba
       0.036183853 0.014064528 0.04641083 -0.00083391776
000100 6d 94 bb bb da 97 79 3d d3 87 19 3c 87 61 65 bd
       -0.005724481 0.060935833 0.009370762 -0.056001212
000110 d5 b6 d8 3b 6a d5 04 bd 45 77 8d 3d 77 c1 cb 3d
       0.006613592 -0.03243009 0.069075145 0.0994901
000120 ef e7 5d 3d 38 20 15 bd 4e 83 db 3c fb 59 40 bd
       0.054176267 -0.03640768 0.02679601 -0.046960812
000130 44 61 e9 bc 0a 3a a9 3c 29 c5 f5 bb b5 dc b5 3b
       -0.028488763 0.020657558 -0.00750031 0.005549992
000140 51 c5 0f 3d 37 6c f5 bb eb 88 d1 bc 48 ef 67 3d
       0.035100285 -0.007489707 -0.025577983 0.05662468
000150 68 89 0d 3d c5 15 8f 3d dc bc 20 3c ce 11 75 3d
       0.03455487 0.06986574 0.009810653 0.059831433
000160 a1 72 4c 3d b1 0b 4f bc 58 cb 09 bd 66 50 10 3d
       0.049914006 -0.012637065 -0.03364119 0.035232924
000170 24 ec 95 bd 8d fd 94 3c a1 11 25 3c d7 34 2a 3c
       -0.07320431 0.018187309 0.010075004 0.010388575
000180 98 97 96 3d bd a1 98 bc 98 47 4c bc 3d ad 8d 3d
       0.07353133 -0.01863181 -0.012468241 0.06917808
000190 ba e5 ba bc 9a a4 05 bc 72 e4 b7 bc 4d 0d 9c 3c
       -0.02281462 -0.00815692 -0.022447798 0.019049311
0001a0 2c 2c 8f 3d 2b 2f a0 3d 2e 11 8f 3d 6b ab 98 bd
       0.06990847 0.078214966 0.06985699 -0.074545704
0001b0 c4 71 47 bd a8 e5 1b 3d 86 00 11 bb d1 d5 4b 3c
       -0.04869248 0.038060814 -0.0022125556 0.0124411145
0001c0 ec 20 11 3b 94 3f f7 3d 99 5e b0 3d 5e 35 e0 3c
       0.0022144867 0.120726734 0.08611793 0.027369197
0001d0 12 24 65 3d c9 27 59 bd f9 7f d9 bc 17 c9 92 3d
       0.055942602 -0.053016458 -0.02655028 0.07167261
0001e0 be 13 1a 3d 69 8e 0b 3d 1e 4f 2f bd 28 b6 bb ba
       0.037616484 0.03407136 -0.04280006 -0.0014321255
0001f0 65 31 1e bd a8 77 83 bc fa 84 26 3d 43 2f 08 3d
       -0.038621325 -0.016048267 0.04065416 0.033248197
000200 c2 b4 83 3d 6e c0 d5 bc 7f 8e 36 3d 65 12 c6 3b
       0.06430961 -0.026092734 0.04456949 0.0060446733
000210 e6 92 ac bc e7 bf 9e bd 21 a8 f8 3c ed 44 29 bb
       -0.02106614 -0.07751446 0.030353608 -0.0025828436
000220 f7 40 84 3d 1d 74 f4 bb 61 bc b3 bd 6b 90 c7 bc
       0.064577036 -0.007460131 -0.08776165 -0.024360856
000230 3e e0 dd 3c 6b 9d ec 3d 09 07 23 bd 52 51 99 bd
       0.027084466 0.115534626 -0.03980163 -0.07486214
000240 2b 72 7a 3c 13 3f 37 3a 5a a6 8a 3c f0 3f b2 3d
       0.015286009 0.0006990295 0.016925026 0.08703601
000250 5c 10 68 3d aa 1d 22 bd fc 07 55 3d c2 c2 d0 3d
       0.056656227 -0.03957907 0.052009568 0.10193397
000260 d3 3b 0b 3d e7 48 11 bc 20 ca 35 bd d3 15 06 3d
       0.0339926 -0.008867479 -0.044382215 0.032735657
000270 d4 26 f7 3d 32 0b fc bc 2a f2 ae bd ca 92 d4 3d
       0.12067953 -0.030767057 -0.08542283 0.1037956
000280 16 77 12 bd 19 c4 9a 3d 32 46 a7 bd c3 4f e6 bc
       -0.0357581 0.07556934 -0.081676856 -0.028114205
000290 e3 9e 59 3d 94 e2 e1 bc bc 2d a7 bd 4c 4a 3d bd
       0.05313004 -0.027573861 -0.0816302 -0.046213433
0002a0 68 14 b5 bc ec 76 d0 3d 6f b8 01 3d 98 4d d5 bc
       -0.022104457 0.101789325 0.03167003 -0.026037976
0002b0 9a 69 0d bd 59 37 a7 bd a3 5d 08 3d 41 a8 c4 bb
       -0.034524538 -0.081648536 0.033292424 -0.0060015027
0002c0 71 41 21 3d 7e b8 32 bb a2 13 52 bd 07 f5 99 3c
       0.03936905 -0.002727061 -0.051288255 0.018793596
0002d0 46 96 24 bd c8 c4 4c bb bb f7 cf 3c 16 f1 dd 3d
       -0.040182374 -0.003124522 0.025386682 0.10836999
0002e0 9d 8f 34 3d 4a 8c 35 3c c2 1b 4b 3d 10 70 97 3d
       0.044082273 0.011080811 0.04958702 0.07394421
0002f0 a4 80 98 bd 7e 47 0f 3d 78 04 6a bd 83 59 5d bd
       -0.07446411 0.03498029 -0.057133168 -0.054040443
000300 92 74 3b bd d8 d7 c8 3d cb 72 df bb 38 5f 01 bd
       -0.045765467 0.09806794 -0.0068191043 -0.03158495
000310 a4 5e ce 3d 2f 03 06 3d 44 4f c7 bd 05 80 c2 3d
       0.10076645 0.03271788 -0.097319156 0.09497074
000320 20 6d b7 bc 7c c5 e6 3d 78 a4 ae 3c 54 40 72 bc
       -0.022390902 0.11268136 0.02131866 -0.014785845
000330 04 d7 18 3d a9 59 03 3d 24 d8 28 bd d8 ca 6c 3c
       0.03731443 0.03206793 -0.041221753 0.014452659
000340 92 cc 9b 3d ee b2 26 bc c9 53 8e 3d 6b b5 d1 3b
       0.07607378 -0.010174496 0.069495745 0.0063998005
000350 72 87 cb 3d 54 c2 d7 3c 8a 5b 87 3c 5e e0 d0 3d
       0.099379435 0.02633778 0.016523141 0.10199045
000360 8e 31 b5 ba 7c c5 bd bd 75 d4 70 bd d1 3b 92 3d
       -0.0013823973 -0.09266183 -0.058796365 0.07140315
000370 12 d2 be 3d 61 e2 ad 3c bd c7 d1 ba 58 92 5d 3c
       0.093174115 0.02122611 -0.0016004961 0.013523661
000380 80 72 ec 3c 5f 0c 42 bd ce 6a c9 ba 68 93 61 3c
       0.028863192 -0.04737508 -0.0015366913 0.013768055
000390 2e c3 2a bd b1 62 1d bd e3 3e c3 3d 46 55 3c bc
       -0.041690044 -0.038424198 0.09533479 -0.01149494
0003a0 2d 47 d7 3c 30 11 a6 bd 1d f6 20 3d 74 29 ae 3d
       0.026279056 -0.08108747 0.039297212 0.08504
0003b0 41 a9 23 bd 23 f1 af 3b 41 1b cc bc 9a 7b bd 3c
       -0.039956335 0.005369322 -0.02491534 0.023130227
0003c0 e9 6f 2b 3d c5 e6 46 3d e0 a1 08 bd 2b d6 ca 3d
       0.041854773 0.048559923 -0.0333575 0.099041305
0003d0 82 31 e4 3d b3 cd b8 3d 90 eb 8b 3d 89 56 9f 3d
       0.11142255 0.09023609 0.06832039 0.07780177
0003e0 d8 45 a0 bd bf 74 f8 3d ab 5b 45 3d 9a e1 58 bd
       -0.07825822 0.121316426 0.048183125 -0.052949525
0003f0 e2 dc a0 3d 86 a2 db 3d 52 95 3a bd 00 49 03 bd
       0.0785463 0.10724358 -0.04555256 -0.03205204

fc3.weight f4 [2, 400]
000000 81 07 31 bf d7 9c a4 3c 25 78 23 3d f6 44 48 3d
       -0.69152075 0.020094318 0.0399095 0.04889389
000010 9e d9 9a 3d a0 6a 89 3d a6 a9 83 3d 1b 7c 77 3d
       0.075610384 0.0670979 0.06428842 0.06042109
000020 c7 ce 04 bd ac 7c 8b 3d eb 2b 96 3d 2f ce 02 bf
       -0.03242376 0.06810889 0.073325954 -0.5109586
000030 fb e4 97 3d 99 1c 4f 3d f3 f8 1a bd ce b9 1c 3d
       0.074167214 0.050564382 -0.037835073 0.038263135
000040 f2 ce 9e 3d 40 fe 02 3b db 0b 3a bf f3 b6 cf 3d
       0.077543154 0.001998797 -0.7267434 0.10142317
000050 f7 ee 8f bc de d5 bf bf ef 84 c6 39 fa e4 99 3d
       -0.017570002 -1.4987142 0.00037864546 0.07514377
000060 30 e2 d2 be 12 37 ca 3d d9 13 89 3d f4 55 2f 3d
       -0.41188192 0.09873785 0.06693239 0.04280658
000070 30 da a8 3d 22 ee 54 bf 0f 50 38 3b b1 35 5a bb
       0.08244741 -0.8317586 0.002812389 -0.0033296163
000080 81 d9 af 3d d3 4d 61 3f a2 4f 44 bc be a4 1d ba
       0.085864075 0.88009375 -0.011981877 -0.0006013623
000090 82 24 13 3e 27 ea bf 3d b3 69 bb 3d 69 5b 1e 3e
       0.14369395 0.09370833 0.0915102 0.15464558
0000a0 76 d8 de bd 86 72 d9 bc 6f 58 65 3e 9f 51 11 3c
       -0.108811304 -0.026543867 0.22397016 0.008869558
0000b0 3a 12 0e bd 91 5b e7 3c ab 34 0e 3e f7 80 fa 3c
       -0.03468535 0.028241904 0.13887279 0.030579073
0000c0 10 0d 8f 3c 23 ed 9f 3d f6 fa 98 bc db f2 23 bd
       0.017462283 0.07808902 -0.018674355 -0.040026527
0000d0 ef 95 08 3e e8 7f 10 3e e1 fe 85 39 69 fb 2f 3d
       0.13338445 0.14111292 0.00025557636 0.042964373
0000e0 0c 64 26 3e 53 55 81 bd df ad a2 3d 06 07 cb 3d
       0.16249102 -0.063151024 0.079433195 0.09913449
0000f0 36 b2 31 3c f0 de 99 bc c5 72 ed 3d 6b 3c 2e 3e
       0.010845711 -0.018783063 0.11594156 0.17015235
000100 93 be e5 3c 23 4e a0 3d 93 37 00 bd 40 9b 27 bd
       0.028044974 0.078274034 -0.031303 -0.040919542
000110 79 c3 49 3f 97 e1 f7 bd 09 98 8a 3d 6e 3e b1 3d
       0.7881389 -0.12103575 0.0676728 0.08654486
000120 1a b6 b7 3d 41 6b 11 3d 20 23 0e 3e 8d c2 19 3e
       0.0897028 0.035502676 0.13880587 0.15015621
000130 1f c8 bf be 68 73 28 3e 70 70 44 bd a3 57 9a bb
       -0.37457368 0.16450274 -0.04795879 -0.004710154
000140 b6 7e 00 3e ec be 68 bf 90 a9 02 bf 12 ea a3 3d
       0.12548336 -0.90916324 -0.5103998 0.0800363
000150 4d 94 a1 3d 4b 5a 4a 3d fc f8 c6 3c c9 f4 c4 3d
       0.07889614 0.049402516 0.024288647 0.096170016
000160 59 85 a7 3b 34 aa ac bc ba 4c 74 3c 4f 47 24 3c
       0.005112332 -0.021077253 0.014910871 0.010026767
000170 8f 80 1c 3f c8 58 a6 39 d1 ee 40 3e fa c8 56 bd
       0.61133665 0.00031728134 0.18841101 -0.05243776
000180 27 5d 1d 3e 62 1c e3 3c 04 06 5b bc 91 c3 82 3d
       0.15367566 0.027723495 -0.013368133 0.063849576
000190 6a f5 8e 3c 39 bf 81 3e 1a 37 11 bc ba 59 07 3e
       0.017451007 0.25341204 -0.008863235 0.13217822
0001a0 52 bc b8 3d 51 5e c7 3d bd 11 0b 3e 42 dc 86 be
       0.09020294 0.09734786 0.13580985 -0.26339918
0001b0 c9 ce 35 bd bb 7f 1e bf 38 1d f0 3c 81 4e 28 3d
       -0.04438666 -0.6191365 0.029310808 0.041090492
0001c0 08 70 d3 bc 41 3e 36 3e ff aa b6 3d d0 be c3 3c
       -0.025810257 0.17797185 0.08919334 0.023894697
0001d0 eb 89 72 3d b8 ee 4f 3a be 23 93 3d b8 ff 45 3c
       0.05921356 0.0007931995 0.07184552 0.012084894
0001e0 ca 66 32 3e 5f 40 35 3d 00 85 af be b9 26 f0 3c
       0.17422023 0.044250842 -0.34281158 0.02931534
0001f0 83 26 0f bd dd 8a 9f 3d 8e 28 97 3d 39 f0 f9 bb
       -0.034948837 0.07790158 0.07380782 -0.0076275137
000200 85 f3 d7 bd 29 5c 69 bb d6 a6 f6 3c 33 ab 7c bf
       -0.105444945 -0.003560791 0.03010885 -0.9869873
000210 23 43 fd 3c 6d e7 1c be d1 23 a1 3d 60 76 59 3c
       0.030915802 -0.15322657 0.078681596 0.013272852
000220 4e 99 2f 3d c7 ff d2 bc 21 a3 fd bd d8 17 c8 bb
       0.042870812 -0.02575673 -0.1238463 -0.006106358
000230 f3 bc 81 3e e9 5c dd 3d 2a 06 7b be a1 8b 8e 3e
       0.2533947 0.10808737 -0.2451407 0.27840903
000240 eb c3 44 bc 0f 67 35 3e 5f 4b 1b 3d d1 f5 67 3d
       -0.012009601 0.17715095 0.037913676 0.056630913
000250 2d 50 43 3d b5 c4 09 3d e3 2d d0 3d 57 00 9f 3d
       0.047683883 0.03363486 0.10165002 0.07763737
000260 d5 e4 04 3b 1f f8 9b 3b 71 bb ea 3c b8 05 96 3d
       0.0020277996 0.004759803 0.028653832 0.073253095
000270 77 6f 65 3d 32 ee 3f 3c d5 6f 01 bf c8 58 20 3e
       0.056014504 0.011714505 -0.5056127 0.15658867
000280 04 27 0d 3d 3e 1d 04 3e fe c1 1d be fa a9 cf 3c
       0.034461036 0.1290178 -0.15406033 0.025349606
000290 2e b6 3b 3e ab ed 65 bf 29 f1 82 bf de 9d ed bc
       0.18331215 -0.8981578 -1.0229846 -0.029005941
0002a0 0b 54 5d bf 9a 22 ed 3d 5e da 20 bd 2b f5 1e 3d
       -0.86456364 0.11578865 -0.03927075 0.03880803
0002b0 73 29 bf bc 00 da 24 bf 4e 51 5b bd 92 b6 41 3f
       -0.023335194 -0.6439514 -0.053544335 0.75669205
0002c0 3f c5 f2 3c 2c a1 11 bf 53 b4 f1 bf 66 35 16 bc
       0.02963507 -0.56886554 -1.8883156 -0.009168005
0002d0 e2 a5 8a bf c5 19 40 3c 4c 82 95 3d ec f9 f1 3d
       -1.0831873 0.011724894 0.07300243 0.11815247
0002e0 e8 2d 21 bc 08 b4 9e 3d af a6 36 be ef 54 c1 3c
       -0.009837605 0.07749182 -0.17837022 0.02360007
0002f0 3e 39 cb 3e f9 9a a7 bb a1 58 0c bf 0d c9 9d 3c
       0.3969211 -0.0051149097 -0.54822737 0.019260908
000300 84 0e 06 bd a0 24 15 3d 70 dd 5c bf ff 28 ea bd
       -0.032728687 0.03641188 -0.86275387 -0.11433601
000310 52 9f e9 bb 88 33 4e be aa ac 03 bf 2b 38 b2 3d
       -0.007129588 -0.20136845 -0.5143534 0.087021194
000320 75 e6 b3 bf ae 04 f8 3d 37 d7 e9 3d e8 dc c3 3c
       -1.4054705 0.121102676 0.11418002 0.023909047
000330 23 e7 1e be 00 26 9d bc 41 9e 0e 3d 22 e7 2e bf
       -0.15517859 -0.019183159 0.03481889 -0.6832143
000340 94 c9 13 3d a9 22 1e bd 89 b8 a7 3d dd cc 1d 3d
       0.03608091 -0.038607273 0.08189494 0.03852545
000350 f6 e9 81 3d b4 40 c3 bc 67 ee 3e 3c 58 8b a2 3d
       0.06343453 -0.023834564 0.011653519 0.07936734
000360 eb 2e 42 bf bb 5c ea 3e d7 43 f5 be da 15 b6 3d
       -0.7585284 0.45773873 -0.4790332 0.088908866
000370 84 b0 9b 3d d9 5b 1b bd 98 9f eb bf 38 f3 7e bc
       0.07602027 -0.03792939 -1.8408079 -0.015560918
000380 d2 6d bc 3a c2 00 ac 3c bb c6 b3 3d f2 42 09 bd
       0.0014375991 0.020996455 0.08778139 -0.03351111
000390 76 d4 fd 3b d2 91 85 bc f7 0b e6 3d 8a db 22 be
       0.0077462746 -0.016304884 0.11232751 -0.1590406
0003a0 8b 6f f0 bf f3 fa 1f bf 4b a4 c0 bc 8f a6 28 bd
       -1.878404 -0.62492293 -0.023515841 -0.041174468
0003b0 fa 82 1a 3d 69 f4 a2 3c a3 3d 87 bf 44 49 30 bf
       0.037722565 0.019891934 -1.0565685 -0.68861794
0003c0 a2 f7 1c 3d bd 00 c0 3d 0e f6 65 3d 72 b6 b6 3d
       0.0383221 0.09375141 0.05614286 0.089215174
0003d0 9b cd 9a 3d 2c b5 b3 3c 2c de af 3d b4 12 98 3d
       0.075587474 0.021936975 0.08587298 0.07425442
0003e0 2a aa 24 bf 58 67 1a 3e 04 76 a1 be b8 29 d1 3c
       -0.6432215 0.15078485 -0.3153535 0.025532588
0003f0 6d 52 30 3e f2 a5 ea 3d 59 4b 54 bc 8d 47 a3 3e
       0.17218943 0.11457433 -0.012957417 0.31890526

fc3.bias f4 [2]
000000 42 77 72 3d 70 e4 cf 3d
       0.059195764 0.10150993
