reinforcement_learning/models_cartpole/dqn_agent.pt (torch_old, 10948 bytes, 6 tensors)

fc1.weight f4 [64, 4]
000000 a3 5f 86 be 90 21 27 3e 00 47 c3 bf 5e 9e 0c 3d
       -0.2624484 0.16321397 -1.5256042 0.03433072
000010 e4 e7 74 be 46 29 26 be 43 7e 7e bf 35 c8 a4 bc
       -0.23916584 -0.16226682 -0.9941141 -0.020114997
000020 81 a9 23 bf 05 2e 1c bf fc 18 09 40 b3 e8 0c 3f
       -0.6393052 -0.6100772 2.14215 0.5504257
000030 e6 0f 0f 3f 28 14 da bd 83 6e 01 c0 99 d1 1a bf
       0.55883634 -0.10648376 -2.02237 -0.6047607
000040 0a 82 01 3f a4 ef 5b 3d ca 32 bd 3f 4f 04 50 3e
       0.5058905 0.053695336 1.4781125 0.20314144
000050 2d 5a b1 3e b3 d3 e8 3e 56 45 de 3f 0b c8 cd 3e
       0.3463911 0.45474014 1.736491 0.40191683
000060 20 59 87 be f0 ee bc be 47 ec cc bf 89 04 8a be
       -0.26435184 -0.36901045 -1.6009606 -0.26956585
000070 05 cb 85 be 37 bf 28 3e 3d c7 8a bf aa f8 80 be
       -0.26131454 0.16479193 -1.0842053 -0.25189716
000080 69 a2 87 be 33 0d 9f be 62 7c c0 bf ce 79 80 be
       -0.26491097 -0.31064758 -1.5037959 -0.2509293
000090 55 3e 84 be 08 62 e0 be b6 24 93 bf 52 86 04 bf
       -0.25828806 -0.43824792 -1.1495578 -0.51767457
0000a0 8b 62 3d bf 05 a2 99 bd b5 60 01 40 89 4b 01 3f
       -0.7397849 -0.07501606 2.0215275 0.5050588
0000b0 e9 16 a5 3e ce 30 93 bd aa 5f b1 bf 1d 72 37 be
       0.32244042 -0.07187043 -1.3857319 -0.17914625
0000c0 9b 59 f0 be 5b 10 bd 3d 66 52 87 3f a9 1f 57 3f
       -0.46943364 0.09231635 1.0572021 0.84032685
0000d0 dd c0 fb be 12 6c 57 3e d2 52 bf bf f7 b4 59 bd
       -0.4917058 0.2103732 -1.494715 -0.053151097
0000e0 dc 3d dc be ed 44 10 bd 2c f8 61 3f ff 27 d7 3c
       -0.43015945 -0.035221983 0.88269305 0.026264189
0000f0 24 cd b5 3e 74 0e 82 bc 79 7a bc 3f 6c 59 87 3d
       0.35508072 -0.015876032 1.4724876 0.06608853
000100 b1 90 5a be 68 00 0f 3f 45 b5 2c 3f 6b 2a ec 3e
       -0.21344258 0.55859995 0.67464095 0.46126112
000110 3b c6 13 3f 59 85 71 be a6 0d d9 bf 46 cb 3d bf
       0.5772435 -0.23586024 -1.695729 -0.74138296
000120 30 b7 9f 3e 7c b5 bb 3e 7f 04 a8 bf d5 10 07 bf
       0.31194448 0.366619 -1.3126372 -0.5276006
000130 18 e7 b8 be d5 79 74 be b6 5f 2e bf c2 43 62 be
       -0.3611381 -0.238746 -0.68114793 -0.2209616
000140 f9 70 0f 3f 03 70 3f be f6 d7 a6 bf 7b 24 2d bf
       0.5603176 -0.18695073 -1.3034656 -0.6763379
000150 2d 71 83 3f b3 5b 4a 3e 08 dd df bf 27 97 ef bd
       1.0268914 0.19761543 -1.7489328 -0.11698752
000160 8b b8 c1 3e 87 03 0c 3e 3b 7b 85 3f e1 ce 59 3e
       0.37836108 0.1367322 1.0428232 0.21270324
000170 03 5a c9 3d 4e 32 2a 3f 31 a9 b4 3f 52 23 b8 3e
       0.098316215 0.6648301 1.4114133 0.35964447
000180 1b 68 90 be 2b 24 c8 bd 01 fc b8 3f bc 67 b4 3e
       -0.28204426 -0.097725235 1.4451905 0.35235393
000190 51 8f 5d bf 25 82 1d be 83 6a f5 3f e9 4a a6 3e
       -0.8654681 -0.15381677 1.917313 0.32479027
0001a0 15 a2 dc be 63 d9 0e 3e cc ea 7c 3f fb 5e dd 3e
       -0.4309241 0.13950114 0.9879577 0.43236527
0001b0 2b fe 30 be 37 86 c7 be f5 9c 3c bf 99 2d 9a bf
       -0.17284457 -0.38969585 -0.73677 -1.2045165
0001c0 8e 34 e4 3e 8d 01 58 be f4 de 67 3f 0f c3 63 3c
       0.44571346 -0.21094342 0.90574574 0.013901486
0001d0 06 cd 30 bf 02 40 86 3e 78 77 e2 3f bd ee fe 3e
       -0.6906284 0.2622071 1.7692709 0.49791518
0001e0 45 f4 db 3e 06 32 40 3c 92 f6 95 3f 04 c9 0f 3d
       0.429598 0.0117306765 1.1715872 0.035103813
0001f0 9c b2 f9 3e f9 d7 b3 3e dc f0 c5 bf e6 c8 36 be
       0.4876908 0.35125712 -1.546413 -0.17850074
000200 32 d9 1d be f6 d0 c3 be a0 33 eb bf a9 97 4f bd
       -0.15414885 -0.38245362 -1.837513 -0.050681744
000210 76 58 06 be 83 50 9f 3d 8e d7 8d 3e 9f e8 69 3f
       -0.13119683 0.07779028 0.27703518 0.91370577
000220 ca a2 a2 be 30 ff b5 be ba 07 b7 bf 2e d9 b2 be
       -0.31764823 -0.35546255 -1.4299233 -0.3493132
000230 4e 4f 76 bf 0b 3c d0 3d ac 29 c4 3f 27 56 85 3e
       -0.9621476 0.10167702 1.5325217 0.26042292
000240 64 ce a3 3e 15 f6 6c 3e a8 3e 9e 3f 86 f2 a0 3e
       0.319934 0.23140748 1.2362871 0.3143503
000250 a2 fc 09 3d 91 39 17 3f b6 d2 b8 3f 3d c2 82 3e
       0.033688195 0.59072214 1.4439304 0.25538817
000260 67 de 86 3f 4e 7e 4d 3e 5c b8 f0 bf dd cd 81 be
       1.0536622 0.20067713 -1.8806262 -0.25352374
000270 98 4d 48 bf 43 1c 8c bd a3 76 c3 3f 24 c9 c7 3e
       -0.782434 -0.06841328 1.527058 0.39020646
000280 d4 04 e9 3e 35 b8 7f 3e 45 94 e3 bf 4c da 3f be
       0.45511496 0.24972613 -1.7779623 -0.18735617
000290 c4 af 09 3f c8 85 f5 3d 1e 7c af 3f 07 19 de 3e
       0.5378382 0.119884074 1.3709753 0.4337847
0002a0 3b b1 44 3f f0 53 3a be 27 d9 b6 bf 1e e6 84 be
       0.7683293 -0.18196082 -1.428502 -0.25956815
0002b0 fb 3b 09 3f 90 5a 1d 3e c2 51 df bf d4 70 85 be
       0.5360715 0.15366578 -1.7446826 -0.26062644
0002c0 3d 56 da 3e 48 9c 2e 3e ce 13 72 bf e8 69 89 3d
       0.4264392 0.17051804 -0.9456147 0.06709653
0002d0 06 69 dd 3c cc 75 eb 3e de d5 ba 3f 09 06 2a bd
       0.027027618 0.4598831 1.4596517 -0.04150966
0002e0 ac 2f b9 3e 5e 34 a1 3d 8c d5 c2 3f ea e3 ab 3e
       0.36169183 0.078713164 1.5221419 0.33572322
0002f0 46 73 9a be dc 4d d2 be d8 c9 cb bf 77 cc c2 be
       -0.30166072 -0.41075027 -1.5920973 -0.3804662
000300 0f fe 0a be d9 2c e9 3d e0 e8 89 bf c7 20 9b be
       -0.13573478 0.11385507 -1.0774193 -0.30298445
000310 46 e4 00 3f 41 d0 3d 3d 75 52 5a bf c0 c1 25 be
       0.5034832 0.046341185 -0.8528207 -0.16187191
000320 a0 f3 89 3e 86 af 02 3f 2b 57 ac 3f 88 42 14 3f
       0.26943684 0.5104908 1.3464102 0.5791402
000330 f5 2a 1b 3f c8 ad 54 3e eb de e9 bf 67 b3 a3 be
       0.6061242 0.20769417 -1.8271154 -0.3197281
000340 6a cb 36 bf 48 50 6f 3e 4e 4d 95 3f 7d 4a b2 3e
       -0.71404135 0.23370469 1.1664217 0.34822455
000350 54 03 fd 3e ea f8 b5 3d b6 36 af bf 13 61 74 be
       0.49416602 0.08885367 -1.3688571 -0.23865156
000360 9a 31 2b 3f 2d 3e 49 be de d6 83 bf 53 c6 04 be
       0.6687256 -0.19652624 -1.0299947 -0.1296628
000370 67 e5 1e bf 0f 2e 87 be c5 5a e4 3f 6d 83 17 3f
       -0.6206879 -0.26402327 1.7840201 0.59184915
000380 3c b0 3b be 5f 9e b9 be 2f e2 b8 3f 55 e8 45 3e
       -0.18328947 -0.3625364 1.4444026 0.19326909
000390 c7 f9 08 3f 72 a4 a9 bc 3d aa 01 bf 33 c5 b7 be
       0.5350613 -0.020708296 -0.5065039 -0.3589264
0003a0 dd 10 0b bf 26 b9 e4 3e 76 00 fa 3f 0b 1c 55 3e
       -0.54322606 0.44672507 1.9531391 0.20811479
0003b0 3b 06 43 bf 9c 03 ce be ec cf ed 3f 24 b5 09 3f
       -0.7618138 -0.4023713 1.8579078 0.53792024
0003c0 cf 27 dd 3e 90 35 c5 3c 93 c8 8f 3f 5f 8f 4f bd
       0.43194434 0.024073392 1.1233085 -0.05067384
0003d0 b4 11 c3 be cd b7 96 3d c8 51 c8 bf 69 f3 ec bc
       -0.38099444 0.07359276 -1.5649958 -0.02892466
0003e0 a2 54 30 bf 47 54 a7 3e 50 39 d2 3f a2 e7 b1 bd
       -0.6887914 0.32681486 1.642374 -0.086867586
0003f0 53 be d2 3e 76 69 87 bd d9 18 88 3f ff 86 36 3e
       0.4116083 -0.06611912 1.0632583 0.17824934

fc1.bias f4 [64]
000000 75 b3 1d 3e 5f e4 a7 be de 63 81 3d 79 72 3d bf
       0.15400489 -0.3279142 0.06317876 -0.74002796
000010 1e 8d 9c 3e bb 7d ec bd 29 71 be be a7 61 c8 3e
       0.30576414 -0.11547419 -0.3719571 0.39137003
000020 7b 27 8a be cb 4f 98 3e 36 3d 12 3f 0e bc de 3e
       -0.26983246 0.29748377 0.5712465 0.4350285
000030 27 f5 03 3f be 26 5b 3e 5e 02 13 bf e8 3a a1 be
       0.5154595 0.21401498 -0.5742549 -0.31490254
000040 b4 d6 dd be c1 82 3e bf dc 08 cd 3e cd c4 0f 3f
       -0.43327868 -0.74418265 0.40045822 0.5615967
000050 ac b5 50 bf 7a 87 c0 3e af 3d 1e 3f 42 29 ba be
       -0.8152721 0.3760336 0.6181287 -0.36359602
000060 a9 fc 21 bf 4f c5 ac 3e ac 8f 1d bf d8 79 89 bf
       -0.63276154 0.33744285 -0.6154735 -1.0740309
000070 5b 52 0b 3e ee f8 0a 3f 6f 1c 01 3f c2 00 ed 3e
       0.13605635 0.54286087 0.5043401 0.4628964
000080 9b f8 30 be 3c ac 56 bf 81 2c fc 3e ed 6f e2 be
       -0.17282335 -0.8385656 0.49252704 -0.44226018
000090 ce dd 1b 3f 33 e9 80 3e ce d3 e2 be b8 01 06 bf
       0.6088532 0.25177917 -0.4430222 -0.5234637
0000a0 19 85 40 bf 8c 9c 2f be 2a 8a ff 3e 43 5b f5 3e
       -0.7520309 -0.17149562 0.49910098 0.4792119
0000b0 5a ca 58 3f e7 ce 21 3e d9 f5 ba be 30 9b e8 3e
       0.84683764 0.15801583 -0.36515692 0.454309
0000c0 db 35 57 bd cc 86 80 3f 82 9f d5 be 00 51 20 bf
       -0.052541595 1.0041137 -0.41723257 -0.62623596
0000d0 d9 10 e7 be c8 14 3e 3f 67 6a 20 3f fe e4 09 3f
       -0.4513004 0.7425046 0.6266236 0.5386504
0000e0 96 14 41 bf 49 54 79 bf 67 86 86 3e 51 d7 aa 3e
       -0.75422037 -0.97394234 0.26274416 0.33367398
0000f0 65 78 1d 3f 7f 7f ae be 0f 48 99 be 28 b5 c4 3e
       0.6151183 -0.34081647 -0.2993779 0.3841946

fc2.weight f4 [32, 64]
000000 01 ce a9 be 9a 00 14 be ab 2a c0 3e 07 6b 35 be
       -0.3316498 -0.14453354 0.37532553 -0.17716609
000010 7c 78 44 3e 2b 7b 1b 3f f1 33 84 bd e3 7f 61 be
       0.19186586 0.60734814 -0.064552195 -0.22021441
000020 d6 39 86 be ca b4 75 bf 52 ef 33 3e fd 0b 53 bf
       -0.26216 -0.9597899 0.17571762 -0.8244017
000030 75 e9 fd 3d f1 03 cd be c1 48 cf 3e 56 2b ae 3e
       0.12398044 -0.4004207 0.40485194 0.34017438
000040 04 a0 51 3f 2e 53 34 bc 0a 22 87 be e9 ac 8c be
       0.8188479 -0.01100616 -0.26393157 -0.2747567
000050 d1 39 28 3d 4c bd 19 bf 0c 5e 40 be 01 97 1b 3f
       0.041070763 -0.6005447 -0.18785876 0.6077729
000060 7d 33 e3 3e b1 75 15 3f 13 9c 07 3f ef d0 f4 3e
       0.4437522 0.5838271 0.52972525 0.47815654
000070 23 2a 85 3d 34 32 b7 3e 08 e3 34 be 74 0c d9 be
       0.065021776 0.3578049 -0.1766473 -0.42392313
000080 3e 57 e0 be 95 5d 15 3e 94 27 df be 8f 59 38 3f
       -0.4381656 0.1458648 -0.43584883 0.72011656
000090 f6 bc 45 be 72 f5 a5 3e de 76 33 be db 69 3d 3f
       -0.19310364 0.32413822 -0.17525813 0.7398965
0000a0 ea 88 c3 3d 6a 0b 0c 3f db 49 77 bf ed a9 64 bf
       0.09547599 0.54704916 -0.9659707 -0.89321786
0000b0 72 91 a3 be 55 3a 9b 3e e5 0a 21 3f 0b 86 35 bf
       -0.31946903 0.3031794 0.6290725 -0.7090766
0000c0 20 8e 07 be 20 b7 46 be f3 0f 68 3f 8d ff 14 bd
       -0.1323781 -0.19405794 0.90649337 -0.036376525
0000d0 24 bd 18 3f 65 37 e6 be 9d 17 cc be e9 ee e0 3d
       0.59663606 -0.44964138 -0.39861766 0.109830685
0000e0 b7 c4 4c 3e 22 68 f7 bc b0 ac df 3e 08 5f 86 3e
       0.19996916 -0.030201022 0.43686438 0.26244378
0000f0 71 d6 01 be d0 a0 83 3c 85 bf 56 3f ab cc 20 be
       -0.12679459 0.016067892 0.83885986 -0.15703075
000100 58 08 91 bf c7 c0 84 be 7e a8 8e 3d c8 18 88 3e
       -1.1330671 -0.25928327 0.06965731 0.26581407
000110 30 46 6f 3e bf b7 97 3e c8 6f aa be 12 29 f3 be
       0.23366618 0.29632375 -0.33288407 -0.47492272
000120 97 a5 3c be 63 6f 25 bf 11 e9 39 be da 33 ad be
       -0.18422543 -0.6462309 -0.18155314 -0.33828622
000130 b4 44 2e be e9 fc 46 bf 57 70 1a 3e 53 48 98 3f
       -0.17018396 -0.7772966 0.15081917 1.1897072
000140 13 c3 2f bf f0 98 84 3e e2 01 cc bd 92 8a 5b be
       -0.68657035 0.25897932 -0.099612966 -0.21439579
000150 2b 67 8a 3e 9d 93 1a bf db e6 b6 3d f4 85 5f 3c
       0.27031836 -0.6038149 0.08930751 0.013642777
000160 66 79 cd 3e 31 c4 84 3d 37 29 0f 3e 82 21 43 be
       0.40131682 0.06482733 0.13980566 -0.19055751
000170 72 67 01 3f 78 f4 3f be e0 21 81 3e 67 e0 0d bf
       0.5054847 -0.18745601 0.25221157 -0.55420536
000180 6b ad ad be 6f 3b 62 be 51 04 08 bf cd 87 4d 3f
       -0.3392137 -0.22092985 -0.53131586 0.8028534
000190 87 8f 14 3e 80 88 71 3e f4 91 05 3c 1f 89 f9 3e
       0.14507876 0.23587227 0.008152474 0.48737428
0001a0 94 27 c9 3d 21 65 c5 3e c0 68 44 bf 0b 00 2a bf
       0.09822002 0.38553718 -0.76722336 -0.66406316
0001b0 65 90 53 bd 50 25 8d 3e a7 ef 5c 3f 69 90 09 bf
       -0.051651377 0.2756753 0.8630318 -0.5373598
0001c0 46 11 08 be c5 4f 28 be d9 3c 15 3f 76 9c 29 3d
       -0.1328784 -0.1643668 0.5829597 0.04140898
0001d0 95 9e 32 3e 6f 4c df be 49 e6 b2 be 6b 23 77 be
       0.17443307 -0.43613002 -0.3494132 -0.24134605
0001e0 f3 23 2a 3e 28 ec 8f 3e 20 0b ad 3c 93 e7 a3 bd
       0.16615276 0.2810986 0.021123469 -0.08003154
0001f0 d1 37 51 3e c6 3b 73 be 6f 2f 00 3f 8b 2f a8 3e
       0.20431449 -0.2375327 0.5007238 0.32848772
000200 51 27 10 3e 9c b0 35 3d b1 8e c1 be f5 1d 2c 3f
       0.14077498 0.04435788 -0.37804177 0.6723321
000210 57 1c 12 bf 14 81 05 bf a9 25 01 3f c9 6a 7f bd
       -0.57074493 -0.5215008 0.5044809 -0.062357698
000220 85 74 ed 3e 3a 3e 88 3e c8 65 17 bf 09 98 32 3d
       0.4637796 0.26609975 -0.5913968 0.043602023
000230 4b 53 d5 be de 33 d6 3e b2 68 9b 3e 7e 49 c2 be
       -0.4166511 0.41836447 0.30353314 -0.37946695
000240 8c 8d 99 bc d1 36 d2 3e 00 d1 8b 3c 48 d6 ba 3d
       -0.018744253 0.41057447 0.017067432 0.09122902
000250 6c dc 39 3e a9 a3 59 3c dd bf 92 be 52 58 83 be
       0.1815049 0.0132836485 -0.28662005 -0.2565332
000260 66 15 be 3e 9d 4f 71 be f3 8b 50 3e e7 51 15 be
       0.371257 -0.23565526 0.20365886 -0.14582025
000270 11 eb 9a be 9a e7 ca be 8d c2 9c be 7b e4 41 3d
       -0.30257466 -0.39629823 -0.3061718 0.047337037
000280 17 4b 23 3f 3b f7 44 3e 37 36 65 3e 77 4c 90 3e
       0.63786453 0.19234936 0.22383963 0.28183338
000290 ba f1 81 be 96 c5 1f bf 8b d4 b1 3e 57 fa 60 bb
       -0.25379735 -0.6241087 0.3473247 -0.0034328902
0002a0 7f 66 0f 3e cf bb d3 be d9 97 81 be 5d 36 d9 bd
       0.14003943 -0.41354224 -0.25311163 -0.10606072
0002b0 e6 13 23 be 4b 0a 97 be 72 33 57 be ae 01 9a 3e
       -0.1592556 -0.2950004 -0.21015719 0.30079406
0002c0 49 e1 eb bd 86 e3 3c be 44 06 c9 be 97 45 a9 3e
       -0.11517579 -0.18446168 -0.39262593 0.33060905
0002d0 3e 64 07 3e ee 77 bf be c9 df b8 be 3f 8f be be
       0.13221833 -0.37396187 -0.36108235 -0.37218663
0002e0 04 6f 2b 3e 37 61 d5 bd dd 3d 57 3c 99 11 d2 be
       0.16741568 -0.10418933 0.013137308 -0.4102905
0002f0 29 40 93 be cf c2 d3 be ae b5 9e 3e aa 42 df bd
       -0.28759888 -0.41359565 0.30997986 -0.10901387
000300 ae 74 92 3d 11 0f 12 bf 76 58 90 3e 26 51 d6 be
       0.07151161 -0.5705424 0.2819249 -0.41858786
000310 21 59 9f 3e 18 0a 9e bd 8e f5 92 be 33 84 7a 3e
       0.31122687 -0.07716769 -0.28702968 0.24464492
000320 18 ea b4 be 8e 85 8a 3e 93 27 53 3e 5e 69 30 3f
       -0.3533485 0.2705502 0.20620565 0.6891078
000330 2c 3a a8 3e 5e 45 49 3e b6 3f 4c bf e8 62 39 be
       0.32856882 0.19655368 -0.79784715 -0.18104136
000340 55 15 a7 be b9 d5 8a be 4d 78 b8 bd 27 5c be 3e
       -0.32633463 -0.27116182 -0.090073206 0.37179682
000350 71 0b 42 be a7 25 19 3e cf d4 21 3f 03 41 80 be
       -0.18949677 0.1495577 0.63215345 -0.250496
000360 6d 26 d4 be 69 87 00 bd 42 c7 13 bf 56 dc 80 bf
       -0.41435567 -0.031379137 -0.5772592 -1.0067241
000370 83 99 d8 3e a7 f9 b7 3d 9f e4 3b 3f 24 a6 1a 3e
       0.4230462 0.08983164 0.73395723 0.1510244
000380 7d 26 87 be e9 8d 8d be f7 f0 b1 3e dd 8c 69 be
       -0.26396552 -0.2764733 0.34754154 -0.22807641
000390 ee 1d 28 3f cb 77 89 3e 23 aa b1 be 08 fb ca 3a
       0.6567067 0.26849207 -0.34700117 0.001548619
0003a0 bc 7c 63 be 03 b0 1e be 40 8c dd 3e 80 34 8f 3d
       -0.22215551 -0.1549683 0.43271065 0.069924355
0003b0 02 5b 90 3f 6f f6 8e 3e c9 90 8c be d1 17 5d 3e
       1.1277773 0.2792239 -0.27454212 0.21591116
0003c0 a1 f5 db be f5 75 a2 3f cb e5 b6 be 3c 9a 71 be
       -0.42960837 1.2692248 -0.35722193 -0.23593992
0003d0 2d 54 99 be 25 c4 2d 3f 9d 5d 31 3f 1e 45 df 3e
       -0.29947034 0.6787742 0.6928347 0.4360742
0003e0 75 8e 27 bf 76 41 d2 be c9 9a aa bd 0c 34 a7 3e
       -0.6545175 -0.41065568 -0.08330304 0.32656896
0003f0 6e 80 75 3f 10 3e 19 bf 4e 50 2b bf e3 77 ef 3e
       0.95899093 -0.59860325 -0.6691941 0.46771154

fc2.bias f4 [32]
000000 a9 d5 3d be 23 3d a7 bb d0 fa 3c 3e 6b 43 4b 3e
       -0.18538536 -0.0051037236 0.18455052 0.19849937
000010 86 5f 2b 3d 0f 39 34 be 20 4e 18 bc 33 82 16 bc
       0.041839145 -0.17599891 -0.00929597 -0.009186315
000020 fa 19 80 3e 7c 99 d2 bc a0 8c 5b bc 96 17 49 bd
       0.2501982 -0.025707953 -0.013400227 -0.04909476
000030 d2 43 b9 3d 42 0a de bd f6 df ff 3d c9 01 ec 3d
       0.09046139 -0.108418 0.12493889 0.11523778
000040 42 1d 47 be 97 56 94 ba b0 a2 56 3d a9 44 d9 be
       -0.19444755 -0.001131731 0.052401245 -0.42435196
000050 4d 88 67 3e 17 cd 1b 3d 2a ab 16 be 27 1c c6 3c
       0.22610588 0.038037386 -0.14713731 0.024183346
000060 14 86 41 3e d6 5f 95 3d 88 13 4e bd 21 44 e9 bb
       0.18898803 0.0729367 -0.050311595 -0.0071187173
000070 48 a5 ee bd 8d 25 c2 3d 0f 42 cf 3d 41 b8 28 be
       -0.11652619 0.094798185 0.101200216 -0.16476537

fc3.weight f4 [2, 32]
000000 a7 ed 91 bf 32 4e a7 bf d9 8c b9 3d ae f7 4b 3f
       -1.1400651 -1.3070738 0.09060068 0.79674804
000010 09 ea 0d 3f 4b 0f 6b 3f af 66 1f bf ea 27 7c 3f
       0.55435234 0.9182021 -0.6226606 0.98498404
000020 ad dd 8b bf 84 20 ff be 57 db 95 bf a2 11 3d 3f
       -1.0927025 -0.49829495 -1.1707562 0.7385503
000030 f2 59 5c 3f 28 4f 06 3e af 06 c8 bf 0d 6f de 3c
       0.86074746 0.13116133 -1.562704 0.027152563
000040 f0 5f 49 3d 66 44 b8 be 46 df 78 bf 49 f2 48 3f
       0.04916376 -0.35989684 -0.9721569 0.784947
000050 c0 aa 81 bf 72 0a d9 be 19 36 48 3f 87 b6 80 3f
       -1.0130234 -0.42390782 0.78207546 1.0055703
000060 0a 13 82 bf 11 5d 3f 3f d9 b7 85 3f 81 e9 0c 40
       -1.016206 0.74751383 1.0446731 2.201752
000070 1b 04 24 bf 1f 83 0e 3f 78 54 91 bf d6 29 a7 bf
       -0.64068764 0.55668825 -1.1353903 -1.3059642
000080 df 74 d2 3f 71 36 8c bf b9 e2 8f bf 4c 06 8e 3f
       1.6441916 -1.0954114 -1.1241065 1.1095672
000090 87 08 dd 3f 06 93 13 3f 9c 54 3e be 7b 4d a1 3d
       1.7268227 0.57646215 -0.18586963 0.07876106
0000a0 d3 35 39 bf 47 3d e6 bf 37 ac 3d be 5f 80 34 3f
       -0.72347754 -1.798745 -0.18522726 0.7050838
0000b0 b8 7a c9 3f 72 08 18 3e 15 0b 54 bf 89 57 ae 3f
       1.5740576 0.14846972 -0.8282941 1.3620464
0000c0 ef 1d a8 3f 09 02 73 bf 28 8b b5 bf 62 00 66 3f
       1.3134135 -0.9492498 -1.4183092 0.89844334
0000d0 a9 e6 d6 bd 8c 43 b5 3f c2 51 7d bf 8f ee 72 3e
       -0.10493214 1.4161239 -0.9895288 0.23723815
0000e0 35 f7 07 bf b0 43 0c 3f db 12 8e 3b 36 6c b1 be
       -0.53111583 0.5479078 0.004335744 -0.3465287
0000f0 cd cf 57 bd 9c 01 20 bd ac 3d f9 bd 8b 2e d8 3f
       -0.05268841 -0.039064035 -0.12169966 1.6889204

fc3.bias f4 [2]
000000 e0 f3 81 bf 66 cd 8e bf
       -1.015255 -1.1156433
