reinforcement_learning/models_cartpole/dqn_agent_3.pt (torch_old, 653905 bytes, 6 tensors)

fc1.weight f4 [400, 4]
000000 bf 40 97 be 58 05 77 3d db 89 b0 be ff 7b 3b bd
       -0.29541585 0.06030783 -0.34480175 -0.04577255
000010 d3 98 ea bd 24 2b 84 bc c8 01 85 bf dd 69 74 3e
       -0.1145493 -0.016133852 -1.0391169 0.23868509
000020 ca 2e 11 3f 94 33 9a 3d 0b 3d 13 3f 43 ae 13 3e
       0.5671202 0.07529369 0.5751502 0.14421944
000030 87 85 09 3f 5e 34 47 3e 01 dc 43 bc 90 ef f2 bd
       0.5371937 0.1945357 -0.0119543085 -0.11862099
000040 d5 27 a0 3d 53 50 61 be 63 5b cd 3e e6 ec 74 3e
       0.07820097 -0.22003298 0.40108785 0.23918495
000050 a6 60 97 be 62 27 76 bd c5 eb 74 bf 84 cd 63 be
       -0.29565924 -0.060096152 -0.95672256 -0.22246367
000060 8d 09 4f 3e 91 d9 10 bf 3c b7 14 bf b3 62 2c be
       0.20218487 -0.5658198 -0.58092093 -0.16834526
000070 da c5 8e 3e 6d ba ee bd 1b 1f c2 be 3d e2 29 be
       0.27885324 -0.11656652 -0.37914357 -0.1659021
000080 53 3d d3 3e 9c 14 61 3e 1c 99 56 bf 52 f6 a3 ba
       0.41257724 0.21980518 -0.83827376 -0.0012509322
000090 d3 fb 14 3e e8 03 1b bd 89 e3 44 3f 15 20 57 3e
       0.14549188 -0.037845522 0.7690969 0.21008332
0000a0 e0 2a 92 be 88 4e 60 3e f4 78 2e bf 20 4f 61 bd
       -0.28548336 0.21904957 -0.6815331 -0.0550071
0000b0 53 7e 5f 3e 09 f2 f6 be e6 a8 4d 3e 70 4b 88 3c
       0.21825533 -0.48231533 0.20083961 0.016637534
0000c0 43 7d d4 be ac 1d dd 3e 13 8a a9 3d 97 65 0d bd
       -0.41501817 0.431867 0.08278289 -0.03452071
0000d0 69 3f 89 b9 55 1b d4 bd 71 76 88 3e c9 37 9b 3e
       -0.0002617792 -0.10356776 0.26652864 0.30315998
0000e0 da a7 63 be 8f 8c 82 be 62 1b 7b bf 43 22 fa be
       -0.22231999 -0.25497863 -0.9808866 -0.48854265
0000f0 0f 60 04 bf e1 3d c6 3e d5 09 73 bf 1c bc 84 be
       -0.51709074 0.38719085 -0.9493688 -0.25924766
000100 91 34 ff bd 90 0d 85 3c 67 06 51 3f c4 a9 33 3e
       -0.12461198 0.016241819 0.81650394 0.17545229
000110 f2 c4 4a bd e3 b2 bd be d0 6c a5 3e 10 32 d5 bd
       -0.049504228 -0.37050542 0.3230958 -0.10409939
000120 48 89 95 be fb 5c 45 be 62 07 13 3f 8d 50 fc 3d
       -0.292063 -0.1927375 0.5743314 0.12320051
000130 68 21 ec be 72 b6 3a be 17 d7 3e bd 5e 24 34 3d
       -0.46119237 -0.1823366 -0.046591844 0.043979995
000140 ff 87 f8 bc 98 87 d6 3d a3 d7 9f 3f a9 b9 a8 3e
       -0.030338285 0.10475081 1.2487682 0.32954147
000150 9a 34 55 be 94 ef 5c be 8e ab 86 3f 23 c3 3e 3e
       -0.20820847 -0.21575767 1.0521104 0.18629126
000160 18 34 7d be 62 77 5a 3c 40 1a 30 3e 8b 77 fe 3d
       -0.24726903 0.013334127 0.17197514 0.12425145
000170 e0 36 97 be 47 e6 5a 3e 9c bb 37 3f ca ec d9 3e
       -0.29534054 0.21376906 0.71770644 0.42563468
000180 71 70 06 3f 44 73 a8 bd ac ff 84 3e b3 76 90 3e
       0.5251532 -0.0822511 0.25976312 0.2821556
000190 26 77 b3 3e 70 5e 3d be 97 8e a7 bd 11 a5 65 bd
       0.3505184 -0.18493056 -0.08181494 -0.056065623
0001a0 d6 d3 3d be 89 51 ee be f8 7a eb 3e 0c 77 7e 3d
       -0.1853784 -0.4654658 0.45992255 0.06212525
0001b0 4f aa b5 be 14 a3 5c 3e cc ca 51 3f ed e5 0f be
       -0.35481498 0.21546584 0.8195007 -0.14052553
0001c0 fd 35 64 be 4f 70 54 3e 90 fa f2 3d 02 57 2b be
       -0.2228622 0.20745967 0.11864197 -0.1673241
0001d0 58 eb a4 3e 1b 41 cf 3e 66 1a 4f bf 51 43 23 be
       0.32210803 0.4047936 -0.80899656 -0.15943648
0001e0 a0 47 97 3e b4 5c a4 bd f6 67 75 bf c8 3b 99 be
       0.29546833 -0.08025494 -0.95861757 -0.29928422
0001f0 09 61 a5 3e 60 1c f0 3e a9 cd 21 3f b6 d3 d2 3e
       0.32300594 0.46896648 0.6320444 0.41177148
000200 f2 b9 85 3e 5e 61 fb be db e0 34 be 37 f4 24 3f
       0.26118428 -0.49097723 -0.176639 0.6443514
000210 6c 9f 33 3f 4b 72 da 3c a8 3b ae 3e d7 b8 6f 3e
       0.70165133 0.026665827 0.3402989 0.23410355
000220 d2 3b 1d be 54 f8 aa 3e cf 5d 50 3f 62 e9 ab be
       -0.15354851 0.33392584 0.8139314 -0.33576494
000230 e5 be 8c 3d d9 bc da 3e 05 49 4e bf c4 e8 85 3e
       0.06872348 0.42722204 -0.8058017 0.2615415
000240 48 e9 3a 3e 48 04 f3 3e f5 f7 3f 3f 4c 4c 20 3e
       0.18253052 0.47464204 0.7498773 0.15654105
000250 64 f2 66 3e a5 90 7e bd 6f f1 40 3f a8 0e e1 3e
       0.22553402 -0.062149663 0.753684 0.43956494
000260 60 56 94 bc 6a 77 c5 3b 14 6b bd 3f b5 44 45 3e
       -0.018107593 0.006026198 1.4798303 0.19264491
000270 55 27 c3 be 22 55 de 3d 39 a7 c9 be 62 be e4 3c
       -0.38115945 0.108560815 -0.39385393 0.027922813
000280 34 bc 60 bd 83 9b ee be ee ad e3 3e 26 4e cb 3e
       -0.054866984 -0.4660302 0.44468635 0.3970806
000290 a5 de c5 be 1a e6 d6 3e a8 fd d6 bd 9b 04 ed be
       -0.38646427 0.4197243 -0.104976 -0.46292576
0002a0 83 61 83 be 93 8f 8d 3e 84 9f 31 3e 8b 7e 4d 3c
       -0.25660333 0.276486 0.17346007 0.012542377
0002b0 e8 92 ae 3e a2 96 13 be 9b a9 1f bf 8a 17 cf be
       0.34096456 -0.1441293 -0.6236817 -0.40447646
0002c0 4b f7 f1 3e 31 ed e7 3e 6e 33 af 3e f5 2c e5 be
       0.47258982 0.4529815 0.34218925 -0.44760862
0002d0 31 8e 52 bd 0b bc 61 bd 01 e7 6e 3f 86 b2 1e 3e
       -0.051405136 -0.055110972 0.93321234 0.15497789
0002e0 71 30 44 be 30 88 8d 3c c6 14 08 3e cd 19 ab be
       -0.19159104 0.017276853 0.13289174 -0.33418122
0002f0 2d c1 1f bc 67 75 c1 be 5d 6d 3f 3e fe f1 26 3d
       -0.009750647 -0.37784883 0.18694063 0.040758125
000300 b8 db b7 bd 4c cb b6 3e 29 8f 95 3e 2e 1e 26 3e
       -0.08977455 0.35701978 0.29210785 0.1622245
000310 c1 ed 06 3f 4d d4 41 be 7c 54 2f bf a8 0f 7b be
       0.52706534 -0.18928643 -0.6848829 -0.24517691
000320 56 ae 71 3d 8b ae 0e 3e 15 f0 2c bf 48 d5 38 3e
       0.05900415 0.1393377 -0.67553836 0.1805011
000330 54 d4 fc 3e 70 bd 95 bd c1 c9 82 be 40 f5 be be
       0.49380744 -0.07311523 -0.2554455 -0.37296486
000340 b9 33 23 3e 38 5c 46 3e f4 8c 1b bf 16 0e 7e be
       0.159377 0.19371116 -0.6076195 -0.24810061
000350 88 b3 85 3d fa ee bb be 11 72 0e bf b1 fa e0 bd
       0.065283835 -0.36705762 -0.556428 -0.109853156
000360 7c d2 0c 3f ec 66 d9 3c 50 09 4f bf af 3c f2 3d
       0.55008674 0.026538335 -0.80873585 0.11827981
000370 c9 4c d8 be 76 ed 9f 3e 71 74 6d bf b0 01 88 be
       -0.42246082 0.31235856 -0.927558 -0.26563787
000380 e8 88 82 be c4 af c4 bc 5d 0a 4d 3e 95 ac 17 3e
       -0.25495076 -0.024009593 0.20023485 0.14811929
000390 6d cf 13 3f b4 d9 53 be 57 42 08 bf a7 c3 b5 be
       0.5773838 -0.20688516 -0.53226227 -0.35500833
0003a0 51 4b b0 3b d2 cd 2f 3e 87 9a c2 be f0 9c c4 be
       0.005380072 0.17168358 -0.3800852 -0.38400984
0003b0 f1 3e 8d 3d b4 b9 dc 3d 83 3e fb be 78 93 60 be
       0.06896771 0.107776076 -0.4907113 -0.21931255
0003c0 71 17 cc 3e 51 1d f3 3e 19 9d 33 bf 5f 43 35 3d
       0.39861634 0.47483304 -0.70161587 0.044253703
0003d0 38 81 20 be b0 40 52 bd d0 f1 2e 3f 6a 19 24 3e
       -0.15674293 -0.051331222 0.68337727 0.1602532
0003e0 df 7a 04 3d 08 5d dd 3e 85 41 ed 3e 49 ca 4a 3e
       0.03234374 0.4323504 0.4633905 0.19803728
0003f0 38 55 21 3f 24 71 52 be 86 27 9f be 17 2f 73 be
       0.6302066 -0.20550972 -0.3108484 -0.23748432

fc1.bias f4 [400]
000000 1e 4c 83 3e d5 88 b0 3d 80 be c8 bd 78 fd 80 be
       0.2564401 0.08619849 -0.0980196 -0.2519338
000010 a8 4d 89 3e 7f 1b 04 3f 8d a2 10 be 6a 13 e1 bd
       0.2681706 0.51604456 -0.14124508 -0.10990031
000020 ec 36 e0 bd e5 54 0c 3f 10 d1 0e 3f b4 20 1e 3d
       -0.109479755 0.5481704 0.55787754 0.038605407
000030 ea 93 1f 3f 96 b1 36 3e 46 cc 7b be 14 0e 01 3e
       0.62335074 0.17841181 -0.24589643 0.12603027
000040 a6 54 04 3e 55 b9 3a 3b 44 cd f7 3e c8 12 69 be
       0.12922916 0.0028491814 0.48398793 -0.2276107
000050 56 a2 bb be c8 0a 88 be e9 b7 0e bf 9c 24 0d 3f
       -0.3664729 -0.26570725 -0.55749375 0.55133986
000060 11 c3 37 3e 37 3b 0e bf 10 07 0d be e5 91 38 3e
       0.17945506 -0.55559105 -0.13772225 0.18024404
000070 9a d8 bd be d3 e7 13 3f 8a 59 f1 3e 7d ef ae 3e
       -0.37079316 0.5777561 0.47138625 0.3416709
000080 fa a9 0e 3d 9d d9 8c 3e 5a 6b ba 3e 08 c0 66 3e
       0.03483007 0.27509776 0.36410028 0.22534192
000090 8e 31 2a 3c 56 ad 18 bf ce b1 ad be de 97 08 3e
       0.010387791 -0.5963949 -0.33924717 0.13339183
0000a0 d4 2c 98 3e 85 8e aa be 2a 90 0b 3f 5c 11 8e be
       0.297217 -0.3331186 0.5451685 -0.2774762
0000b0 71 29 f7 be 14 58 cf 3e 7b e9 d1 be a3 c0 8a bb
       -0.48273805 0.40496886 -0.40998444 -0.00423439
0000c0 7c 44 83 3e 32 e0 32 be f9 b0 0d 3e b7 4c f0 be
       0.25638187 -0.17468336 0.13837041 -0.4693353
0000d0 39 f8 cf be 5d ce a0 be 75 41 19 3c 78 f2 07 bd
       -0.40619066 -0.31407443 0.009353985 -0.03319022
0000e0 33 77 fe be e4 92 84 bd bd a5 37 be 29 83 e6 be
       -0.49700317 -0.0647333 -0.17934318 -0.45021942
0000f0 3b 7a 4c 3e 5b 5d 19 bf e0 28 14 3e f1 2d 95 be
       0.19968502 -0.59908074 0.14468718 -0.29136613
000100 c7 b9 3c be 78 46 20 be b8 12 b0 be d4 a1 b0 3e
       -0.18430243 -0.15651882 -0.3438928 0.34498465
000110 bd 1b 86 be 5f 1d 47 3e 49 a1 d1 3e 8a 58 07 bf
       -0.26193038 0.19444798 0.40943363 -0.52869475
000120 d0 fd ca 3e 40 27 29 bc 19 b5 32 be f2 55 bd bd
       0.3964677 -0.010324299 -0.17451896 -0.092449084
000130 71 0d bb be ce ec 83 bc 91 9c 3e 3e 07 f1 84 be
       -0.36533692 -0.016104128 0.18614413 -0.2596514
000140 5f 9a 3b 3c 52 72 5b 3e a7 9c 6f bd 66 22 1b 3e
       0.011450379 0.21430328 -0.058499005 0.1514984
000150 a7 74 14 3f 4f 87 c7 ba 13 56 29 3c 42 9d c4 3e
       0.579905 -0.001522282 0.010335463 0.38401228
000160 34 8d 93 3e 4b 21 e2 be 70 1d 1b 3e 83 12 be be
       0.28818667 -0.44166026 0.15147948 -0.37123498
000170 4d 0c d0 3e d2 36 03 bf d8 b2 b4 3d 7e c0 b4 3e
       0.40634385 -0.51255524 0.08823174 0.3530311
000180 74 92 9e be 1a d2 11 3f 06 e6 8b be 14 4f dd bd
       -0.3097111 0.56961215 -0.2732393 -0.108060986
000190 cc 35 d6 be 71 ad 02 3f e7 17 8e be d8 1d 04 3f
       -0.4183792 0.510459 -0.2775261 0.5160804
0001a0 0b b7 e8 be 65 28 30 be 8e aa bc be 51 7c 14 3e
       -0.4545215 -0.1720291 -0.36848873 0.14500548
0001b0 8a 75 22 3f cc b6 f1 be 03 36 5f be 1b ed 16 3f
       0.634606 -0.47209775 -0.21797948 0.58955544
0001c0 44 47 94 be db aa 9b 3e 5d 2a 06 3f aa 20 d1 be
       -0.2896062 0.3040379 0.5240839 -0.40845233
0001d0 ca a5 e9 3e 34 a9 9a 3e 17 9b 0d 3f 78 2b 30 bf
       0.456343 0.30207217 0.55314773 -0.6881633
0001e0 81 d4 f7 3e 31 44 c9 3e a3 5f b3 be c2 d5 f8 3e
       0.48404315 0.39309838 -0.35033903 0.48600584
0001f0 0e f1 dd be 9a 32 e8 be d9 c2 ea 3e 8b d2 52 3e
       -0.43347973 -0.45351106 0.45851782 0.20588128
000200 d5 9b d7 be 1c 03 b0 3d d4 6c 1b 3f 19 7b 84 bd
       -0.42111078 0.08594343 0.60712934 -0.064687915
000210 45 2c 5a 3e 95 4b 93 3e 0c ef ec bd 9c bb 11 3f
       0.2130595 0.28768602 -0.11569032 0.56926894
000220 19 73 19 3f 5a b9 97 3d d8 65 ff be 2d c1 1a 3f
       0.5994125 0.074084 -0.49882388 0.6045101
000230 ae 31 79 be e8 99 b7 3e ea ba 8f 3e b1 e8 8c 3e
       -0.24335358 0.3585961 0.28072292 0.2752128
000240 50 18 b0 3e 46 73 3c bf 66 d4 1f 3f bd 90 f9 3e
       0.3439355 -0.73613393 0.6243347 0.4874324
000250 7c 09 fd 3e cb e0 60 3e eb 5a d4 bd 1a 56 9a be
       0.49421299 0.21960752 -0.10368904 -0.30143815
000260 d9 a0 a8 3e 9c 30 8a 3e af 45 0b 3f fe 39 98 3e
       0.32935217 0.2699021 0.54403204 0.29731745
000270 22 8f f7 be bd b6 cc 3e f5 99 d4 be a6 d2 f5 3e
       -0.4835139 0.39983168 -0.4152371 0.48012275
000280 b4 16 25 bc e9 5b c0 bd e9 5f 3c be 09 4a 59 be
       -0.010076214 -0.093925305 -0.18395962 -0.21219648
000290 26 a4 bb be 51 35 ff 3e 9f 05 c4 be c8 e3 0d 3f
       -0.36648673 0.49845365 -0.3828554 0.5542569
0002a0 01 7a 1a 3e df 16 b7 3e 79 d7 e8 3e 15 ae 18 bf
       0.15085603 0.35759637 0.45476893 -0.5964063
0002b0 57 e5 b7 3e f2 42 9b 3d ad 4e b3 be 65 9e 05 3d
       0.3591716 0.07581128 -0.35020962 0.03262176
0002c0 c1 14 96 be f7 26 dc 3e 1b 11 b5 3d 80 80 06 bf
       -0.2931271 0.42998478 0.08841153 -0.52539825
0002d0 2d c8 f4 3e 80 60 33 be 7d 5d a0 be 85 f0 ff be
       0.47808972 -0.1751728 -0.31321326 -0.4998819
0002e0 b2 02 bc 3e db b4 9b 3a 10 8a 8d 3e 08 e8 aa 3e
       0.36720806 0.0011879461 0.27644396 0.3338015
0002f0 c0 32 e5 be ca b8 94 be 6f 59 f6 be 7a 35 d9 bb
       -0.44765282 -0.29047233 -0.48115107 -0.0066286894
000300 83 1b 05 bf ea 3b cf 3e 4f 12 b2 be 18 76 b3 3e
       -0.51995105 0.40475398 -0.34779593 0.35051036
000310 e6 8a 93 3e a4 d6 a4 be f5 22 62 3e 50 e5 db bc
       0.2881691 -0.32195008 0.22083648 -0.026842743
000320 d5 6a fa be 12 3d ca 3e 96 54 02 bf c2 24 0a 3f
       -0.4890963 0.39499718 -0.5091032 0.5396234
000330 6e aa ff 3d 14 9a b8 be 87 81 c2 3e 95 18 23 3e
       0.12483679 -0.36055052 0.37989447 0.15927346
000340 0d 33 79 be 9f c5 aa 3e cc 29 94 be e7 5a bd 3e
       -0.2433588 0.33353898 -0.28938138 0.36983415
000350 ba 0a e9 3e d4 7c 24 bf e1 fa 94 be 87 0e ff bd
       0.45515996 -0.6425297 -0.29097655 -0.12453943
000360 d6 89 24 3e 65 ca c5 3e 8c fa 52 3e fd 4a c2 bc
       0.16068205 0.38630977 0.20603389 -0.023717398
000370 ec 88 22 be cd 9a 00 3f 71 48 53 bb fa f1 f9 3e
       -0.15872544 0.5023621 -0.0032239223 0.48817426
000380 39 68 c0 3e 8b ff 75 be dd 28 08 bf 5f da bf 3b
       0.37579516 -0.24023263 -0.5318735 0.0058548893
000390 66 09 fc 3e e0 3b 0b 3f 45 f2 20 bd f1 35 58 3e
       0.4922592 0.54388237 -0.039293546 0.21114327
0003a0 26 ec 03 3f c2 c1 c4 be 3a 7c 67 bd ef 05 1c 3e
       0.5153221 -0.38429075 -0.056514956 0.15236638
0003b0 03 d2 ec 3e 42 18 f2 3e 41 e7 0d 3e 20 41 96 be
       0.46253976 0.47284132 0.13857748 -0.2934656
0003c0 2c 93 d6 be 99 0e 9a be 98 7e 12 be ba 3b 91 3e
       -0.41909158 -0.30089262 -0.14306104 0.2836588
0003d0 5f 0b 06 3f 05 09 ac be e4 fb 62 bd 15 4d 14 bf
       0.523611 -0.3360063 -0.055416003 -0.5793012
0003e0 6d ba f5 3e ad 24 e9 3c 98 d6 1a 3f 25 30 9d 3e
       0.47993794 0.028459871 0.60483694 0.30700794
0003f0 7e ed b0 3e 71 60 93 bc 68 bd 01 3f 76 6d a5 be
       0.34556192 -0.017990323 0.50679636 -0.32310075

fc2.weight f4 [400, 400]
000000 b3 9b f6 be da e2 2a be cd ff 2d 3e 1f 82 2e 3e
       -0.48165664 -0.166881 0.16992112 0.17041825
000010 0e b9 1b 3b b0 8c 21 bf 70 62 6a bd b5 78 15 3e
       0.0023761424 -0.631053 -0.057222784 0.14596827
000020 dc ff 6b 3e 4a 0a 6a 3d ca 3c aa be 57 c1 a4 3c
       0.23046821 0.05713872 -0.33249503 0.020111723
000030 2a 1f 8c bd 10 1c b6 3c 8c d2 40 3c 9e ae a0 be
       -0.068418816 0.022230178 0.011768948 -0.31383222
000040 93 2c 1c 3e 93 1c 49 3d ba 26 b4 3d 94 5d 8d 3c
       0.15251379 0.049099516 0.08796449 0.017256536
000050 a5 20 5f 3e d9 7a da 3d 88 2b 51 be e1 09 eb 3c
       0.21789797 0.106679626 -0.20426762 0.028691234
000060 95 ba 86 3d f7 f4 0a 3e 97 28 90 3d 08 d5 00 3e
       0.065785564 0.13570009 0.07038992 0.12581265
000070 b3 3c 0d bd 68 d7 8e bb a6 dd 18 3d 8a 6f e4 3d
       -0.034481715 -0.0043591745 0.037320755 0.11154087
000080 54 93 9e bd e0 5c 36 3d 31 c2 c4 bb 84 f0 a4 3b
       -0.07742944 0.044522166 -0.0060045947 0.0050335545
000090 ff 3c 47 3e 11 ec e7 3c f4 d2 92 3e 02 80 c1 be
       0.19456862 0.028310807 0.2867657 -0.37792975
0000a0 8d ff 1a 3d f0 fb 1f be 6c d2 c6 bc 27 c4 b8 3e
       0.03784137 -0.1562345 -0.024270259 0.36087152
0000b0 7c 25 62 3e 5c c8 ec 3d 35 12 a9 bd 99 84 bf bc
       0.22084612 0.11561653 -0.08255426 -0.023378657
0000c0 7a 15 21 3d bb 23 1f 3e 1e e7 1c bc b7 75 7c 3e
       0.039327122 0.15540974 -0.009576587 0.2465428
0000d0 0a 2e 8c 3e 94 2f 5f 3c 7f fb b0 ba a2 b3 69 be
       0.27378875 0.013622183 -0.0013502686 -0.2282243
0000e0 72 e0 09 be 6a 8e ce 3b 4e fb 13 be af 5e 36 3d
       -0.13464525 0.006303598 -0.14451334 0.04452389
0000f0 9a 72 17 3e 26 8a 9c bd a9 3d 3e 3e 49 3c 46 3e
       0.14789811 -0.07643537 0.18578209 0.19358934
000100 b9 39 54 3e 91 bc 17 be d7 59 9f 3e 3f 1a 74 bb
       0.20725144 -0.14818026 0.3112323 -0.003724709
000110 10 c2 d0 bd 83 a4 cb bd 78 40 3a 3d 1f 57 11 be
       -0.101932645 -0.099434875 0.04547164 -0.1419339
000120 e8 e6 74 3b 61 54 f4 bd 1a 66 65 3e 85 87 a5 bd
       0.0037369076 -0.119301565 0.2240223 -0.08082489
000130 9d 0d 9d 3e 99 12 5b 3e fb 19 ee 39 f6 50 dd 3c
       0.3067445 0.21393813 0.00045414254 0.027016144
000140 92 7d 16 bf e6 c8 36 bc 24 1d f8 bc b1 29 71 bd
       -0.58785355 -0.011156296 -0.030287333 -0.05887765
000150 a5 ec 3d 3d f0 22 42 be 94 68 29 3d d0 fa a2 3d
       0.04636826 -0.1895864 0.0413595 0.07957995
000160 5d c4 86 3d a8 33 2c 3e 4b ce 04 3e e7 3a 52 be
       0.06580422 0.1681658 0.1296932 -0.20530282
000170 03 5e ab be 13 2b 34 bd 9e 06 e4 3d 3f fe 11 3d
       -0.33470163 -0.04398639 0.11134075 0.03564286
000180 84 d7 b6 bd 04 70 91 bd 01 45 5d 3d 82 bc ee 3e
       -0.08927825 -0.071014434 0.054020885 0.46628195
000190 17 a2 54 bd 4c 31 11 3d e5 66 41 3e 6a a3 c6 bc
       -0.051912393 0.035447404 0.18886907 -0.024247844
0001a0 38 49 22 be 45 f3 c1 3d f3 67 d0 3e ef 6e 9d 3d
       -0.15848243 0.09470228 0.40704307 0.076871745
0001b0 f0 da 99 be 56 d9 fa 3d 1d 98 67 3e 48 32 8d bd
       -0.3004985 0.12248485 0.2261662 -0.06894356
0001c0 b7 ea b1 3e 93 f7 9c be 15 a2 86 bd 0a 0b 85 bd
       0.34749386 -0.30657634 -0.065738834 -0.06496246
0001d0 66 15 d6 bb b6 66 e9 bd ed 0f 9c 3c 09 1c 24 3f
       -0.0065333126 -0.11396544 0.019050563 0.6410528
0001e0 1d c5 a1 bd e5 ea af bd 92 78 b5 3d c5 80 be bd
       -0.078989245 -0.085897245 0.088608876 -0.093019046
0001f0 77 23 65 bd 3c 27 64 bc 07 35 04 3e 89 db 2e be
       -0.055942025 -0.01392537 0.12910853 -0.17075934
000200 7b c1 da bd f6 96 cc 3d ad 65 fd 3c b2 53 61 3e
       -0.10681435 0.09989731 0.030932272 0.22004583
000210 5a 9c 78 3d d8 d4 06 3e 3d cb 36 3e 52 10 15 be
       0.060695983 0.13167131 0.17850967 -0.14557007
000220 85 29 84 3c c9 c8 28 3e 54 b7 1d be 99 88 05 be
       0.01613308 0.16482843 -0.15401965 -0.13040389
000230 8f f4 0d 3f 7b 2c 00 bf 83 36 73 bf 00 d9 51 3e
       0.5545129 -0.5006787 -0.95005053 0.20492935
000240 57 b7 67 3d 7f ac 47 3e 00 cc 24 3d 03 6e 95 3d
       0.05657133 0.19499396 0.040233612 0.07296374
000250 9b 15 48 bc 8c c5 ab 3e 90 66 08 3e 47 7b 3c bc
       -0.012212182 0.33549154 0.13320374 -0.011504001
000260 0a c8 13 3e 43 9e de 3d cd e2 01 bb eb 77 94 3d
       0.14431778 0.1087003 -0.0019819022 0.07249435
000270 1a a8 fc bb 15 8b 75 3d 7a 4f d0 bd b2 de 04 3d
       -0.007710469 0.059947092 -0.10171409 0.03243894
000280 70 0f 97 3d 5e 82 bc 3d 9c cb 30 be 3b 96 1e 3e
       0.07375991 0.09204553 -0.17265171 0.15486996
000290 4a 04 33 3e f7 6d f7 bc 0b b6 f7 bd be fc d8 3d
       0.17482105 -0.030203803 -0.12095269 0.10595082
0002a0 6d 72 33 3d f8 c2 8a 3b cc 78 1d 3d 65 a7 c5 3e
       0.043810297 0.004234668 0.03844528 0.38604274
0002b0 6a 9b 95 3d bc 50 0f 3c 86 62 17 3e e6 ae 47 3e
       0.073050335 0.008747276 0.14783677 0.19500312
0002c0 8a e4 54 3e d5 2e f7 3c 57 a2 a8 3c 99 07 db 3d
       0.20790306 0.030173698 0.020585222 0.106948085
0002d0 81 11 76 3d 96 31 44 3e 0f e3 24 be 82 61 01 3e
       0.060075287 0.1915954 -0.16102241 0.12634853
0002e0 e9 26 bb 3c bc 65 ac be ac 4e 19 3e 65 13 16 be
       0.022845702 -0.33671367 0.14971417 -0.14655836
0002f0 b0 2f 2e 3d 28 7a 3f 3e 27 34 a4 bd 2a 08 24 3e
       0.042525947 0.18698943 -0.0801776 0.1601874
000300 4f d4 a9 3e 5d 46 a3 3d 36 f7 9a 3d a9 f4 a7 3c
       0.3316979 0.07972405 0.07566683 0.020502405
000310 2e 1f 25 be f1 bb 2f 3e 3d b4 f7 3c ea 8c 37 3e
       -0.16125175 0.17161538 0.030237311 0.17924848
000320 67 f2 d2 be 90 e0 e8 bd 53 72 00 be fe 9d 5a bc
       -0.41200563 -0.11370957 -0.12543611 -0.013343332
000330 6d 36 06 3e bb 1e 88 3e f3 5f 5a 3d a5 01 af 3d
       0.131067 0.26585945 0.05331416 0.085452355
000340 68 b8 32 3e 6e 56 36 3e 01 ac 23 3e 4e 0d a5 3c
       0.17453158 0.17806408 0.15983583 0.020147946
000350 40 05 f5 3d 5f 68 94 3e 0f 5d b7 3b 82 a7 5e bd
       0.11963892 0.2898588 0.0055958102 -0.054358967
000360 6c 22 79 3e 96 c0 1d be f8 1d f4 3d 25 59 2a 3e
       0.24329537 -0.15405497 0.119197786 0.16635568
000370 71 ed 18 3e 92 f6 b6 be b5 39 a6 bc cf ee a2 3d
       0.14934327 -0.35734993 -0.020291189 0.079557054
000380 b7 65 e3 3c 00 9e 2c 3c 4b a8 07 3e 8e 55 14 3e
       0.027758462 0.010535717 0.13247792 0.14485762
000390 88 85 ef 3c e1 42 cb 3c c8 6a c3 3a ca 65 92 3c
       0.029238477 0.024812164 0.0014909143 0.017870802
0003a0 fd d5 a2 bd 61 d8 82 bd 74 d0 ce bd f5 5e ae bd
       -0.07950971 -0.06388927 -0.10098353 -0.08514205
0003b0 82 7b 68 bd 29 45 31 3d 66 f0 0e 3e be eb 5e bd
       -0.05675841 0.043278847 0.13958892 -0.05442404
0003c0 e0 91 15 3d ff 28 be bd 87 84 87 3e 86 d5 e0 3d
       0.03651607 -0.09285163 0.26468298 0.10978226
0003d0 ef 6e b0 3d 6f 36 0d 3e 57 d9 06 3e 2c 74 3e 3c
       0.08614909 0.13790296 0.13168846 0.011624377
0003e0 6e 01 a2 bc 65 f9 1d bd 33 2a 2c bd c2 8d 87 3d
       -0.019776072 -0.03856792 -0.04203243 0.06618835
0003f0 38 9d 1f bc ce 5a 20 be f6 ea 18 be 82 74 3e bd
       -0.009742074 -0.15659639 -0.1493338 -0.04649783

fc2.bias f4 [400]
000000 51 57 43 bc 79 5e 06 3c 1b 7b a2 3b 1a a0 fb 3d
       -0.011922673 0.008201235 0.004958523 0.12286396
000010 77 0d 4e 3d 1f 29 24 bd fb ef b0 bd 56 12 c3 3d
       0.05030581 -0.04007828 -0.08639523 0.09524982
000020 31 52 8c 3d c7 d5 d0 3a 01 88 a8 b9 c9 72 a4 3d
       0.06851614 0.0015932851 -0.00032144788 0.08029706
000030 a7 b0 47 3d bf a1 50 bd 17 f2 a2 bc e1 0d 34 bd
       0.048752453 -0.050935503 -0.019890828 -0.04395855
000040 12 15 ea 3d 6a 25 13 bb 46 77 74 3d 37 01 03 bc
       0.114298 -0.002245272 0.05968406 -0.007995895
000050 0f 17 80 bc 88 8e e5 bc b9 56 9c 3d 4a d3 28 bd
       -0.015635995 -0.028022066 0.076337285 -0.041217126
000060 99 dc f3 3d 5c 5a 15 3e 8a eb 37 3d a5 72 58 bc
       0.1190731 0.1458525 0.044902362 -0.013210927
000070 3d 30 16 3c b0 7b a9 bc 7f ae 09 bd c0 55 9a 3d
       0.009166774 -0.020688862 -0.033613678 0.07535887
000080 fe 78 4a 3d 25 55 65 3c b1 f7 e1 3c d8 bc 29 3d
       0.049431793 0.013997351 0.027583929 0.04143986
000090 e1 05 99 bc b6 34 50 3d 65 61 21 3d af 4c 47 3c
       -0.018679561 0.05083152 0.039399523 0.012164279
0000a0 44 1b 9e bd 50 eb b3 bc e7 9f 1a 3d af 3d e2 3d
       -0.07720044 -0.021962792 0.03775015 0.110469215
0000b0 bd c8 19 bd 92 cc 06 bd 0f b7 1b bd 29 b6 0c 3e
       -0.037544955 -0.032909937 -0.038016375 0.13741364
0000c0 69 06 dd 3d db 3e d4 3d 1c d0 8a 3c 7a db 23 3d
       0.10792238 0.10363551 0.016944937 0.04000423
0000d0 d9 2a fa 3d 81 c3 1b bd 3d 43 ab 3c a9 4a d6 bb
       0.12215204 -0.038028244 0.020906085 -0.006539662
0000e0 0f 9c 7b 3d 57 00 2b 3c 0a 7e 60 3d 89 e7 2f 3d
       0.061428126 0.010437093 0.0548077 0.04294542
0000f0 fc 46 a6 3d 32 6b c5 3d 71 92 d7 3d ea 2f 3b bc
       0.08119008 0.096395865 0.10525978 -0.011424998
000100 d7 a0 35 3d 9b aa cc 3d 62 98 e2 bd 26 4e c9 bd
       0.044342842 0.09993478 -0.11064221 -0.09829359
000110 52 05 46 bd 8a b6 8c 3d 88 b9 71 3d a3 6a 81 3d
       -0.048344918 0.06870754 0.059014827 0.063191675
000120 16 8b 17 3c 11 94 8d b9 91 3b 00 3e b9 8c 09 3d
       0.009249469 -0.00027003934 0.12522723 0.03358147
000130 b4 b6 c2 3c 87 2b c0 3d cf 3b 55 bd 32 36 13 bd
       0.02376876 0.09383302 -0.05205899 -0.035940357
000140 f1 a9 e6 3d 72 c3 aa 3d 7f 45 ec 3b f2 a9 02 bd
       0.112628825 0.083380595 0.007210433 -0.031900354
000150 04 2b 13 3e 49 82 2d 3c 39 22 32 bc 57 69 85 3d
       0.14371878 0.010590144 -0.010872417 0.065142326
000160 39 db c3 3d ed 62 8a 3d 5e e5 40 bd 1e 22 03 3e
       0.09563298 0.0675715 -0.04709374 0.12805983
000170 34 67 87 3d be e1 f5 bc f9 e4 63 bd e7 4b 61 3d
       0.06611481 -0.030014869 -0.055638287 0.055004027
000180 48 2f f7 3d 4a d5 d7 3d 32 d1 93 bd db 5c 07 3e
       0.12069565 0.105387285 -0.07217635 0.13219015
000190 d5 c5 f4 bc 99 59 42 3d e7 87 07 bd a1 7d ce 3d
       -0.02987949 0.04744873 -0.03308859 0.100825556
0001a0 ee 8c 09 3e 25 e0 a7 3d f6 38 db 3c 18 6d a1 3b
       0.13432667 0.08197049 0.02676056 0.004926335
0001b0 1f cd d3 3d e9 85 8a 3d c2 0e 42 bd 79 83 98 3d
       0.10341858 0.067638226 -0.047377355 0.074469514
0001c0 34 57 01 3c 7a 67 a4 bb 77 ed ae 3d e5 7e ba 3d
       0.007894326 -0.005017218 0.085413866 0.091062345
0001d0 12 27 c3 3d d2 0e a9 3d 24 4f eb 3d 4f dd 16 bd
       0.095289364 0.0825478 0.11489704 -0.03683215
0001e0 ba 03 39 bd 9e 83 2c 3c 19 4f 18 3d 1e cb 44 bd
       -0.04516957 0.010529427 0.03718481 -0.04804527
0001f0 8f fa 75 3d 88 e7 96 3d ec a0 26 bc 50 bf b0 3d
       0.060053404 0.0736838 -0.010170203 0.0863024
000200 d7 e4 d7 3d 88 0d 21 3c 3c b0 c2 ba db cf 24 3d
       0.105416946 0.009829886 -0.0014853547 0.04023729
000210 6f ea f5 3d 2f 13 cf 3d e0 60 24 bc e2 25 63 3d
       0.12007605 0.10111081 -0.010032862 0.05545605
000220 d9 b7 c0 bc b7 43 90 bc 9f b6 c0 3d 80 de ce bc
       -0.023525165 -0.017610414 0.09409832 -0.02525258
000230 c6 62 18 3c cf 55 13 3e ae 16 cd 3d 20 bc 9b 3d
       0.009300893 0.14388202 0.100140914 0.07604241
000240 00 1a 4c bd ce fc 03 bd ca b4 ca 3d e2 2e ad bd
       -0.049829483 -0.032223515 0.09897764 -0.08456208
000250 cb e0 3b bd 15 0a 06 3e 42 b5 6d 3b 94 a6 4d 3d
       -0.045868676 0.13089783 0.0036271368 0.05020769
000260 2a 8a cf 3d 3e 2e 55 bc 57 83 19 3d c3 05 0a 3e
       0.101337746 -0.013011513 0.03747877 0.1347876
000270 b6 52 d4 3d 9b c9 b3 bc 2f e0 b2 3c f9 cd a1 3d
       0.10367338 -0.021946719 0.021835415 0.07900614
000280 a9 a7 8b 3d 03 d4 78 3d 1b 4b ce 3d 42 b5 3e bd
       0.06819088 0.060749065 0.10072919 -0.04655958
000290 17 a4 44 3d 12 d4 78 3d ae 5c 24 3e f7 0f 1e 3d
       0.04800805 0.06074912 0.1605098 0.038589444
0002a0 f5 fe bd bc 35 04 e7 3d b9 be dd bc dd 3f 36 3d
       -0.023192862 0.11280099 -0.027068483 0.0444945
0002b0 78 cb 82 3d fb 48 8b 3d 87 84 c6 3d a4 a4 ac 3c
       0.06386465 0.06801029 0.09693246 0.0210746
0002c0 0d 7e 0d bd bf 06 d0 3c dc ae 6e 3d ac 07 27 bc
       -0.03454404 0.025393842 0.058272228 -0.0101947
0002d0 10 9a ed 3d bf 37 e7 3d 42 78 01 3d 67 0a 5e 3d
       0.11601651 0.112899296 0.031608827 0.05420914
0002e0 87 09 43 3d 42 f9 02 3e 9e 4c 9b bc bf 78 06 3e
       0.047616508 0.12790397 -0.018957432 0.13131998
0002f0 d7 98 00 bd 57 5f d8 3d a1 76 29 bd b8 bd ad 3d
       -0.03139576 0.1056506 -0.0413729 0.084834516
000300 e3 e3 84 3c 82 97 49 3d 97 7a 92 bc d4 b1 d7 3d
       0.016221946 0.049216755 -0.017880721 0.10531965
000310 71 6d f2 3d cd 5c a7 3d 04 7f 0d 3d b9 48 80 bc
       0.118372805 0.08171997 0.03454496 -0.015659677
000320 66 70 2f bc 19 9d b6 3d 31 31 99 bd 02 69 5a bd
       -0.01070795 0.08916683 -0.07480086 -0.0533228
000330 81 63 f5 3c ad 96 ce 3b d4 8f d1 3d 35 0d 1c 3d
       0.029954674 0.006304583 0.10232511 0.038098533
000340 d1 7e 94 bd c8 f4 0c 3e c6 7b ff bc 1a 3b 07 3e
       -0.07250751 0.13765252 -0.03118695 0.13206139
000350 3a 79 27 3b 1c 26 58 bc 14 53 69 3d db cd 3f bc
       0.0025554434 -0.01319268 0.056963995 -0.011706795
000360 46 c8 fa 3d 84 c4 a4 3d 7c 79 dc bd 56 d0 a9 bd
       0.122452304 0.08045295 -0.10765359 -0.0829169
000370 32 b5 45 3c df ce bd bc e3 9b 13 bc ff 2f c2 3d
       0.012067126 -0.023169933 -0.009009334 0.09481811
000380 03 47 ff bc e5 8e e9 3b a2 be f7 3d be 4e 2f 3d
       -0.03116179 0.00712763 0.12096907 0.042799704
000390 22 97 5a 3d 46 c3 1f 3d 65 78 3f bd 56 4f a3 3d
       0.053366788 0.039004587 -0.046745677 0.079741165
0003a0 1f 56 63 3d 15 e4 b3 3d 4d c7 bd 3d a1 77 fd 3d
       0.055502053 0.087837376 0.09266529 0.12376333
0003b0 60 d9 90 3d 84 ea 79 3b 9e 20 c4 3d 8f 26 97 bd
       0.07072711 0.0038134167 0.09576534 -0.07380401
0003c0 b6 9a 6d ba 2d f9 be 3d 2c 39 49 3c 66 5b 90 3d
       -0.0009063886 0.0932487 0.012281697 0.07048683
0003d0 d9 6d cb bc 39 36 b2 3d b9 52 9b bd 2e e2 eb 3d
       -0.024832653 0.087017484 -0.075841375 0.1151775
0003e0 86 43 f7 3c 1a ea 03 3e 6e 35 96 bc 78 89 d8 3d
       0.030183565 0.12882271 -0.018336024 0.10573095
0003f0 d3 87 de 3b 6c 02 39 bd 2e a7 32 3d 07 bf 7e bd
       0.006791094 -0.045168325 0.043616466 -0.062193897

fc3.weight f4 [2, 400]
000000 2a 5e c8 be d3 e9 5a 39 2f 7a 1c bd 93 e6 af 3d
       -0.3913434 0.00020877206 -0.03820246 0.085889004
000010 1f 40 f1 3d 77 e8 39 3a 2d 85 c2 3e ad f4 f3 3d
       0.11779808 0.000709183 0.3799223 0.119119026
000020 3e d0 f5 3d 9e ed b6 3d 94 ca 5b bc b7 3f 9f bd
       0.1200261 0.08932041 -0.013414998 -0.077758245
000030 be cc e8 3d 45 41 07 bd a0 fe 35 3d d0 5a be bc
       0.113671765 -0.03302123 0.044432282 -0.023236662
000040 5f 71 22 3e 4f b6 00 be d1 84 e4 3d f6 c2 92 3d
       0.1586356 -0.12569545 0.11158145 0.07166092
000050 f5 7c 47 be 40 11 bc bf 6a 8d 03 3e 7f a3 b3 3d
       -0.19481261 -1.4692764 0.12846914 0.08771419
000060 ed 15 11 3e d3 00 a4 3d 47 05 c9 3d 57 03 19 3d
       0.1416852 0.0800797 0.0981546 0.0373567
000070 50 87 0d 3d 60 e7 cb ba 27 12 b4 3c 7b e9 80 bb
       0.034552872 -0.0015556626 0.021981312 -0.003934083
000080 af d7 8e 3d bc 97 4e bf 02 66 07 bd ee b3 af 3a
       0.06974732 -0.8070028 -0.033056267 0.0013405064
000090 e3 1f bc 3d 7f 1d c4 3d 9b 3d 24 3e ed 0f 88 3d
       0.091857694 0.095759384 0.16039126 0.066436626
0000a0 80 af 14 3e 1c b5 29 bb d4 3d 82 bc 67 d2 ce 3d
       0.14520073 -0.0025895303 -0.015898623 0.10098725
0000b0 36 6f 00 bd 95 dc f8 3d 2a 49 d7 bc 82 36 d7 3d
       -0.03135606 0.12151448 -0.026280005 0.105084434
0000c0 05 84 68 bf 0e f5 fc 3d 7a 90 7a bc 8a 6f ee 3d
       -0.90826446 0.12351428 -0.015293235 0.11642368
0000d0 a0 c3 06 3e 39 5f 37 bd c6 b3 1b bd e7 df 42 3e
       0.13160563 -0.044768546 -0.038013242 0.19030724
0000e0 4d 5c 00 3e c3 1f bb bf 36 81 0b be f0 58 41 be
       0.1253521 -1.4619068 -0.13623509 -0.18881583
0000f0 22 b7 d0 3d 36 4d 60 bd e1 a6 05 3e 1d 90 5e bc
       0.1019118 -0.054761134 0.1305194 -0.013584164
000100 72 8a a7 bd 6b 4a bc 3d 82 44 18 3f ed eb 0a bf
       -0.08180703 0.091938816 0.59479535 -0.54266244
000110 30 c7 0f bd 33 17 ad be 0a 83 28 3d 8a 7e 15 3e
       -0.03510207 -0.33806762 0.041140594 0.14599052
000120 bf 9d d3 bc 9f 53 b0 bc d5 be ee 3d ad 48 07 bf
       -0.025832055 -0.021524249 0.11657492 -0.5284527
000130 d0 6a a6 be e4 f1 96 bc 2e dc e9 be a1 c8 b1 bf
       -0.32503366 -0.01842589 -0.45675796 -1.3889352
000140 2f 42 fa 3d c7 20 a6 3d 2d 25 85 bd e4 da df 3b
       0.12219655 0.081117205 -0.06501231 0.0068315137
000150 93 7e ae 3d a1 af 95 bc ff 56 28 3d ef 5c 01 3e
       0.08520236 -0.018272223 0.04109859 0.12633108
000160 86 df ef 3d 79 f6 f1 3d 15 fb c4 3b 7a 3f f0 3d
       0.117125556 0.11814589 0.0060113766 0.11730857
000170 5d b8 e0 3d f1 8f 07 bc 13 ec 43 bf d6 4c ed 3d
       0.109726645 -0.008274064 -0.76532096 0.11586921
000180 c6 ef d9 3d 70 5b cd 3d 45 5f 7c bf b5 ed 97 3d
       0.10641436 0.10027206 -0.9858287 0.07418386
000190 23 bb 49 3d 68 21 fb 3a 34 6a 0d 3e 96 72 d3 3d
       0.049250733 0.0019159736 0.13810045 0.1032459
0001a0 fb b4 d2 3d 5c de fa 3d f0 61 a2 bc 23 06 82 3d
       0.102884255 0.12249443 -0.01982209 0.06348827
0001b0 59 fb b0 be a4 b6 b3 3d ad ec 29 bc ee af 12 3e
       -0.34566763 0.0877507 -0.010371369 0.14324924
0001c0 48 02 46 bc 29 41 c0 bc a2 36 e7 3d 8f 37 06 bf
       -0.012085505 -0.02346857 0.11289717 -0.52428526
0001d0 6c 0d 2c be 3d af d1 3d 94 19 b5 3d 4d 8f 22 bd
       -0.16801995 0.10238502 0.08842769 -0.039687444
0001e0 bb 95 0f bd 0b 62 8a bc 8c b0 73 bc fa f5 09 bc
       -0.035054903 -0.016892454 -0.014873635 -0.008420462
0001f0 48 d1 f7 3d 35 47 ed 3d e9 c2 01 bd 8b 70 00 bf
       0.12100464 0.11585847 -0.03168002 -0.50171727
000200 68 df b5 3d 52 74 14 3d bc 41 3a 3d 5b 8d c3 3a
       0.08880502 0.036243744 0.045472845 0.0014919447
000210 57 75 ce 3d 49 77 fd 3d 44 dc 24 bd 9a 5e c7 3d
       0.100809745 0.123762675 -0.040249124 0.09734841
000220 c2 e5 85 3d aa b1 8b bc 67 94 ce 3d ab 0b 43 bb
       0.065379634 -0.01705249 0.10086899 -0.0029761593
000230 50 84 0a bd eb f5 c1 3d ad ea 08 3e 9e df 6f bf
       -0.03381759 0.09470733 0.13370772 -0.9370059
000240 af 63 1c be 79 24 2a bb 1a 0a aa 3d 28 ee bd be
       -0.15272401 -0.002596168 0.08302708 -0.3709576
000250 79 a8 1d 3d c9 6e d5 3d 74 90 7d 3c 20 18 3d 3d
       0.038490746 0.10421521 0.015476335 0.046165586
000260 6d 74 24 3e 8c f9 a6 be dc ab 4f be df 9b c0 3d
       0.16060038 -0.32612264 -0.20280403 0.0940473
000270 a5 3d e7 3d 77 67 e8 3b d1 5d 63 bd e2 e6 f1 3d
       0.11291055 0.007092412 -0.055509392 0.118116155
000280 33 70 90 3d c6 2c a7 3d 17 00 e4 3d 77 24 39 3d
       0.0705265 0.08162837 0.1113283 0.04520079
000290 3f a3 d8 3d e8 20 27 3e 8a 5f a9 3d cc 57 5a bc
       0.10578012 0.16321146 0.08270176 -0.0133265965
0002a0 c8 fb 75 bc 8c 21 e8 3d 9b dc 6d 3c 95 02 37 3d
       -0.015013643 0.113345236 0.0145179285 0.044680197
0002b0 dc ed b2 3d 77 fe ef 3d 81 10 f4 3d 82 44 27 be
       0.08736774 0.11718457 0.1191721 -0.16334727
0002c0 38 22 38 3c 7a 73 08 3d d8 19 c3 3d b0 f4 63 bf
       0.011238627 0.033313252 0.09526414 -0.8904524
0002d0 90 25 99 3d 0f 14 c3 3d 01 e2 a6 be d8 30 f8 3d
       0.074778676 0.0952531 -0.32594302 0.12118691
0002e0 d3 42 d0 3d 1b ba de 3d 8f f8 d8 bd 8a ba 00 3e
       0.10168996 0.108753406 -0.10594284 0.12571159
0002f0 ae 40 ba 3d 7c 41 a1 3d 0c 61 0b 3c 87 f1 ef 3d
       0.09094368 0.07873818 0.0085070245 0.117159896
000300 10 e9 f8 bc 4f 44 41 be 9d 5c 9a bd 31 91 c4 3d
       -0.03038457 -0.18873714 -0.07537196 0.095980056
000310 11 55 ba 3d c4 94 b9 be a9 1e 5a 3c 1c 51 e1 3c
       0.090982564 -0.36246312 0.013312974 0.027504496
000320 fd e0 af 3c c9 1f e2 3d 61 87 18 bf e8 ec 6c bf
       0.021469587 0.11041219 -0.5958157 -0.9254899
000330 2b 42 17 be 04 66 36 bd 4d 13 8f be e6 6e 92 3e
       -0.14771335 -0.044530883 -0.27944413 0.28600234
000340 3c 9a e7 3d b3 e9 29 3e 67 ae 15 bd 29 df ec 3d
       0.11308715 0.16593055 -0.036543276 0.11566002
000350 94 c4 2a bd 55 db 37 3c 10 a0 2e 3e e2 b8 84 bd
       -0.041691378 0.011221726 0.17053246 -0.06480576
000360 92 6b e0 3d a5 2e f9 3d 3c f4 aa bf 7e 43 03 bf
       0.109580174 0.121671 -1.3355784 -0.5127486
000370 a2 0a c7 3c a9 b1 a5 bb e2 a3 5a 3c 4a c8 f7 3d
       0.024297062 -0.005056579 0.013344737 0.12098749
000380 32 20 5f be df 84 41 bf b3 a2 d1 3d 1e 53 09 3d
       -0.21789625 -0.7559337 0.102361105 0.033526532
000390 a4 55 ff 3d 9a 87 5a 3e b0 06 4b bb 89 39 e5 3d
       0.124675065 0.2134079 -0.0030979328 0.111926146
0003a0 3c df a9 be 16 d3 bd 3d c5 cc da 3d 53 5c fd 3d
       -0.33178127 0.09268777 0.10683588 0.12371125
0003b0 38 f2 00 3e 27 30 38 bf bf c1 b6 3d 84 ce 4c bc
       0.12592399 -0.71948475 0.08923673 -0.012500409
0003c0 ee f1 92 3d cc ac 2e 3e 16 24 ae 3e c7 41 07 3e
       0.07175051 0.17058104 0.34011906 0.13208686
0003d0 25 da 87 bd 0a bb c1 3d b5 86 d4 be c9 2a f9 3d
       -0.06633405 0.09459503 -0.41509023 0.12166364
0003e0 06 1c b7 3c fa 41 87 bd d7 70 8a 3d d3 f0 c4 3d
       0.02235223 -0.06604381 0.06759804 0.09616246
0003f0 48 be 88 bf e1 e4 29 bd d8 67 0f 3e f9 fa 5e bf
       -1.0683069 -0.04147804 0.14004457 -0.87101704

fc3.bias f4 [2]
000000 20 e0 83 3d 9f e4 b8 3d
       0.06439233 0.09027981
