reinforcement_learning/models_cartpole/dqn_agent.pt (torch_old, 653905 bytes, 6 tensors)

fc1.weight f4 [400, 4]
00000000: fbdf ddbd 0a24 01bd 6e83 92bf 1fef 813e
00000010: 241d 6c3e 7f64 cd3d 89ee 37bf 0ade 43bd
00000020: e401 ca3e 6472 7f3c 1ddb c9bd bfde c93e
00000030: 7d35 4f3c c1e7 4d3d ea17 973e b9f4 afbe
00000040: b6cf ddbe 5dbb 233e 4b2a 81bf 7a8f 18be
00000050: 8216 6d3e 5299 463e dda0 58bf 448d 8cbb
00000060: 12a6 63be 8464 203c e9c0 8e3f 0102 cf3d
00000070: 98eb 20be 9849 49be 3d57 21be dde7 883e
00000080: aa63 de3d a9b4 3ebe 9813 b23e afe0 943e
00000090: d1c2 97be b1af 35bd e7b1 783e c39d 4e3e
000000a0: 80b8 66be a13e 1c3c 6053 43bf 05b6 6bbe
000000b0: 1863 cbbe 24a0 36be 4bbf 6e3e 9949 a1be
000000c0: 2756 4ebe d043 5ebd 3061 313f cef9 943e
000000d0: dd99 d13e 655b dbbe 3916 84bf 0e03 0bbe
000000e0: df9a 313e 0c54 98be f8a3 813e 616c b6bd
000000f0: 4cb9 6a3e e5d4 9a3e 7030 52bf d1a6 e1bd
00000100: 6662 05bf e61f f13e 02b1 4a3e 4c15 1a3e
00000110: c4b8 8ebe 368a 753e 5c17 a6bf 8e7e be3d
00000120: ecb5 2bbe 24c3 debe e10b 003e a3b8 c63e
00000130: 2508 f53e 8da2 30be c2f1 f2be eba1 76be
00000140: 9eff 0f3e 342f 65bd f460 42bd 8f01 41be
00000150: 59f4 89bd cd73 c73b 8863 f93f 0178 7a3e
00000160: 9e36 56be 9289 553e 815e d4bd a971 773c
00000170: 41a7 c5bd 67f4 b4be 91f9 56bf 7fa9 9fbe
00000180: 7a80 623e 7afc 7c3d 1c64 84bf 194d c13d
00000190: 496f 82be 6a6d ac3e 86f8 103f ff3b 7bbe
000001a0: 7b3a 34bd 7dd6 7fbe b890 6c3f 9716 e6bd
000001b0: d7e5 923d 3e47 f33e c6c4 6fbe e247 593e
000001c0: 3403 eebc d211 17bc 764d f7bf c518 63be
000001d0: cfdb 803d 6d47 993b 5f64 943e e4a7 893e
000001e0: e586 893e a458 2e3e 3620 c93e 77e3 0e3e
000001f0: 9193 0a3e a9c9 c73e 9b47 443f e874 663e
00000200: 0b87 5f3e 2f8e bd3e a7d4 6f3d c718 863e
00000210: 5634 f93d a8fe bcbe e744 523d d056 18bd
00000220: 2723 363e fbb5 cbbe aafb e9be 232a 8e3e
00000230: 4477 90bc 0a45 bdbe f20b 61bf 9491 95bd
00000240: a7cb 613e 10a3 ae3e e090 84be a1fd cdbc
00000250: 3635 413e 3213 a23e e95e 963f f4c2 f53e
00000260: 8137 b73d 659c abbe c6d4 bf3c 0467 8ebe
00000270: 2ff3 99bd 53e2 b9be 6074 923f c2b2 063e
00000280: e71a 18be 0387 94be 0236 9cbd f78b f13d
00000290: 828f b83e a594 043e 6294 223f a8e0 673e
000002a0: b057 113e 4536 203e d0ac 64be 7a7d 193d
000002b0: f3a5 09bf ce63 afbe 605e 613e 6ea6 e2be
000002c0: 7b45 0fbe 1084 bb3e dbf1 3d3f e93f d23e
000002d0: 7dcb a0be 9f1a 9ebe 390b 30bf 9a63 0ebe
000002e0: 23b3 843d 60cd b9be 393e 093f 56b2 c5be
000002f0: 5bf3 223e 0ec5 8a3e c0b1 66bc 691f 6dbe
00000300: a89d 953e 3a85 c03e 8810 393f ddb6 b93e
00000310: d96c 33be 2356 13be 22a3 a43d 80f6 903e
00000320: 3b8a 52be 909f 963e d7bb 153f f8b6 61be
00000330: 645a f93e b0ca 8d3c 143e 88be 8053 debe
00000340: 31ce 00be a04a c8bd 4be3 39be 9a14 b7bd
00000350: 8b63 073e 980d da3e cb1d f3be 36e5 f73b
00000360: 5eac a93e 32b6 8a3e c355 8d3e 59a7 ecbd
00000370: a4a7 6b3e 387c 86be dca3 193e da80 f33d
00000380: b31d 4f3e 800e b4be ecc1 d2be b185 803e
00000390: a288 09bf 51f4 f13e 3aca e93e 8650 d2bd
000003a0: 743d 6dbe 4e25 33be f16f 543f 3c2e 823d
000003b0: 750e 2a3c 1676 3f3b 6c17 c4bf 7cde 72be
000003c0: 60b4 2dbf 40a7 473e 96d8 8cbe fc80 363e
000003d0: c5e5 4c3e d684 543e d4be 97be 5a38 013d
000003e0: c3b2 19be 2a70 f03e 1e0e 5b3e 497f 97bd
000003f0: f2a5 f03e 8c19 10be 0eaa 2cbf 9254 7cbe
-0.108337365 -0.03152851 -1.1446359 0.25377747 0.23057991 0.10028934 -0.7184835 -0.047819175
0.39454567 0.015591238 -0.09856246 0.39427754 0.01264703 0.050269846 0.29510432 -0.34366396
-0.43322533 0.15989442 -1.0091032 -0.14898482 0.23153117 0.19394425 -0.8462046 -0.004289301
-0.2223132 0.00978959 1.1152622 0.10107804 -0.15714872 -0.1965698 -0.15755935 0.26739398
0.10858853 -0.18623604 0.34780574 0.2907767 -0.2964082 -0.044357006 0.24286614 0.20177369
-0.22531319 0.009536416 -0.76299095 -0.23018654 -0.3972404 -0.17834526 0.2331516 -0.31501463
-0.20150052 -0.05426389 0.6928892 0.29096836 0.409377 -0.42843166 -1.0319282 -0.13575384
0.17344235 -0.29751623 0.2532041 -0.089073904 0.22922248 0.3024055 -0.8210516 -0.11018146
-0.5210327 0.4709465 0.19794086 0.15047187 -0.2787534 0.23978505 -1.2975879 0.09301482
-0.16768616 -0.43508255 0.12504531 0.38812742 0.47857776 -0.17249508 -0.47450072 -0.24085204
0.14062354 -0.05595322 -0.047455743 -0.18848251 -0.06736059 0.0060868026 1.94835 0.2445984
-0.20919272 0.2085326 -0.10369588 0.015102782 -0.09651042 -0.35342714 -0.8397456 -0.31184003
0.22119322 0.061764218 -1.0343051 0.09438533 -0.2547553 0.33677226 0.56629217 -0.24534605
-0.044001084 -0.24984165 0.92408323 -0.112347774 0.07172745 0.4751529 -0.23414907 0.21218827
-0.029054262 -0.009220557 -1.9320514 -0.22177418 0.06291925 0.004677704 0.28982827 0.26885903
0.2686073 0.17026001 0.39282387 0.13953958 0.13532855 0.39021042 0.7667176 0.22505534
0.21828859 0.3702254 0.05855241 0.2619078 0.121681854 -0.36913037 0.05133524 -0.037192166
0.17786847 -0.39787278 -0.45699817 0.27766523 -0.017634995 -0.36966735 -0.8790885 -0.073031574
0.22050343 0.34108782 -0.2589178 -0.025145354 0.18867955 0.3165527 1.1747714 0.480003
0.089461334 -0.33517757 0.023416888 -0.2781297 -0.07517087 -0.36305484 1.1441765 0.13154128
-0.14854012 -0.29009256 -0.07627489 0.11794274 0.36046988 0.12947328 0.63507664 0.22644293
0.14193606 0.15645702 -0.22331548 0.03747318 -0.53768843 -0.34255832 0.22008657 -0.442676
-0.13991348 0.36624193 0.7419717 0.41064385 -0.3140525 -0.30879685 -0.68767124 -0.13905182
0.0647948 -0.362895 0.5361057 -0.38612622 0.15913145 0.27103466 -0.014080465 -0.23156513
0.29221845 0.37601644 0.7229085 0.36272326 -0.17521991 -0.14388327 0.080389276 0.28313065
-0.20560543 0.29418612 0.58489746 -0.22042453 0.48701775 0.017308563 -0.26609862 -0.4342308
-0.12578656 -0.097798586 -0.18153112 -0.08939476 0.13221566 0.42588496 -0.47483668 0.007565166
0.33139318 0.2709213 0.27604493 -0.115553565 0.23013169 -0.26266646 0.15003914 0.11889811
0.20226173 -0.35167313 -0.41163576 0.25101998 -0.5372411 0.4725671 0.456621 -0.10269265
-0.23167974 -0.174947 0.8298331 0.06356475 0.010379423 0.0029214672 -1.5319648 -0.23717684
-0.67853355 0.19497395 -0.27508992 0.17822641 0.20009525 0.20753798 -0.29637778 0.03154788
-0.15009598 0.46960574 0.21392104 -0.073973246 0.47001606 -0.14072245 -0.6744698 -0.24641636

fc1.bias f4 [400]
00000000: a3a2 453e 618e e4be 29aa f6be c11b 20be
00000010: 105b 0d3f c888 b03e b893 4bbe febb f6be
00000020: 5624 7f3e c28c 5cbe 0c4d a7be 51a2 c3be
00000030: 7985 15bf 78d2 b5bc 05f7 103f f78a a93e
00000040: 54f1 79be 6bc3 07be 9818 10bf cef1 54be
00000050: 85c6 113d 4024 a5be e24f 0b3f 7c34 ccbe
00000060: 62eb 4f3e 8637 953e 18e1 9c3d 5d41 93be
00000070: 24dc bdbe 7f81 113f 01fa 1bbf a860 e53e
00000080: 0fe6 10bf c82a 1fbe 26e3 c73d 3da7 f83c
00000090: bd9f f13e 6833 aabe f7c2 89bd a406 b2bd
000000a0: 94b7 923d 865a 00be b3d3 a83d 4957 863d
000000b0: d292 913e e3dc 773e da6a dc3e 968d ee3e
000000c0: a17b 08be 44d7 0cbf 5458 103f b284 f8be
000000d0: 2634 b7bd f6f3 81be 35a0 93be 12f3 e1be
000000e0: dc3a 28be 2889 f23d 05d9 e23d e7f1 bebe
000000f0: c13a 0bbf 810c b2be b615 7ebe b367 a6be
00000100: 1ec0 303e f008 83bd 0655 a9be 7c19 7a3e
00000110: 2a4c 8dbe 3a1c 933d 6c03 083f a62e e13e
00000120: 0fa6 d3be 0f9d ec3e 40a4 4c3d 6308 6f3e
00000130: 4d0c 0e3f 2f88 843e 394e 123f dd66 673e
00000140: d212 363e 9c3e aabe 44e9 b43e bead 4b3e
00000150: 9afd 213f e4bb cdbe 9166 0bbe f00d 043f
00000160: 7acb 02bf bf31 8ebd 253e e2be 9466 a73e
00000170: 9153 b8be 1f93 ed3e 8ba4 a3bc a339 cebe
00000180: 7c02 82be 40ce 203e 783e bf3e 21b7 0fbf
00000190: a2a3 f83e a743 58be 9b94 e63e 3c68 a3bc
000001a0: 7777 b7be 7c50 123e 61e9 9e3e b4f8 5f3e
000001b0: b19a 3fbe d6fc 66bb d209 013f 352c c2be
000001c0: 53d4 f23e 5d81 be3e b37e 8bbe a2ef 0bbe
000001d0: 3887 123f 7710 5abe 8d2d 1fbe 8fab e1bd
000001e0: fda3 293e 4e84 0cbf 6681 4fbc b210 a93d
000001f0: 00ed 923e ceac 023f e5b0 273e 370c 0a3f
00000200: d847 15bf 33d2 553e 1061 1c3f bdc1 ea3e
00000210: effe 693e 93bb 5fbe 8f4a fbbe fecf af3e
00000220: 6d85 b4be 46e3 ca3e 513d 143e 21a8 693c
00000230: 61ef c7bd 14c8 003e 8547 8cbc 1ccb b93e
00000240: 960c a53e 8ea6 233f c8e2 023f 1bd1 033f
00000250: 9205 7cbe 132a 0c3f f515 b6be 3d4e 3e3e
00000260: 93c8 cbbe 6e10 9d3e ab85 d3be 4d03 9fbe
00000270: 2e72 1ebe bb8f afbe a7ac a03e a06f dabe
00000280: 9e71 5fbc 4648 2dbe b3c6 9fbe a6b6 bfbe
00000290: 53ce 8e3e f750 c63e d665 b53d 19aa cfbe
000002a0: b60f 9ebe d589 26be 6ded 503e 7b5b a23d
000002b0: 1de5 bebc 0dfd 4d3e c9b2 e1bd 6873 0fbf
000002c0: 4d55 c83e 8a7a 953d d3b3 823e 8eb5 afbe
000002d0: 4d52 3f3d 8d39 79be cb6e e83e cfb2 a03e
000002e0: decf e2be f1bd b4be 2b2f b53e d66f b03e
000002f0: fe98 e73e cfa5 60be 67a4 093e ca26 0d3e
00000300: 05e0 d0be bd6a 023e 874c 783e 553b 79bd
00000310: 4e93 0ebf 69f5 89be 8888 b53e 1e2b 4cbf
00000320: ab4a babe 3033 e8be 9d3e adbe fc18 893e
00000330: cf2f eabe d2da acbe 84b7 a83e 9fdb bf3e
00000340: 74e9 433e 28f6 c8bd d48b febe 4f40 b83e
00000350: 80bc 3f3e 1034 443e ee0e a7be 8f2b 1a3e
00000360: b7a5 f53d 6fe6 d63e 9af6 3d3e fa3e f43d
00000370: 5fc0 09be b289 14bf 8760 ae3e 1efa 4a3d
00000380: efab b7bc 03f4 303e 6c23 c83e dffc e4be
00000390: 8a85 5cbd eef9 70be 0a07 933e 8836 123f
000003a0: 4173 21be 861e fd3d f725 473e 79bb 92be
000003b0: 5be4 073e fd80 97bd c7ed d73e ab46 86be
000003c0: 45be d03e d7a9 a23c e55f ea3e 958c b03d
000003d0: b013 153f 995b 993e ae51 bbbe 2cf1 cebe
000003e0: 5c5c aa3d d230 b7be 243c acbe bfbe 1f3e
000003f0: 77f8 06be 3eae e4be e58d f6be ae80 fabe
0.19300322 -0.44639876 -0.48176697 -0.15635587 0.55217075 0.34479356 -0.19880569 -0.48190302
0.24916205 -0.2153807 -0.3267597 -0.38209775 -0.5840679 -0.022195086 0.5662692 0.33113834
-0.24408466 -0.1325814 -0.5628753 -0.20795366 0.035589714 -0.3225422 0.54418766 -0.39883792
0.20304635 0.29143924 0.07660121 -0.28760806 -0.37082016 0.5683822 -0.6092835 0.44800305
-0.5660104 -0.15543664 0.09760122 0.030353183 0.47192183 -0.33242345 -0.0672664 -0.08692673
0.07163921 -0.12534532 0.082435034 0.06559617 0.28432328 0.24205355 0.4305027 0.46592396
-0.1332841 -0.5501597 0.5638478 -0.48538738 -0.089454934 -0.2538144 -0.28833166 -0.4413076
-0.16428703 0.11842567 0.110765494 -0.37293932 -0.54386526 -0.34775165 -0.2481297 -0.3250099
0.17260787 -0.06398189 -0.3307268 0.24423784 -0.2759717 0.07183118 0.5313022 0.43980902
-0.4133763 0.46213576 0.04996133 0.23343043 0.5548752 0.2588515 0.5715061 0.22597833
0.17780617 -0.33250892 0.35334218 0.19890496 0.6327759 -0.40182412 -0.13613345 0.51583767
-0.5109173 -0.06943082 -0.44188038 0.32695448 -0.36001256 0.46401307 -0.019975921 -0.40278348
-0.2539252 0.15703678 0.37352347 -0.5613881 0.48562342 -0.21119557 0.45035252 -0.019947164
-0.35833332 0.14288515 0.3103743 0.21872216 -0.18711354 -0.0035245917 0.5040561 -0.37924352
0.47427616 0.3720807 -0.272451 -0.13665631 0.5723758 -0.21295343 -0.1554472 -0.1101905
0.16566463 -0.5488938 -0.012665128 0.082551375 0.28696442 0.5104493 0.16376074 0.5392489
-0.5831275 0.20880966 0.61085606 0.45850936 0.22851156 -0.21848898 -0.4908032 0.34338373
-0.35258046 0.3962652 0.14476515 0.014261276 -0.09762455 0.12576324 -0.017123947 0.36287773
0.32236165 0.6392602 0.5112729 0.51490945 -0.246115 0.547517 -0.35563627 0.18584533
-0.39801463 0.30676597 -0.41312918 -0.31057206 -0.15473244 -0.34289345 0.31381723 -0.42663288
-0.013637928 -0.16922101 -0.31206283 -0.37444037 0.27891788 0.38733646 0.08857314 -0.40559462
-0.30871361 -0.16263516 0.20403071 0.07927605 -0.02330261 0.20116062 -0.11020429 -0.5603547
0.3912758 0.07298763 0.2552782 -0.34318203 0.046709348 -0.2433836 0.45397028 0.3138642
-0.44299215 -0.35301164 0.3538755 0.34460324 0.4523391 -0.21938251 0.13441621 0.13784328
-0.40795913 0.1273603 0.24247943 -0.0608476 -0.5569352 -0.26945046 0.35455728 -0.7975329
-0.36385092 -0.45351553 -0.33836833 0.26776874 -0.457396 -0.33760697 0.3295251 0.37472245
0.19132024 -0.098125756 -0.49716055 0.35986564 0.18724251 0.19160485 -0.32628578 0.15055679
0.11994498 0.41972682 0.18551102 0.11926074 -0.1345229 -0.58022606 0.3405802 0.049554937
-0.022420852 0.17280583 0.39089525 -0.44724175 -0.05383829 -0.2353284 0.28716308 0.5711446
-0.15766622 0.123593375 0.19448076 -0.28658655 0.13270704 -0.073976494 0.42173597 -0.2622579
0.40770164 0.019856377 0.45776287 0.08620564 0.58233166 0.29952696 -0.36585754 -0.40418375
0.083183974 -0.35779434 -0.33639634 0.15600108 -0.1318072 -0.44664186 -0.48155132 -0.489263

fc2.weight f4 [400, 400]
00000000: 6d80 203d 5c70 38be 8317 373d 07b2 36bd
00000010: 4d73 7bba ebe7 853d 5e8b 2c3d dc60 9a3d
00000020: cd78 3abc 83f5 aa3d 541e 0abe e89f 6cbd
00000030: 1baa 203e 0af6 05bd 0992 32bb 6d40 4b3d
00000040: ccc8 5d3d 7ab3 93be 19b4 823c 0b00 93bd
00000050: 2c4c 2c3d 2542 13bd 896e be3d dcce f3bd
00000060: dc04 74bb c371 e43c 9b9d 60bd e1d9 39bc
00000070: 7848 15bf 75e9 093d f86a ebbe b267 b63d
00000080: efd0 7bbc 69d0 693b 4615 5b3d 74d4 473d
00000090: 4323 493d 3f3e 1cbd 545e 12bc 033e 313d
000000a0: 042f cf3c 0560 8ebd 0228 2d3d ce8a 6e3d
000000b0: d093 d63a 6bc3 f43c 94da 163d 39d7 5c3d
000000c0: 1ea8 a0bd 1238 da3d 76f3 013d 1b9d b53c
000000d0: 23e9 243d 6c38 80bd 4679 393d 3a93 c23d
000000e0: a968 41bd e07b 87bb 8939 683d 7a1e 87bf
000000f0: bb0a 0a3e 9007 cebc 6b74 17bd cd10 cdbd
00000100: 7317 313d 8439 cb3c b75d 55bb c3ce 963c
00000110: 022c ea3c 3646 ed39 b8bb 9c3d f46c 063c
00000120: 45f9 92bd 9f15 1b3c 20ed 45bd b610 223d
00000130: d7fb ab3d e08f 88bc 7637 683d a976 6f3d
00000140: 3aab 113d 2e78 04bd 3a03 873d 2739 303d
00000150: 06c2 c93d 65be 40be f71c 133e de1a 4cbb
00000160: e983 50ba 498b c23c 01f0 c4bd acac 793d
00000170: 2c43 24bd e273 c03c 82ac f83c 139f 28be
00000180: 8483 163d 43ac 913d f064 223d cabb 57bd
00000190: 0520 8a3d 7e6b 14be c3ea b63d f225 20bb
000001a0: e8ff fdbd f22a 73bc 274e 803d 4ed1 8a3c
000001b0: 9b2a 84bd 5470 193d 218d 8d3d c9bb 46be
000001c0: 9cc4 4dbc 6b6c 793d dbd2 e7bc 19da bab9
000001d0: 222b 8d3d d288 9e3c 0fb2 86bd 2093 d13c
000001e0: 6e4a 193d 88c1 53bd 9c8f dbbd 5975 c43c
000001f0: 3d84 823d 4d76 4c3d 2757 883d cd4c 303d
00000200: cfe2 46be 2308 593d c3f1 443c da85 1a3d
00000210: b758 2e3d 0163 77bd 35e5 043e 7304 31bc
00000220: f20c 15bb 8a4d 5c3d 094f 843d 1f05 953d
00000230: 8bff ac3a 62d0 213d 5375 ae3c 498c 8e3d
00000240: e216 213c 1805 e33c 0a92 b23d 6132 e93c
00000250: d598 c83c 7c8b 05bd 168a 823d f7e4 65bd
00000260: 1269 48be 801e 7c3d 6051 02be 0337 3b3d
00000270: 7b27 333d 8a23 a1bd 9e51 1d3d a4b5 393b
00000280: f691 533b c24e b7bc 19d0 e03d 731d aabd
00000290: 2d39 493d d000 0b3d 23af 4f3d 21c2 a5bd
000002a0: 691e b7bf eab9 5cbb 06e5 bdbc d779 833d
000002b0: 0e3a 573d 192c c13d 38c2 01bd 3ef4 5cbd
000002c0: 9cef 573d 5e77 a13c 422f 833d 31ff 8fbf
000002d0: 0625 42bd 5aa5 edbb b482 d53d 8b83 e23c
000002e0: 01b0 8abe aec5 c6bd 15b9 bb3d 8885 0d3d
000002f0: 510a 4a3d 1411 83bd 8eeb 8f3c 9ed8 0abd
00000300: ef86 93be 35fe 77bb cf9f 5a3d 9b61 593c
00000310: c7d7 6f3d 2bd7 ebbd 1ed1 91bb c0e2 f7bd
00000320: 006a bebd a78d 123d 96ac 20be d5da 973c
00000330: 4c40 f13c 651e 09bd b465 9f3d 8fec b5bb
00000340: ac79 923d 993b 573d caca aebe 3491 9b3d
00000350: 42ef 3a3d f226 bcbc a2d2 0bbe 272b cbbc
00000360: 2b14 583c aed6 3e3d 7108 323d 3978 b23b
00000370: 39de 02bd f38e 4dbe 00fe 3bbc 055d 043e
00000380: 3e1d 4dbd 0b30 1b3d 1b25 c23c 00c3 6ebd
00000390: 6f09 6e3d 2e41 2c3c 0898 283d b3a3 9b3c
000003a0: 4f51 ec3b cad0 e13d 3c96 b03d 24aa dbbd
000003b0: 3163 2f3b 0528 9d3d 9f6a 4a3d f02b b5bc
000003c0: dcbc dcbc 7d7b d63d 6d79 9e3d a7c7 313d
000003d0: e55e 543d 3bc7 8e3d 7a73 77bd a202 5bbd
000003e0: fbb7 563d ef97 51bd c7b0 52bf 8c48 413d
000003f0: 940b 8b3d 2655 ae3a bb95 53bf 23bc 31be
0.039184976 -0.18011612 0.044700157 -0.044603374 -0.00095920713 0.065383755 0.0421251 0.07538006
-0.01138134 0.08347609 -0.13488132 -0.057769686 0.1568989 -0.032705344 -0.0027247688 0.049621988
0.054146573 -0.28847867 0.015955018 -0.071777426 0.04206483 -0.035951752 0.09298427 -0.1190469
-0.0037234342 0.027886277 -0.054837804 -0.01134345 -0.58313704 0.033669908 -0.45980048 0.08906497
-0.015369638 0.00356772 0.053487085 0.048786595 0.049105894 -0.0381453 -0.008933622 0.04327203
0.025290973 -0.06951908 0.042274483 0.058237843 0.0016370956 0.029878339 0.036829546 0.05391619
-0.07844566 0.10655226 0.031726323 0.02216964 0.0402614 -0.062607616 0.04528167 0.095007375
-0.047218952 -0.00413464 0.056695495 -1.0556176 0.13480656 -0.02515009 -0.03697626 -0.1001297
0.043235254 0.024807699 -0.003255708 0.018409139 0.028585438 0.00045256474 0.07652992 0.008204687
-0.07176451 0.009465604 -0.048321843 0.039566718 0.08397644 -0.016670167 0.056693517 0.058462773
0.035563685 -0.032341175 0.06592412 0.043023255 0.0985146 -0.1882263 0.14366518 -0.0031143944
-0.00079542265 0.023748057 -0.096160896 0.06095569 -0.040103123 0.023492757 0.030355696 -0.16466932
0.036746517 0.071129344 0.039647043 -0.052669324 0.067443885 -0.1449413 0.08931496 -0.002443668
-0.12402326 -0.014841782 0.062649064 0.016945507 -0.06453439 0.03746064 0.06911684 -0.19407572
-0.012559082 0.06089441 -0.028298786 -0.0003563918 0.068929926 0.01935235 -0.06576931 0.02558285
0.037424497 -0.051698238 -0.10720751 0.023981737 0.06372879 0.049917508 0.06657248 0.043041993
-0.19422458 0.052986275 0.012020531 0.037725307 0.042565074 -0.06039715 0.1297806 -0.010804283
-0.0022743312 0.053784885 0.06460387 0.072763674 0.0013198716 0.03950537 0.021296179 0.06960351
0.009832116 0.02771239 0.08719261 0.028466405 0.024486938 -0.032603726 0.06373994 -0.05612656
-0.19571331 0.061552525 -0.12726355 0.04570676 0.043738823 -0.07868107 0.038407914 0.0028337026
0.0032283044 -0.022376422 0.109771915 -0.08306398 0.049126793 0.03393632 0.050704133 -0.08093668
-1.4306155 -0.003368015 -0.023180496 0.064197235 0.0525456 0.09432239 -0.031679362 -0.053943865
0.052718744 0.019710239 0.06405498 -1.1249753 -0.04739859 -0.0072523775 0.1042532 0.027650615
-0.27087405 -0.09705673 0.09166161 0.034551173 0.049326245 -0.06399742 0.017568376 -0.03389799
-0.28813884 -0.0037840728 0.05337506 0.0132679 0.05855539 -0.115156494 -0.0044499775 -0.12103796
-0.09297562 0.03577962 -0.15690836 0.018536964 0.029449604 -0.033476252 0.0778307 -0.0055518816
0.07152113 0.05254707 -0.3413909 0.07596055 0.04563833 -0.02296779 -0.13654569 -0.02480085
0.013188402 0.046591453 0.04346508 0.0054464606 -0.03195021 -0.20074062 -0.011474133 0.12926109
-0.050076716 0.037887614 0.023699334 -0.058291435 0.058114465 0.010513587 0.041160613 0.018998956
0.007211841 0.110261515 0.08622405 -0.10725811 0.0026762004 0.07673649 0.049418088 -0.022115678
-0.026945524 0.10472772 0.07738004 0.043403294 0.05184831 0.06971594 -0.06041286 -0.053469308
0.05242155 -0.051170286 -0.8230099 0.047188327 0.06789318 0.0013300523 -0.82650346 -0.17356925

fc2.bias f4 [400]
00000000: 13a0 5c3d 2452 e83d 0d31 ae3d b165 edbd
00000010: 8ac5 14bd fc0c 30bd f95b f0bb f6ea dd3c
00000020: 8199 e73d dfaf c53a 5e09 703d 04c4 313d
00000030: 5ebc 0b3d 3f72 a7bd 5b33 223d 6a52 03bd
00000040: 4a9c 273d dfc3 b83c 07ca 8ebd 1d5c 073c
00000050: 5816 68bd d768 e5b9 9863 873d b259 583c
00000060: 8e81 0ebd 9681 383c 8963 333d 363c a93d
00000070: e597 7f3d 4cc7 0b3e d07f 4d3d 05ac a33d
00000080: 6860 423c 9ae2 a63c 253f 6c3d 854d 08bd
00000090: ad7a 243d 2e5d 193c a16d 2fbd d236 473d
000000a0: 2db4 803d 1d0a f03d 9fb4 a23c 7b27 cd3d
000000b0: 107c b8bd 17f2 fbbc 3acf 003d c17c 133d
000000c0: b7d9 15bd c3e3 b33b 9a41 ab3c 0852 d9bd
000000d0: 7882 103c 8380 523d 4cca 9f3c ed6e 773d
000000e0: 3c01 963d c849 213d 9f16 023d 1e0d 9abc
000000f0: 5b63 963d 15ac d03c f32f a23a a6e9 03be
00000100: 44a7 003e cac6 a13d 6fdd 10bb 4b53 9dbd
00000110: dc0a 01be db9f 9b3c d7c8 963c 6318 093d
00000120: b2b9 04bd 73d8 583d e2df 023d 1995 4e3d
00000130: 4b53 afbc 1bfc 3abd 9b1e 143d 7990 c93d
00000140: b9bd b73d b5c0 5c3d 6cd2 03bb adb1 cd3d
00000150: a63b 903b 172b 1f3d 94a4 04be a021 863d
00000160: 331a 933d a30c 25bd 4210 853d 5123 52bd
00000170: 873d 54bd 6bb1 2a3d b28e 423d 6a15 16bd
00000180: e976 ecbc c3ca c8bd a9f3 b33c afa5 113b
00000190: 7a43 70bd e564 9c3d 148d 263d 2422 f1bc
000001a0: 9b99 6b3d 64fb 4d3d 25cd 983d d223 433c
000001b0: 317b f3bc 7bec b43d 7ab9 d53c c5cc bebc
000001c0: d614 eb3c bf79 8ebd 6bb4 d23d 6a2e dd3d
000001d0: 97ff 1ebd a61f d33c 9b61 813c 2d5c 32bd
000001e0: c93d 6c3c 10b8 9f3c f849 b43d 4375 2ebd
000001f0: 6d46 6e3c 924a 8b3c 5482 81bd 4974 0e3d
00000200: 82e6 7b3d e31d e7bc ae53 a5ba 2a3a 8fbd
00000210: 9ef6 e13d 0a11 ac3d b662 043d 8cde 8f3d
00000220: 9143 933d 85c7 803c dd5b 333c e599 d9bc
00000230: 40c2 9bbd ef0e ef3c 3f10 b53d f16d cdbb
00000240: 7a0b 1e3b 8e41 3b3d e1e4 34bd 8a41 c83d
00000250: 1509 683d a522 523d 9b92 36bd 113f b73c
00000260: 0c81 f83c a068 e03d 7a70 1c3d 2d00 f3bc
00000270: 63fb f83d 140d 06ba 1119 2fbd ae6d 983c
00000280: 89e2 df3d 4e33 a03d fa47 523d b23d 703d
00000290: 8d21 02bd 48e3 a73c 24fd bf3c 84d8 b8bd
000002a0: c826 9b3c 111d 20bd 79db 7abb c5c5 dc3c
000002b0: 87e8 26bd 8f9b 2c3d 0fbb 873d 6e27 0a3d
000002c0: 83d2 90bd dbe9 523d ba6d 05bd eb93 17bb
000002d0: d6a8 32bc 4d08 62bc c939 4dbd 4d8f 093d
000002e0: a4dd dd3b b719 22bc bf21 3e3d 0b41 aabd
000002f0: 6a07 0b3d 6caf 89bd 92c6 bc3d bb64 783d
00000300: 56e1 f23d ac7b 8c3b 8cc1 d73b 58cd 863d
00000310: a679 ff3c 2bfe 873d 4cb6 683b 4754 20bb
00000320: aeec 283d b55c a9bb c027 05bd 74b1 cb3d
00000330: b1bc 0d3d f77a ddbc c765 403d 9a54 013d
00000340: df82 113d 3c0c cebb fb52 ecbc 7515 063d
00000350: e8f8 8e3d 9ee7 29ba f5f7 a63d ae4c cf3d
00000360: 0524 043e 15b5 17bd 3045 63bb b159 ad3d
00000370: 9b08 8c3d 4e02 e2bc 5d99 8b3c 943f d6bb
00000380: cac3 8d3c b04e 28bd ec27 0c3d 93a3 873d
00000390: 4659 b03d c642 813c 22dc 783b 8a0e 1bbd
000003a0: 829c 8b3d 0fc3 4ebd 7a04 bbbd 1b2e 88b9
000003b0: b974 1b3c 17ed 683c d26a 133b 0e19 903d
000003c0: b9fb 32bd 438a 5f3d a23c 7b3d 7842 4bbc
000003d0: edf3 c73a 3ade 3e3d 4f1b b13d ff00 29bd
000003e0: 55a6 113d bbab d6bd 5692 8abd 2856 c53c
000003f0: abb1 243d d6a7 e23a fe32 15bd 2333 dd3d
0.053863596 0.11343792 0.085054494 -0.11591662 -0.0363212 -0.042981133 -0.0073351827 0.027089577
0.113085754 0.0015082321 0.058602683 0.043399826 0.034115188 -0.081760876 0.039599758 -0.032061018
0.040920533 0.022554336 -0.069721274 0.008261708 -0.056661934 -0.00043756395 0.06610793 0.013204979
-0.03479152 0.011261364 0.043796096 0.082634374 0.062400717 0.13650244 0.05017072 0.079917945
0.011863805 0.020371724 0.057677407 -0.033277053 0.040156055 0.009360595 -0.04282916 0.048636265
0.06284366 0.11720679 0.019861517 0.10017296 -0.09008038 -0.030755086 0.031447627 0.036007646
-0.036584582 0.005489798 0.020905305 -0.10611349 0.008820169 0.05139209 0.019505642 0.06040852
0.07324454 0.039377004 0.031759854 -0.018805083 0.07343169 0.02547268 0.0012373909 -0.12882099
0.12563807 0.07899244 -0.002210464 -0.076819025 -0.12601799 0.018997123 0.018406315 0.033470523
-0.032403655 0.052940797 0.031951793 0.05043516 -0.021402022 -0.045650583 0.036162 0.09842009
0.089717336 0.053894717 -0.0020114435 0.100436546 0.004401642 0.038859453 -0.12953407 0.06549382
0.071827315 -0.040295254 0.064972416 -0.05130321 -0.05181649 0.041673105 0.047499366 -0.036641516
-0.028865295 -0.09804299 0.021966772 0.0022224 -0.0586581 0.076364316 0.040661886 -0.029435225
0.057519536 0.050288573 0.07461003 0.011910396 -0.029721828 0.088341676 0.026089419 -0.023291001
0.028696459 -0.06956815 0.10288318 0.107998684 -0.03881797 0.025771927 0.015793612 -0.043544937
0.014419028 0.019496948 0.08803171 -0.0425923 0.014543158 0.017003331 -0.06323686 0.034778867
0.061499126 -0.028212493 -0.001261344 -0.06993516 0.110333666 0.084016874 0.0323207 0.07024869
0.07190622 0.015720138 0.010947195 -0.02656264 -0.076054096 0.029181926 0.08840989 -0.0062692096
0.0024115727 0.045716815 -0.04416359 0.097781256 0.056649286 0.05130257 -0.044573408 0.02236894
0.030334972 0.10957456 0.038193204 -0.02966317 0.12157323 -0.0005113643 -0.042748515 0.018606987
0.1093188 0.078222856 0.051338173 0.058652587 -0.031770278 0.020494118 0.023436137 -0.09025672
0.01893939 -0.03909022 -0.0038277789 0.026949773 -0.0407491 0.04214054 0.066274755 0.03372901
-0.07071402 0.051492553 -0.032575347 -0.0023128937 -0.010904511 -0.013795924 -0.050103936 0.033583928
0.0067708064 -0.009893826 0.0464189 -0.08313187 0.033942617 -0.06722912 0.09217562 0.06064294
0.11859386 0.004287204 0.006584352 0.06582135 0.031185936 0.066402756 0.0035509048 -0.0024464296
0.04124134 -0.0051685222 -0.03250861 0.09945956 0.03460378 -0.027036173 0.046972062 0.031574823
0.0355252 -0.0062880795 -0.028848162 0.032735307 0.06981069 -0.0006481352 0.08152763 0.10122047
0.12904365 -0.037037928 -0.003467869 0.08464373 0.06837579 -0.02758899 0.017040903 -0.006538341
0.017305274 -0.041090667 0.03421776 0.06622996 0.086107776 0.01577891 0.0037973006 -0.037855662
0.06816961 -0.05047899 -0.09131713 -0.00025974293 0.009488278 0.014216683 0.002249409 0.07036029
-0.043697093 0.054575216 0.06133712 -0.012405984 0.0015255191 0.04659865 0.08647787 -0.041260716
0.035559017 -0.10481974 -0.067661926 0.024088934 0.0402085 0.0017292451 -0.036425583 0.10800769

fc3.weight f4 [2, 400]
00000000: dbb4 223e 63b8 053e 8550 013e 6b93 02bf
00000010: 557e 713d 615c abbe 9761 3b3d 76bb 083e
00000020: f64a 043e 7deb 963c da56 be3d de62 da3c
00000030: 3478 233d 1926 2cbd 2ac1 2fbd bd14 2fbd
00000040: 3330 293d 5cdf b0bd a1a9 89bf eb64 ebbb
00000050: 0dda d13e 0a66 7ebc dfec 683e d9a4 7b3d
00000060: 809a 02bb 33e5 773d 626a c53d 23eb 0c3e
00000070: 8dba 6a3d 5b39 2e3e 3894 41be 5df7 153e
00000080: 0a1c 97bb fdcd b73c 2776 073e 661c 09bd
00000090: 6bb7 043d 82d4 953d e0b6 3b3e 5c73 c5be
000000a0: a75a 623d 4907 213e d172 e13c 4626 9fbe
000000b0: 8f6c 78be 6e1e 063d e8e2 bdbb bf5f 8fbc
000000c0: 67f3 6c3e 82f1 64bc ca87 a6bc 5a90 ec3e
000000d0: c09d b6bb d755 3e3d 8158 9dbc 4e64 563d
000000e0: 0832 703d f752 523c 9574 15bc 9721 15bd
000000f0: 1594 0fbd 3a3e e03b 4ae8 bebb 1879 24bf
00000100: 081c 8cbc ad36 f13d c26f 35be 0f98 55be
00000110: bf00 e0be 2c99 323d 4bd6 013e 5c8b e5bd
00000120: a0ce 37bc 6e62 ca3d c269 6ebc bca8 c5bd
00000130: b641 93bc 376b 1abf 172e d73c 9d20 2e3d
00000140: b0b1 fc3d bdbf 043d 03a2 af3c ac6e ae3c
00000150: 566c 183d 7c38 043e 1267 2f3f fe96 d3be
00000160: 5911 3b3e c10e 53bf e8d7 91bd 1564 27bd
00000170: ca9c 803c 29ee 1e3e fb93 5dbe 2261 ef3c
00000180: 411e 9abc bbd1 f4be 6a3a d8bc 80da bb3c
00000190: 9d66 1fbf e41f a93d 4db8 e93d 14b5 8fbf
000001a0: 7bc4 f83d ae6d 083e ae43 9cbc cf5f c73c
000001b0: 6f14 44bd 5879 133e 3709 efbc 672e 23bd
000001c0: 33d8 053e 64c9 f7bd 3759 013d 79ba 473e
000001d0: c062 d8bc c99e 2bbd 0862 0b3d a674 1c3f
000001e0: 7eb8 1abe df78 3b3c 84dc afbd 2e1c 32bc
000001f0: 5762 803d 68c6 f43b fdf5 27be b45f 0c3e
00000200: dffa ca3d db03 46bd cce4 253f 67cc a2bd
00000210: b835 a73d da2d a23d 1cb2 123e b45b 593c
00000220: f77a 163d 7375 243d 4987 413d 9f29 b2bd
00000230: 18a4 96bd 1df4 473b bd03 0a3e 1d20 71bc
00000240: 3e44 63be d8e7 0cbd 2102 e1bf 7753 053d
00000250: 2667 cc3d d469 813d 84c2 023b 2703 fabc
00000260: 44ea 063e a112 063e 112a 09be d033 f4bc
00000270: 4a68 ff3d 1967 073c 2531 fbbc aa7e 443d
00000280: 625a 523e e354 d2bd d212 8f3d a64b b63c
00000290: 460a b83c 1171 4cbc 053a 273d cafa d13e
000002a0: 19f7 0b3d 3cc3 713c 3e0e 683d 8578 12bd
000002b0: 5ea5 c2bd dfbf 393e 71a7 163e f0be 03bd
000002c0: 92e9 adbe 208e 7e3d 28be 5fbf 2b5e 7fbb
000002d0: 380b 083d 4e80 d83c 3ab0 8bbc 7a1a f4bc
000002e0: ae54 fd3c 7fdb 52ba fff9 0d3e 34f7 33bf
000002f0: 2a22 283d 1b1b bfbe 082d e03e 3f7d 123b
00000300: c451 fe3d 96c1 6e3b ab90 35bd 25d1 ed3c
00000310: f6f2 d2bd 7c13 373d 6acb ba3c f311 c43e
00000320: 9d72 b63d ac78 17bf 32d4 84b9 91a9 da3c
00000330: 001e b63d 5637 12bd ebde f93c 18c8 713d
00000340: 7e4a 113e f204 42be 901d 233d 2837 f93b
00000350: efdc b63c 90c6 50be 56d3 69be 701b 8d3d
00000360: 62ca 283e e48a 47bf 9721 ffbc c17d d03d
00000370: fed5 203d 8c52 a53c f6a1 a53c 1a60 e33a
00000380: 07cc 20be c9bf 423d 5dd8 1a3d 4b57 023d
00000390: 21fe 0c3e 4402 26be 1a69 bbbb 2a11 46bd
000003a0: 66df 063e 576b ecbe 7be3 b3be 560e 78bd
000003b0: d0e2 01be 1f1d d63b c10e 7abc dc7e d2bd
000003c0: 5565 1bbd 7c5a e53d f94d bf3c 4dcc 1d3d
000003d0: 18f3 253c 83bf 213b 7a2f 1b3e 9fe0 3dbe
000003e0: 128f 043e 33ad 91bf 8f3d d63e d51a 0dbe
000003f0: 461f 47be 4252 f63c 7487 0dbe e5e5 6abe
0.15889303 0.13058619 0.12628372 -0.5100619 0.05895837 -0.33468917 0.045747366 0.1335276
0.1291922 0.018422836 0.09293909 0.026658472 0.039909557 -0.04202852 -0.042908825 -0.042744387
0.041305732 -0.086363524 -1.0754892 -0.007183661 0.40986672 -0.015527258 0.22746609 0.061436508
-0.0019928515 0.060521316 0.096394315 0.13761573 0.057306815 0.17014067 -0.18904197 0.14645143
-0.004611497 0.02243709 0.13228665 -0.03347435 0.032401484 0.07315923 0.1833148 -0.38564575
0.055262234 0.15725435 0.027520569 -0.31083888 -0.24260162 0.032743864 -0.0057948716 -0.01750171
0.23139726 -0.013973596 -0.020328421 0.46203882 -0.0055730045 0.046468582 -0.019207241 0.05234175
0.058641464 0.012837163 -0.009122034 -0.036408987 -0.03505333 0.0068433555 -0.005826031 -0.64247274
-0.01710321 0.11778007 -0.17718413 -0.20858787 -0.4375057 0.043603107 0.12679403 -0.11208221
-0.011218697 0.09882055 -0.014551582 -0.09651324 -0.01797567 -0.60319847 0.026267095 0.04251157
0.12338579 0.03240942 0.021439558 0.021293007 0.037212692 0.12912172 0.6851665 -0.41326135
0.18268336 -0.8244439 -0.07121259 -0.04086693 0.015699763 0.15520538 -0.21638481 0.029221121
-0.018813254 -0.47816262 -0.026395041 0.022931337 -0.6226595 0.08258036 0.11412106 -1.1227136
0.12146851 0.1332309 -0.019075241 0.024337677 -0.04787105 0.14401758 -0.029179199 -0.039839175
0.13070755 -0.12098959 0.031579223 0.19504727 -0.026414275 -0.041899476 0.034029037 0.6111549
-0.1510944 0.011442392 -0.08586982 -0.010870976 0.06268757 0.007469941 -0.16402431 0.13708383
0.09911131 -0.04834352 0.6480224 -0.07949143 0.08164543 0.07918902 0.14325756 0.013266493
0.036738362 0.04015107 0.04724816 -0.08699345 -0.07355517 0.0030510493 0.13477989 -0.014717129
-0.22194001 -0.03440079 -1.7578775 0.0325503 0.099806115 0.06319013 0.0019952366 -0.030519081
0.13175303 0.13093044 -0.13394953 -0.029809862 0.124710634 0.0082643265 -0.030663082 0.04797236
0.20542291 -0.10270097 0.069860116 0.022252869 0.022465836 -0.012478129 0.040826816 0.4101165
0.034171198 0.01475602 0.056654207 -0.035759468 -0.095041975 0.181396 0.14712311 -0.032164514
-0.33967263 0.06214726 -0.8739953 -0.003896604 0.033213824 0.026428368 -0.017051805 -0.029797781
0.030924167 -0.0008043572 0.13864897 -0.7029908 0.041048206 -0.37325367 0.43784356 0.0022352485
0.12417939 0.0036431304 -0.04432742 0.029030392 -0.10300247 0.044696316 0.022802074 0.38294944
0.089085795 -0.59168506 -0.000253351 0.026692184 0.08892441 -0.035697304 0.030501803 0.059028715
0.14188573 -0.18947199 0.039823115 0.007605452 0.022322146 -0.20388246 -0.22834525 0.06889999
0.16483453 -0.77946305 -0.031143947 0.10180236 0.03926658 0.020180963 0.02021883 0.0017347366
-0.1570283 0.04754618 0.037803996 0.03182153 0.13768817 -0.16211802 -0.005719316 -0.048356213
0.13171157 -0.46175644 -0.3513449 -0.060560547 -0.12684178 0.006534233 -0.015262307 -0.10278103
-0.037938435 0.11198899 0.02335261 0.038524915 0.010128759 0.00246808 0.1515483 -0.18542717
0.12945202 -1.1380981 0.4184384 -0.13779767 -0.19445524 0.03006852 -0.13821203 -0.2293926

fc3.bias f4 [2]
00000000: 8799 083d 3dda 123d
0.03334954 0.03585266
