imitation_learning/models/agent.pt (torch_old, 538361 bytes, 20 tensors)

batchnorm0.weight f4 [3]
1.0024452 1.0010036 0.999068
00000000: 2050 803f e320 803f ecc2 7f3f

batchnorm0.bias f4 [3]
-0.00029769097 0.0011532182 -0.0010904473
00000000: 6813 9cb9 9527 973a 57ed 8eba

batchnorm0.running_mean f4 [3]
0.5579949 0.5558386 0.5582895
00000000: c1d8 0e3f 704b 0e3f 10ec 0e3f

batchnorm0.running_var f4 [3]
0.058306858 0.05904052 0.058434535
00000000: 2cd3 6e3d 79d4 713d 0d59 6f3d

conv1.weight f4 [6, 3, 7, 7]
0.013433821 -0.060952105 -0.053503018 -0.0599157 0.063376166 -0.030913096 0.06924473 0.021180637
0.052253235 0.010281192 -0.02727745 -0.07420395 -0.05498672 -0.079830356 0.001620671 0.10198862
0.03765796 -0.06817935 0.036363073 0.0043953015 -0.03178643 -0.080991805 0.007825193 -0.035574984
-0.0504962 -0.025491988 -0.022411095 -0.06101269 0.07562716 0.04966439 0.02858033 0.053686187
0.065189466 0.009662117 0.041869335 0.0618455 0.05789013 -0.09212675 0.0074474867 -0.079706185
-0.042836316 0.016295219 0.0747003 -0.0024434137 -0.058632728 -0.061352175 0.018204354 -0.021627001
-0.042537786 0.06401284 0.064535424 0.013544647 0.034077406 -0.021694979 0.0424234 0.003936951
0.019880215 0.035960723 0.04462996 -0.08413984 0.026297044 -0.037219904 0.056533527 0.04428095
0.09818731 -0.03482085 -0.0804987 -0.068745546 0.023264036 0.045206185 -0.07650317 0.024182834
-0.04562729 0.030859554 0.03499609 0.08476333 0.023528077 0.02445585 -0.069652975 -0.06285769
-0.022345793 -0.06852044 0.038866032 0.06113504 0.047524344 -0.0513057 0.051824573 -0.022545116
0.02615237 -0.0029525487 0.031215413 0.0684517 -0.0037532074 -0.032904267 -0.008910078 -0.028677454
0.054996364 0.07081234 -0.034519378 -0.030162664 0.06037169 -0.06151189 -0.017724652 0.019800961
0.020783234 0.04624668 0.091064245 -0.070688024 -0.023282614 -0.02583713 0.035144247 -0.030146455
0.090253524 -0.014381617 0.03661788 0.009824163 -0.004444516 0.057646796 -0.07207174 -0.03150124
0.0075181425 0.07902778 -0.00720983 -0.06512125 0.021740029 -0.07444028 0.010348877 0.021643098
-0.09391311 0.007888308 -0.06759389 -0.034462873 0.0042004786 0.054466695 0.06043251 -0.04363622
0.061895933 0.045712065 -0.018557394 -0.003707407 -0.055085678 -0.06262619 0.052041907 -0.02405346
0.043885745 -0.014557682 0.020249369 -0.074848235 0.053597387 -0.049468674 0.041788626 -0.04555768
-0.016592156 -0.05250132 0.069712274 -0.0003051163 -0.08516196 0.0012139473 0.022204645 0.021154933
0.021057647 0.024712816 -0.015240401 0.0048248195 -0.02835726 -0.033048607 0.0066821454 -0.028704282
-0.010072921 -0.053243812 0.07217704 0.02111567 -0.026954105 0.018142894 -0.0015537073 -0.00312769
-0.03198192 0.052473027 -0.0025304956 -0.040634904 0.051539943 0.058401678 0.046184354 -0.04715226
-0.045093678 -0.02009718 0.016254002 0.083494805 -0.010073454 0.02110637 -0.072854586 -0.04418105
-0.038771253 0.070046015 0.10380876 -0.060497794 0.009425916 -0.02375732 0.080713876 -0.0059027025
0.014530966 0.015482367 -0.030521855 0.025488352 -0.016349742 -0.06731155 0.024278441 0.0813182
-0.055473976 -0.06347602 0.06344755 0.028788885 0.038461275 0.08489211 0.06296092 0.04578238
-0.07740888 -0.05212266 0.019436887 -0.0218129 -0.013329847 -0.0036116901 -0.022197023 -0.029361095
0.005901064 -0.005603738 0.030072128 -0.10544351 -0.036165304 -0.025440028 0.02867148 0.055190377
0.033541888 -0.032713152 0.017079217 -0.0067254747 -0.061600823 -0.0610297 -0.03510787 0.0033586898
-0.06495656 0.010174101 0.03070853 0.0075916094 -0.05703148 -0.04776454 0.028678695 0.022510642
0.023379346 -0.02177971 -0.026572458 -0.030443264 0.012310346 0.0011175729 0.06506704 0.06828116
00000000: 8719 5c3c eaa8 79bd fb25 5bbd 2a6a 75bd
00000010: 5dcb 813d 763d fdbc 2ed0 8d3d 0483 ad3c
00000020: 7d07 563d 7272 283c f574 dfbc 3ef8 97bd
00000030: c139 61bd 197e a3bd b26c d43a 69df d03d
00000040: 3c3f 1a3d 9da1 8bbd 72f1 143d 7606 903b
00000050: 7d32 02bd 08df a5bd 3d35 003c 13b7 11bd
00000060: 1ad5 4ebd 93d4 d0bc 7997 b7bc 71e8 79bd
00000070: 6ae2 9a3d e36c 4b3d 4c21 ea3c 0ce6 5b3d
00000080: 0e82 853d db4d 1e3c 2e7f 2b3d b551 7d3d
00000090: 331e 6d3d f3ac bcbd 0c0a f43b ff3c a3bd
000000a0: 2275 2fbd 8d7d 853c 79fc 983d ae21 20bb
000000b0: df28 70bd 6b4c 7bbd 4c21 953c 1c2b b1bc
000000c0: 1a3c 2ebd 2a19 833d 262b 843d 5eea 5d3c
000000d0: c094 0b3d abb9 b1bc 29c4 2d3d 8a01 813b
000000e0: d5db a23c 8d4b 133d e8cd 363d 8251 acbd
000000f0: e66c d73c e673 18bd b38f 673d f15f 353d
00000100: 6e16 c93d 4fa0 0ebd 81dc a4bd 77ca 8cbd
00000110: 3894 be3c 1f2a 393d b2ad 9cbd 141b c63c
00000120: aee3 3abd 2dcd fc3c 0f58 0f3d 6698 ad3d
00000130: f4bd c03c a257 c83c 38a6 8ebd 88bb 80bd
00000140: 860e b7bc 7254 8cbd fd31 1f3d bc68 7a3d
00000150: e3a8 423d ed25 52bd 0146 543d 89b0 b8bc
00000160: 7f3d d63c 8c7f 41bb 77b7 ff3c 6830 8c3d
00000170: 5ff8 75bb a0c6 06bd 93fb 11bc fbec eabc
00000180: de43 613d 0f06 913d 3164 0dbd b117 f7bc
00000190: 4e48 773d e4f3 7bbd 4a33 91bc a035 a23c
000001a0: 9a41 aa3c 296d 3d3d e47f ba3d e2c4 90bd
000001b0: 2ebb bebc 64a8 d3bc 6af3 0f3d b3f5 f6bc
000001c0: d7d6 b83d e0a0 6bbc a1fc 153d 87f5 203c
000001d0: 4da3 91bb 0c1f 6c3d 599a 93bd 7207 01bd
000001e0: c05a f63b 51d9 a13d 7040 ecbb 4a5e 85bd
000001f0: 2518 b23c 2574 98bd 568e 293c de4c b13c
00000200: 8455 c0bd f63d 013c aa6e 8abd f128 0dbd
00000210: 2ba4 893b 7818 5f3d 1488 773d e5bb 32bd
00000220: 9786 7d3d 933c 3b3d ad05 98bc f8f7 72bb
00000230: 85a1 61bd 2942 80bd e529 553d c30b c5bc
00000240: 8ac1 333d 5883 6ebc 01e2 a53c 084a 99bd
00000250: ef88 5b3d aa9f 4abd 8d2a 2b3d b19a 3abd
00000260: 46ec 87bc a00b 57bd 4fc5 8e3d 04f8 9fb9
00000270: 6569 aebd 501d 9f3a 84e6 b53c 1c4d ad3c
00000280: 1681 ac3c 8872 ca3c e0b2 79bc 8519 9e3b
00000290: 7c4d e8bc fa5d 07bd e6f5 da3b 3e25 ebbc
000002a0: e508 25bc 2f16 5abd 8ed1 933d c5fa ac3c
000002b0: dbce dcbc 68a0 943c c4a5 cbba eef9 4cbb
000002c0: 79ff 02bd f5ed 563d acd6 25bb c970 26bd
000002d0: 8c1b 533d 9936 6f3d ce2b 3d3d ba22 41bd
000002e0: 26b4 38bd d7a2 a4bc 1d27 853c 53ff aa3d
000002f0: 210b 25bc 44e7 ac3c c934 95bd 30f7 34bd
00000300: 9bce 1ebd 4974 8f3d b099 d43d 89cc 77bd
00000310: 286f 1a3c b69e c2bc 514d a53d 756b c1bb
00000320: 4a13 6e3c c1a9 7d3c f808 fabc f3cc d03c
00000330: e5ef 85bc a3da 89bd 95e3 c63c 288a a63d
00000340: ae38 63bd b7ff 81bd caf0 813d abd6 eb3c
00000350: 9289 1d3d eadb ad3d a8f1 803d 4e86 3b3d
00000360: 8c88 9ebd 927e 55bd 1b3a 9f3c f8b0 b2bc
00000370: 6e65 5abc 1bb2 6cbb 88d6 b5bc ae86 f0bc
00000380: b65d c13b 909f b7bb d359 f63c c4f2 d7bd
00000390: 1222 14bd 9b67 d0bc 74e0 ea3c 4e0f 623d
000003a0: 3863 093d 3afe 05bd b7e9 8b3c 5f61 dcbb
000003b0: 2551 7cbd 47fa 79bd 45cd 0fbd 771d 5c3b
000003c0: f207 85bd 46b1 263c 7590 fb3c 09c3 f83b
000003d0: d799 69bd c0a4 43bd 95ef ea3c 3d68 b83c
000003e0: 0b86 bf3c 5d6b b2bc 7cae d9bc 2764 f9bc
000003f0: 55b1 493c 867b 923a de41 853d fed6 8b3d

conv1.bias f4 [6]
0.004772672 0.043743275 0.08188328 -0.06919616 0.039938018 0.034143895
00000000: 1364 9c3b 262c 333d 6cb2 a73d b7b6 8dbd
00000010: 0c96 233d 78da 0b3d

batchnorm1.weight f4 [6]
1.0293357 1.0138098 0.96399146 1.0301211 0.99859023 0.987352
00000000: 46c1 833f 85c4 813f 25c8 763f 02db 833f
00000010: 9ca3 7f3f 1ac3 7c3f

batchnorm1.bias f4 [6]
0.022140516 0.013507698 -0.019468226 0.011860626 0.006741542 -0.01670872
00000000: 0760 b53c 644f 5d3c d47b 9fbc 1253 423c
00000010: 27e8 dc3b bae0 88bc

batchnorm1.running_mean f4 [6]
0.01287345 0.03144678 -0.005245879 -0.0045821015 0.04995137 0.026622467
00000000: 2aeb 523c 57ce 003d 9fe5 abbb 7425 96bb
00000010: cf99 4c3d 5c17 da3c

batchnorm1.running_var f4 [6]
0.12872078 0.06079667 0.8596843 0.69860476 0.094246626 0.041739527
00000000: 61cf 033e ee05 793d 4514 5c3f c3d7 323f
00000010: 6004 c13d 11f7 2a3d

conv2.weight f4 [16, 6, 3, 3]
-0.102260515 -0.11187252 -0.121358454 -0.060135085 2.1115846e-05 0.086332746 0.1207802 0.121874906
-0.0625859 0.10572825 0.07566211 -0.04170812 0.11355253 0.021486476 -0.008548911 -0.08020901
0.05940472 0.0038449073 0.046400268 -0.11284356 0.040524725 0.017165015 -0.048034325 0.030864812
-0.06953651 -0.05516112 -0.10114756 -0.038989797 -0.108071916 0.0720343 -0.11378614 -0.061220735
0.019813655 -0.06219518 -0.07700516 -0.12836884 -0.012302778 0.03985383 0.06810687 -0.036393017
-0.045564905 0.0026590175 0.06104376 -0.017750492 0.118879765 0.013223017 0.11983087 -0.12712096
0.117576495 -0.094282694 -0.024069855 0.0949436 0.1192617 -0.046191305 -0.10247104 0.0637008
-0.051411867 0.07794692 0.00993281 0.092943124 0.11731453 0.11466708 0.07872359 -0.024152827
0.11753029 0.03506384 0.12282066 0.09325669 0.05112513 0.12550722 0.027431352 0.0597462
-0.07268799 0.013085938 0.06967795 -0.07746137 -0.05295485 0.030747853 0.047344845 -0.09323958
-0.012420952 0.015049546 0.010575064 0.043407515 -0.15720472 0.079299554 0.04447907 -0.04885171
-0.06939393 0.16204174 -0.056077268 -0.10508013 -0.0407533 -0.023794198 -0.077569544 0.036784884
0.034508433 -0.016468946 -0.032522764 0.06269659 0.06970587 -0.0690021 -0.1040468 -0.12898172
0.0072539574 0.13129145 -0.08777857 -0.15266548 -0.1130362 0.062242318 -0.15658085 0.14125606
0.13450542 -0.06831596 0.022433352 -0.14737318 0.094983734 0.08841398 -0.08433858 0.11519066
0.0955464 0.038813606 0.07252601 -0.10235941 0.12788253 0.039751966 0.055015482 -0.050907657
0.04976919 -0.029184047 -0.030331526 -0.044736274 -0.03355837 0.0076725194 0.0054065273 -0.08510983
0.030400032 0.0046998523 -0.0049457927 0.075391985 -0.11466872 -0.13342933 0.12582119 0.12490193
-0.10969187 -0.08294038 0.13742575 0.118495956 -0.08231204 -0.04082355 0.09765535 0.119026944
0.07274735 0.059357252 0.029941527 -0.11503096 -0.07599346 0.03759758 -0.10130459 0.041125994
-0.117647626 0.065083675 -0.026096825 0.025783919 0.120487906 -0.0033337004 0.07526938 0.122396074
-0.073674046 -0.09475668 -0.0828064 -0.037573297 0.035047136 -0.105387874 -0.09948658 -0.0961098
-0.05854594 0.036659434 -0.10596013 -0.09910089 -0.10580174 -0.08226498 0.072169706 0.09254551
-0.0041544586 0.06560844 0.04409253 0.13426402 -0.049162693 0.108109206 -0.12674694 0.08653499
-0.0015771991 -0.15082014 -0.020033885 0.12059456 -0.014496222 -0.139689 -0.08530617 -0.06278678
-0.11344135 0.099149026 0.051622238 0.06666919 -0.08060959 0.004233304 -0.10261858 -0.13942313
0.10335849 0.111066 -0.0130918715 0.09718463 -0.029162088 -0.12770075 -0.1040407 0.0715176
0.09526907 0.12263598 0.069533974 0.07704942 0.12757897 -0.012005696 -0.0079269335 -0.053491972
-0.017892431 -0.1494904 -0.12406527 0.05644845 -0.0014696604 0.0748859 -0.09155409 0.06843722
0.096837275 -0.100300804 0.066954456 0.103007145 -0.019219402 -0.06498916 -0.07219121 0.07186052
-0.11469683 -0.04978281 -0.0014583331 0.034622516 -0.048410166 0.026636584 -0.0044313944 -0.08002858
-0.09959841 0.051372193 -0.07178412 -0.097917356 -0.055673484 0.15126425 0.03904712 -0.05256499
00000000: f66d d1bd 6b1d e5bd c88a f8bd 3550 76bd
00000010: ef21 b137 39cf b03d 9c5b f73d 8d99 f93d
00000020: 092d 80bd 0e88 d83d bcf4 9a3d 22d6 2abd
00000030: 3b8e e83d 6804 b03c bb10 0cbc 9f44 a4bd
00000040: 5d52 733d d7fa 7b3b 350e 3e3d 861a e7bd
00000050: 41fd 253d a59d 8c3c a4bf 44bd 34d8 fc3c
00000060: 2869 8ebd a0f0 61bd 7426 cfbd c4b3 1fbd
00000070: cf54 ddbd b886 933d b508 e9bd 98c2 7abd
00000080: 3f50 a23c 60c0 7ebd e2b4 9dbd 1f73 03be
00000090: 9791 49bc c53d 233d 9d7b 8b3d d810 15bd
000000a0: 44a2 3abd e942 2e3b 0609 7a3d 7b69 91bc
000000b0: 3c77 f33d 5aa5 583c e369 f53d ff2b 02be
000000c0: f2cb f03d 4917 c1bd 252e c5bc ca71 c23d
000000d0: 7a3f f43d 1833 3dbd 56dc d1bd 9175 823d
000000e0: 4095 52bd a3a2 9f3d 3abd 223c f758 be3d
000000f0: 9a42 f03d 93d6 ea3d d539 a13d 26dc c5bc
00000100: b8b3 f03d 1a9f 0f3d 6689 fb3d 5dfd be3d
00000110: 9668 513d f784 003e b7b7 e03c 6eb8 743d
00000120: 71dd 94bd 6766 563c 50b3 8e3d 11a4 9ebd
00000130: 2fe7 58bd ece2 fb3c abec 413d 65f4 bebd
00000140: 4081 4bbc 5f92 763c 0943 2d3c 14cc 313d
00000150: 46fa 20be ce67 a23d af2f 363d bb18 48bd
00000160: 681e 8ebd 45ee 253e 47b1 65bd 4034 d7bd
00000170: efec 26bd 0dec c2bc c8dc 9ebd bfab 163d
00000180: b758 0d3d e2e9 86bc 9736 05bd 1267 803d
00000190: f3c1 8e3d f950 8dbd 7d16 d5bd c913 04be
000001a0: 9bb2 ed3b 4471 063e 40c5 b3bd 5754 1cbe
000001b0: 867f e7bd cdf1 7e3d bb56 20be 6ea5 103e
000001c0: cabb 093e 3de9 8bbd 26c6 b73c ffe8 16be
000001d0: d586 c23d 6412 b53d b5b9 acbd 15e9 eb3d
000001e0: d5ad c33d 04fb 1e3d 8488 943d cfa1 d1bd
000001f0: a3f3 023e f5d2 223d ea57 613d 8c84 50bd
00000200: c7da 4b3d 6213 efbc d279 f8bc 623d 37bd
00000210: 8074 09bd c269 fb3b 3d29 b13b 104e aebd
00000220: 7d09 f93c 3801 9a3b 5110 a2bb 1d67 9a3d
00000230: 6fd7 eabd b3a1 08be 45d7 003e 95cc ff3d
00000240: 22a6 e0bd a5dc a9bd 56b9 0c3e 02ae f23d
00000250: 3793 a8bd 9836 27bd 87ff c73d 66c4 f33d
00000260: 90fc 943d 9720 733d ef47 f53c 5a95 ebbd
00000270: 76a2 9bbd ecff 193d c878 cfbd bb73 283d
00000280: 3df1 f0bd 974a 853d 02c9 d5bc cc38 d33c
00000290: 5dc2 f63d 367a 5abb d526 9a3d cbaa fa3d
000002a0: 6be2 96bd ca0f c2bd 6796 a9bd 75e6 19bd
000002b0: 968d 0f3d 99d5 d7bd 9fbf cbbd 37d5 c4bd
000002c0: decd 6fbd 3428 163d a001 d9bd 68f5 cabd
000002d0: 95ae d8bd 8b7a a8bd b6cd 933d 8088 bd3d
000002e0: 2022 88bb b85d 863d 5e9a 343d 827c 093e
000002f0: d25e 49bd 5c68 dd3d f3c9 01be 4239 b13d
00000300: 05ba ceba 9870 1abe 1a1e a4bc 48fa f63d
00000310: 9081 6dbc a20a 0fbe 00b5 aebd 5b96 80bd
00000320: f053 e8bd a50e cb3d d771 533d db89 883d
00000330: a416 a5bd 87b7 8a3b b129 d2bd f0c4 0ebe
00000340: 9ead d33d 9276 e33d 4a7f 56bc bc08 c73d
00000350: 55e5 eebc fcc3 02be 4a13 d5bd d277 923d
00000360: 6e1c c33d 9328 fb3d d467 8e3d 16cc 9d3d
00000370: 10a4 023e 8ab3 44bc f8df 01bc 661a 5bbd
00000380: 2693 92bc 0314 19be ef15 febd 7d36 673d
00000390: 9fa1 c0ba c75d 993d b680 bbbd d028 8c3d
000003a0: 9f52 c63d 826a cdbd 6b1f 893d 69f5 d23d
000003b0: 0272 9dbc 0919 85bd fcd8 93bd 9c2b 933d
000003c0: 2ce6 eabd 0fe9 4bbd 8a25 bfba 57d0 0d3d
000003d0: bd49 46bd f734 da3c 3b35 91bb 06e6 a3bd
000003e0: 40fa cbbd a66b 523d 8d03 93bd e588 c8bd
000003f0: e109 64bd 04e5 1a3e dfef 1f3d 634e 57bd

conv2.bias f4 [16]
0.040270027 -0.027854156 0.093780965 0.025073415 -0.055314787 -0.00015242882 0.07753831 -0.06966214
0.12928821 -0.09974372 0.09557195 0.040180184 0.12976794 -0.006578775 0.06949964 0.0075730877
00000000: 2ff2 243d 662e e4bc 3c10 c03d c366 cd3c
00000010: c291 62bd 4dd5 1fb9 68cc 9e3d 06ab 8ebd
00000020: 2164 043e 6f46 ccbd 3abb c33d fa93 243d
00000030: e3e1 043e c492 d7bb d455 8e3d aa27 f83b

batchnorm2.weight f4 [16]
1.0491003 1.0544571 1.0581375 1.0489296 1.0588965 1.051575 1.0523547 1.0477797
1.0325965 1.0504465 1.0357136 1.0493894 1.0499303 1.0479634 1.0499698 1.0443785
00000000: eb48 863f 73f8 863f 0d71 873f 5343 863f
00000010: ec89 873f 029a 863f 8fb3 863f a51d 863f
00000020: 1f2c 843f 0875 863f 4392 843f 6452 863f
00000030: 1e64 863f aa23 863f 6965 863f 32ae 853f

batchnorm2.bias f4 [16]
0.024834996 0.036147654 0.0056804717 0.020399865 0.02834807 0.013312055 0.0052909655 0.011315837
0.0010244044 0.01402437 0.0033770495 0.0016594763 0.016245514 0.01248062 0.014254043 0.015362943
00000000: c372 cb3c 900f 143d 4023 ba3b 9e1d a73c
00000010: 363a e83c ce1a 5a3c d65f ad3b 0f66 393c
00000020: 4f45 863a 79c6 653c 7d51 5d3b c982 d93a
00000030: 5015 853c 847b 4c3c ca89 693c dab4 7b3c

batchnorm2.running_mean f4 [16]
0.15725406 0.5786368 0.6787041 -1.0381774 -0.18603893 0.27192774 0.33411184 -0.009969882
-0.08353183 -0.45616943 1.3157603 0.49034423 -0.07504195 -0.6771824 0.5934587 0.1782277
00000000: 3507 213e 8b21 143f 8dbf 2d3f ffe2 84bf
00000010: fd80 3ebe 1d3a 8b3e b510 ab3e b758 23bc
00000020: bc12 abbd 0a8f e9be d56a a83f 660e fb3e
00000030: 98af 99bd d35b 2dbf e9ec 173f 5281 363e

batchnorm2.running_var f4 [16]
0.25148684 0.20594199 0.21975198 0.32822174 0.18879306 0.16762958 0.20018192 0.20043296
0.13261916 0.295061 0.3767275 0.20752749 0.36585474 0.19807965 0.12198303 0.2922582
00000000: e2c2 803e 75e2 523e aa06 613e ae0c a83e
00000010: f852 413e 17a7 2b3e 7dfc 4c3e 4c3e 4d3e
00000020: 51cd 073e 3c12 973e 6de2 c03e 1682 543e
00000030: 5051 bb3e 64d5 4a3e 3dd2 f93d dea2 953e

fc1.weight f4 [128, 1024]
0.024020975 0.01947557 -0.0006596199 0.005579808 -0.00017535406 0.021743871 0.029319694 0.032528356
0.023516502 0.018663373 -0.029653195 0.028639285 -0.02673786 -0.01271382 0.047998864 0.023350297
-0.019246398 0.026348474 0.023645181 -0.024126623 0.02819204 -0.011356527 -2.2061296e-05 -0.011367127
0.020229174 0.011614305 0.003469718 -0.015385948 0.014371911 0.007883447 0.01955626 -0.024648987
0.026615534 -0.040346455 0.007587758 0.00256832 0.029418433 0.0046252315 0.019286633 0.02455337
0.041704375 0.035333805 -0.011395721 -0.014246164 -0.01540765 -0.040266015 -0.043115873 0.025248222
0.037588708 -0.02950769 0.02437184 0.03344071 0.009004624 -0.013973011 0.0025612125 -0.0056003705
0.038270738 -0.05331479 -0.010747143 -0.013806199 -0.029365381 -0.030607458 0.012238717 0.0028741548
-0.026246617 0.02468176 0.044147644 -0.01577358 0.019294687 0.0011027256 0.0037304773 0.023776432
0.03402248 0.017679773 0.015217354 -0.019668348 0.00821905 -0.00045097026 -0.01913916 0.031887915
0.011940462 -0.007043663 -0.00020702592 0.006995215 -0.014468289 0.009847855 0.027391529 -0.005558944
0.031124864 0.023575231 -0.017678104 -0.011409984 -0.014598464 0.012027425 0.0058278753 -0.018596329
0.0014991915 0.0019880205 -0.013164695 0.023845991 0.024646387 0.011418799 0.009026236 0.0053379065
-0.015182539 0.022442292 0.029431356 0.008813593 0.011530091 -0.034185525 -0.005066634 -0.034842487
0.009083509 -0.032816563 -0.014976088 0.035386447 -0.029623318 -0.0064799585 0.0034760304 -0.033879917
-0.010325913 -0.027617551 0.02427743 0.027273674 -0.00039779796 0.00923627 0.016737975 0.0021709155
0.024343967 0.013434755 -0.00691172 -0.020354146 0.01100875 0.033917036 0.012061956 -0.011314075
-0.022732964 -0.0039589 0.0060667517 -0.012981317 0.003301372 -0.018655615 0.027802378 -0.027385801
-0.03814527 0.0074865245 0.013770025 0.029237866 0.017693302 -0.0077432645 0.026608834 -0.0046697864
-0.026411919 0.015178699 -0.011470945 -0.02306453 -0.021394903 0.009232333 -0.05264912 -0.02422159
0.006002589 -0.022518268 0.023035543 -0.022714116 -0.019971853 0.02624697 -0.032914203 0.03795767
-0.0104917865 -0.0025157742 -0.0378859 0.014963 0.02446715 9.6188276e-05 -0.012832496 -0.016647778
0.0010992005 -0.016544688 -0.036791276 -0.0032308395 -0.024862958 -0.0046954495 -0.0052032657 -0.018387286
-0.027153058 0.013733018 0.023601206 0.0021188098 -0.027536493 0.0041422034 -0.04535297 -0.030687112
0.0001767002 -0.0075502517 0.027392823 -0.0042935475 -0.006258379 -0.016238296 -0.00985738 7.1347145e-05
-0.011371762 -0.0040670848 0.0045408993 -0.021829076 -0.037543043 -0.02848433 -0.034212176 -0.030359477
0.00075917825 0.03674527 -0.015609004 0.007928826 0.004112897 0.00377795 0.00033242363 -0.014691273
0.03123148 0.041149694 0.021624604 -0.007228616 0.033552762 0.0019281851 0.03577051 0.02239617
0.0128464075 0.046211414 -0.003449403 -0.03173378 0.032658853 -0.022520041 -0.008911421 0.004574519
0.009167395 -0.028359456 0.010796649 -0.00808778 0.012573169 -0.004645431 0.030002793 -0.041027926
-0.027999906 -0.024268474 0.007774689 0.010888305 0.007338208 0.018856367 0.0021259435 -0.01273378
-0.010135913 0.026525177 0.008169359 -0.0168178 -0.009502508 0.026647488 0.03238951 -0.029522743
00000000: a3c7 c43c 3b8b 9f3c 58ea 2cba d2d6 b63b
00000010: 3fdf 37b9 3420 b23c db2f f03c 743c 053d
00000020: aea5 c03c eee3 983c 42eb f2bc ef9c ea3c
00000030: 5b09 dbbc a04d 50bc 759a 443d 1f49 bf3c
00000040: 9faa 9dbc c1d8 d73c 8ab3 c13c 32a5 c5bc
00000050: fef2 e63c ba10 3abc 4610 b9b7 303d 3abc
00000060: a7b7 a53c ed49 3e3c 3564 633b 5815 7cbc
00000070: 2a78 6b3c 9329 013c 7334 a03c acec c9bc
00000080: d208 da3c 5342 25bd baa2 f83b 4251 283b
00000090: edfe f03c 418f 973b 00ff 9d3c 2624 c93c
000000a0: 35d2 2a3d 2eba 103d 1eb5 3abc be68 69bc
000000b0: 5e70 7cbc faed 24bd 459a 30bd 5cd5 ce3c
000000c0: 9ef6 193d 1cba f1bc 74a7 c73c 20f9 083d
000000d0: 2188 133c 0eef 64bc 04da 273b 5083 b7bb
000000e0: c7c1 1c3d 9c60 5abd c914 30bc 6533 62bc
000000f0: ab8f f0bc 7ebc fabc e684 483c 515c 3c3b
00000100: 2503 d7bc 6731 ca3c 29d4 343d 9837 81bc
00000110: e40f 9e3c 5589 903a 067b 743b cbc6 c23c
00000120: 285b 0b3d 2cd5 903c 3552 793c 841f a1bc
00000130: 32a9 063c 3470 ecb9 bac9 9cbc e79c 023d
00000140: eda1 433c 87ce e6bb 1915 59b9 1e38 e53b
00000150: 670c 6dbc e658 213c 3364 e03c cd27 b6bb
00000160: 92f9 fe3c d820 c13c acd1 90bc f1f0 3abc
00000170: 652e 6fbc ad0e 453c c3f7 be3b 5457 98bc
00000180: 8580 c43a 7349 023b bcb0 57bc ab58 c33c
00000190: 38e7 c93c ea15 3b3c c7e2 133c 9be9 ae3b
000001a0: 2fc0 78bc e6d8 b73c 071a f13c e366 103c
000001b0: b5e8 3c3c 1f06 0cbd 0206 a6bb ffb6 0ebd
000001c0: 00d3 143c a96a 06bd 445e 75bc 61f1 103d
000001d0: 9aac f2bc d555 d4bb 1dce 633b abc5 0abd
000001e0: 052e 29bc 343e e2bc 76e1 c63c 0a6d df3c
000001f0: 8a8f d0b9 b953 173c 141e 893c eb45 0e3b
00000200: 006d c73c 721d 5c3c b67b e2bb bdbd a6bc
00000210: 0b5e 343c 97ec 0a3d 839f 453c ac5e 39bc
00000220: 7b3a babc a9b9 81bb 9acb c63b 97af 54bc
00000230: d55b 583b a9d3 98bc d0c1 e33c 3058 e0bc
00000240: 373e 1cbd 8551 f53b ac9b 613c 4084 ef3c
00000250: 8bf1 903c 36bb fdbb c5fa d93c 0205 99bb
00000260: cf5d d8bc 14b0 783c a1f0 3bbc d3f1 bcbc
00000270: 5d44 afbc 3643 173c 9ba6 57bd 5b6c c6bc
00000280: 5eb1 c43b 3b78 b8bc 09b5 bc3c f412 babc
00000290: 039c a3bc e303 d73c 0bd1 06bd 8079 1b3d
000002a0: bee5 2bbc b0df 24bb 3f2e 1bbd 5f27 753c
000002b0: 556f c83c b0b8 c938 643f 52bc ec60 88bc
000002c0: 0c13 903a ba88 87bc 73b2 16bd 7ebc 53bb
000002d0: 67ad cbbc 49dc 99bb 2880 aabb efa0 96bc
000002e0: 1770 debc 7400 613c 5157 c13c bbdb 0a3b
000002f0: 3694 e1bc 52bb 873b 09c4 39bd 8a63 fbbc
00000300: 9948 3939 1a68 f7bb ea66 e03c e3b0 8cbb
00000310: 1713 cdbb 2d06 85bc d980 21bc 35a0 9538
00000320: a050 3abc 2e45 85bb d3cb 943b e4d2 b2bc
00000330: bcc6 19bd f857 e9bc 1122 0cbd 70b4 f8bc
00000340: 9703 473a 3582 163d e8bc 7fbc e8e7 013c
00000350: 7bc5 863b 7c97 773b 2549 ae39 aab3 70bc
00000360: 29d9 ff3c 958c 283d 1526 b13c 07de ecbb
00000370: 9f6e 093d 28bb fc3a 1984 123d 2c78 b73c
00000380: bd79 523c 2e48 3d3d 610f 62bb 48fb 01bd
00000390: 4ac5 053d f37b b8bc 3501 12bc d9e5 953b
000003a0: d732 163c 1752 e8bc 6ee4 303c 9c82 04bc
000003b0: b1ff 4d3c b338 98bb 6bc8 f53c e60c 28bd
000003c0: 0f60 e5bc aece c6bc d1c2 fe3b dc64 323c
000003d0: 5a75 f03b ab78 9a3c 6a53 0b3b 58a1 50bc
000003e0: 1a11 26bc 544b d93c c6d8 053c 7cc5 89bc
000003f0: 68b0 1bbc d54b da3c ddaa 043d aed9 f1bc

fc1.bias f4 [128]
0.017074693 0.008437886 0.003994909 0.024600403 -0.01788136 0.019192776 0.011298701 -0.011972216
-0.004741866 0.0016168595 -0.0024185434 0.0063539776 0.02562852 0.02572758 -0.009133758 0.008206619
0.00500461 0.0035771977 -0.0026135182 0.006467653 0.019486483 -0.012220546 -0.01687659 -0.012714701
-0.010759519 -0.023106594 0.0005626885 0.020055907 0.029752655 -0.019049298 -0.008757313 0.005061986
0.010831957 0.02276132 0.016139682 -0.025361601 -0.016532388 -0.011777654 -0.0020030946 -0.023760684
0.00948182 0.02135019 -0.017061371 0.006715598 0.02139523 0.025624864 0.0070206416 -0.009267803
0.007638431 -0.006232957 -0.024338236 -0.013450734 0.023376804 -0.004597662 0.006394109 -0.015985092
-0.027103532 -0.012348218 0.02560581 0.024460774 0.019218132 -0.01171432 0.020213192 -0.009811243
-0.0005981796 0.021917852 0.028132368 -0.0043731234 -0.0081013935 -0.009423691 -0.016062496 0.011988663
0.024970569 -0.02123047 -0.006334934 0.029705476 0.021262279 0.0029311043 0.00890073 -0.01937741
0.014194135 -0.018206192 0.0011479331 -0.009454854 -0.010272815 0.012546097 0.0041988348 -0.008313707
-0.016833488 -0.012025675 0.012459383 0.0043170247 0.0031580168 -0.006686946 0.020365564 0.028529089
-0.015101448 0.025664613 -0.031170424 0.028263986 -0.011772195 -0.006325641 -0.012396596 -0.028118225
-0.016223328 -0.010425338 0.0037026987 0.005015675 0.0007561241 0.016824827 -0.031037282 0.026627645
0.025110042 0.0040647225 0.002137837 -0.008770763 -0.026554171 0.002591391 -0.025623765 0.021828
0.012567687 -0.0011233828 -0.030789757 -0.012240568 -0.02084257 -0.0066169463 0.02977429 0.011410884
00000000: 3ae0 8b3c 0f3f 0a3c bae7 823b c986 c93c
00000010: ee7b 92bc 2b3a 9d3c 301e 393c 1d27 44bc
00000020: a861 9bbb cdec d33a 6d80 1ebb 0735 d03b
00000030: e7f2 d13c a5c2 d23c c2a5 15bc 0e75 063c
00000040: b6fd a33b 6b6f 6a3b 8f47 2bbb 9bee d33b
00000050: 1ea2 9f3c af38 48bc c640 8abc 5251 50bc
00000060: b248 30bc 0a4a bdbc 6381 133a 494c a43c
00000070: d7bb f33c 460d 9cbc d57a 0fbc 04df a53b
00000080: 8578 313c f375 ba3c 5e37 843c 22c3 cfbc
00000090: ee6e 87bc 10f7 40bc 5a46 03bb c4a5 c2bc
000000a0: a359 1b3c 98e6 ae3c 4ac4 8bbc 850e dc3b
000000b0: 0d45 af3c 3ceb d13c 690d e63b fcd7 17bc
000000c0: ce4b fa3b d53d ccbb fb60 c7bc 7860 5cbc
000000d0: b680 bf3c fca7 96bb ad85 d13b 2bf3 82bc
000000e0: 3a08 debc 2e50 4abc 47c3 d13c f661 c83c
000000f0: 586f 9d3c 6bed 3fbc 2396 a53c 56bf 20bc
00000100: 27cf 1cba 118d b33c da75 e63c 6b4c 8fbb
00000110: b5bb 04bc d365 1abc 7f95 83bc 196c 443c
00000120: 148f cc3c 86eb adbc 4795 cfbb e658 f33c
00000130: 3b2e ae3c c517 403b 5ed4 113c 60bd 9ebc
00000140: 848e 683c 2725 95bc 3e76 963a 88e8 1abc
00000150: 4f4f 28bc 258e 4d3c 6196 893b 3736 08bc
00000160: 62e6 89bc 5607 45bc 7122 4c3c d475 8d3b
00000170: bbf6 4e3b 2b1e dbbb afd5 a63c d6b5 e93c
00000180: 106c 77bc 983e d23c 1e59 ffbc e089 e73c
00000190: 2ae0 40bc 5347 cfbb 181b 4bbc 3158 e6bc
000001a0: c9e6 84bc 09cf 2abc faa8 723b 885a a43b
000001b0: a136 463a 38d4 893c e641 febc 3822 da3c
000001c0: 93b3 cd3c 5d31 853b f41a 0c3b 3fb3 0fbc
000001d0: 2288 d9bc 54d4 293b eee8 d1bc a2d0 b23c
000001e0: b3e8 4d3c 793e 93ba cd3a fcbc aa8c 48bc
000001f0: 0abe aabc f8d2 d8bb 36e9 f33c b7f4 3a3c

fc2.weight f4 [5, 128]
0.07503588 0.07158424 0.06802619 -0.024527652 -0.013666546 -0.04579789 -0.0016348917 0.05504797
0.08977534 0.047049057 0.012266673 0.03469805 0.022922017 -0.10412342 -0.00981347 0.020857425
0.07074329 0.013621209 0.02290864 -0.04830706 0.076385744 -0.083635144 -0.019548465 0.05790708
-0.024827663 0.07749381 -0.048424963 0.048688635 -0.0041435314 0.035618737 0.08328901 0.022571735
0.047460794 -0.061160255 0.074057125 -0.0061254487 0.035756186 0.05343151 0.032460738 -0.09520921
0.06681338 0.018066598 -0.09819702 0.089335725 -0.008768577 -0.024118155 0.104569376 -0.09246633
-0.0112783145 -0.104344174 0.030644856 -0.06835433 0.04650744 0.02873805 -0.0031971734 -0.05598653
-0.089685164 0.08739494 0.006904711 0.0060211085 -0.03146535 -0.06950651 0.08832258 0.056046166
0.05793807 -0.11331176 0.026839059 -0.056342203 0.09772257 -0.096655235 -0.0204046 0.05579048
0.053884797 -0.06881873 -0.062540494 -0.06687498 -0.046493456 -0.05565127 -0.09786301 -0.08562319
0.03705404 0.07480319 -0.033548556 0.071829356 -0.06577111 0.055966854 -0.00944062 0.09315658
0.06391878 0.05809056 -0.028266171 0.017205888 0.11327316 -0.040920127 -0.0626806 0.033556383
-0.012185752 -0.08528378 0.00649355 -0.0491734 -0.0063242395 -0.057477333 0.0016984101 -0.08486758
0.004886131 -0.0058104866 -0.06996821 -0.059479274 -0.025397878 -0.07652246 -0.015985673 0.050806247
0.060789473 -0.06711118 -0.08354073 0.08413451 -0.002378738 0.061857086 -0.02523413 -0.0048544207
-0.110275865 0.06847371 0.08094874 0.08486535 0.06649197 -0.04954316 -0.048611525 0.060444012
-0.0008244895 -0.1313743 -0.044634055 0.011283122 0.016996851 -0.087007225 0.026350845 0.06701815
0.09517837 -0.095493354 -0.07722241 0.018811584 -0.080317244 0.114347614 -0.03406948 0.016623903
-0.057067692 -0.09354209 -0.07872984 -0.07941472 -0.0457164 -0.08224995 -0.058710426 -0.0774973
0.024036683 0.074569896 -0.05549395 -0.064207956 0.019859469 0.025518881 -0.10823009 -0.024258304
-0.06867834 -0.021793492 0.022387426 -0.019162215 0.05366056 -0.04733604 0.015418363 0.07850255
-0.0987562 -0.039966825 0.052320052 0.098123014 -0.058309376 0.06331743 -0.07854659 0.006774163
-0.05980586 0.030418264 -0.06252244 0.017910395 -0.07176795 -0.028745964 -0.13548103 0.078022115
0.055015948 0.08973816 0.023809906 0.009864424 -0.11699505 -0.11397701 -0.11222217 0.062395625
0.04089433 -0.0058033247 0.039813906 -0.0081849145 0.08637111 0.021251956 -0.026932057 -0.050360408
0.05388546 -0.0134824775 0.07949222 -0.08648819 0.058547292 -0.05367554 0.026638705 0.023943236
0.0775719 -0.0780461 0.058161646 -0.06524694 -0.057949673 0.05975569 -0.07085948 -0.057725377
0.08628056 -0.118529014 0.098512225 0.07880692 -0.0656365 0.016122092 0.03983052 0.055042583
0.07908226 -0.04443105 -0.059297413 0.056922097 -0.1318266 0.10380015 -0.02765205 0.04053836
-0.13940921 -0.072964355 0.0015419719 0.008281101 0.068131395 -0.06367146 -0.07909763 0.02533359
0.081605926 0.06864433 -0.0008355845 0.07227931 0.076633304 0.09259112 0.08151198 -0.057758763
0.049780995 0.0278614 -0.018712265 -0.08212448 0.06507622 -0.11687997 -0.08936285 0.05734269
00000000: 69ac 993d c29a 923d 5151 8b3d 37ee c8bc
00000010: a6e9 5fbc 9196 3bbd dd49 d6ba fb79 613d
00000020: 22dc b73d 83b6 403d 28fa 483c 8b1f 0e3d
00000030: f4c6 bb3c a93e d5bd adc8 20bc 31dd aa3c
00000040: dce1 903d 7e2b 5f3c e6aa bb3c a0dd 45bd
00000050: 2170 9c3d e748 abbd 1a24 a0bc f92f 6d3d
00000060: 6263 cbbc 13b5 9e3d 4159 46bd bc6d 473d
00000070: 76c6 87bb f4e4 113d 6e93 aa3d 5ce8 b83c
00000080: 4066 423d 2d83 7abd 43ab 973d fdb7 c8bb
00000090: 1475 123d 00db 5a3d 8df5 043d 0cfd c2bd
000000a0: 74d5 883d 6700 943c 851b c9bd a6f5 b63d
000000b0: 14aa 0fbc 7093 c5bc 7828 d63d fd5e bdbd
000000c0: aec8 38bc 66b2 d5bd ec0a fb3c 5bfd 8bbd
000000d0: 967e 3e3d 0f6c eb3c ab87 51bb 2252 65bd
000000e0: dbac b7bd 1efc b23d ea40 e23b b84c c53b
000000f0: d0e1 00bd 6e59 8ebd 78e2 b43d aa90 653d
00000100: 7850 6d3d ff0f e8bd 96dd db3c 15c7 66bd
00000110: c522 c83d 2ef3 c5bd 8c27 a7bc 8f84 643d
00000120: 4eb6 5c3d d6f0 8cbd 3b15 80bd c0f5 88bd
00000130: ec6f 3ebd 96f2 63bd 676c c8bd 365b afbd
00000140: fac5 173d 6a32 993d 366a 09bd 451b 933d
00000150: 01b3 86bd 803d 653d d5ac 1abc e1c8 be3d
00000160: d9e7 823d 5ef0 6d3d 758e e7bc 5df3 8c3c
00000170: c2fb e73d dd9b 27bd b05e 80bd 6b72 093d
00000180: c0a6 47bc 43a9 aebd d8c7 d43b 0c6a 49bd
00000190: 913b cfbb 5a6d 6bbd 309d de3a 0ecf adbd
000001a0: d61b a03b e565 bebb 7e4b 8fbd 8aa0 73bd
000001b0: 360f d0bc cfb7 9cbd 63f4 82bc 361a 503d
000001c0: 62fe 783d 9671 89bd 6717 abbd b74e ac3d
000001d0: 9ae4 1bbb db5d 7d3d ceb7 cebc d511 9fbb
000001e0: 50d8 e1bd f23b 8c3d 74c8 a53d e2cd ad3d
000001f0: f12c 883d c5ed 4abd e11c 47bd 2494 773d
00000200: 8e22 58ba fc86 06be 33d2 36bd d8dc 383c
00000210: fb3c 8b3c d830 b2bd badd d73c d040 893d
00000220: e1ec c23d 0592 c3bd c826 9ebd c01a 9a3c
00000230: 5e7d a4bd 152f ea3d 708c 0bbd da2e 883c
00000240: d0bf 69bd ff92 bfbd 1c3d a1bd 2fa4 a2bd
00000250: 1f41 3bbd a972 a8bd 587a 70bd e8b6 9ebd
00000260: 94e8 c43c 1ab8 983d a04d 63bd 767f 83bd
00000270: 53b0 a23c f90c d13c bda7 ddbd 5ab9 c6bc
00000280: 3ba7 8cbd 4488 b2bc d665 b73c 14fa 9cbc
00000290: 2dcb 5b3d 6fe3 41bd 4d9d 7c3c f2c5 a03d
000002a0: b140 cabd 41b4 23bd 8d4d 563d b8f4 c83d
000002b0: d0d5 6ebd 92ac 813d 09dd a0bd ccf9 dd3b
000002c0: fdf6 74bd b92f f93c c40b 80bd d2b8 923c
000002d0: 13fb 92bd a87c ebbc 8abb 0abe 0fca 9f3d
000002e0: 6758 613d a4c8 b73d fe0c c33c 659e 213c
000002f0: 1a9b efbd c76c e9bd bdd4 e5bd 8e92 7f3d
00000300: d080 273d d129 bebb e813 233d 051a 06bc
00000310: 56e3 b03d 9518 ae3c 9ea0 dcbc b746 4ebd
00000320: 00b7 5c3d 9ce5 5cbc d1cc a23d b820 b1bd
00000330: 49cf 6f3d e2da 5bbd 6a39 da3c 9b24 c43c
00000340: 04de 9e3d a2d6 9fbd e83a 6e3d 30a0 85bd
00000350: a35c 6dbd 62c2 743d c61e 91bd 7271 6cbd
00000360: ddb3 b03d 57bf f2bd c7c0 c93d 8665 a13d
00000370: 6e6c 86bd 7a12 843c 5425 233d 5574 613d
00000380: e1f5 a13d 55fd 35bd d8e1 72bd 2527 693d
00000390: 8dfd 06be 2c95 d43d 8d86 e2bc 8d0b 263d
000003a0: 4ac1 0ebe 566e 95bd fe1b ca3a 74ad 073c
000003b0: 7988 8b3d 2f66 82bd f0fd a1bd 6488 cf3c
000003c0: 0221 a73d 6695 8c3d 200b 5bba 2d07 943d
000003d0: ecf1 9c3d 6aa0 bd3d c1ef a63d 7494 6cbd
000003e0: 28e7 4b3d 973d e43c 774a 99bc e130 a8bd
000003f0: ae46 853d c45e efbd df03 b7bd 2be0 6a3d

fc2.bias f4 [5]
-0.012159068 0.06808385 0.03230538 0.03861187 0.042782348
00000000: d436 47bc 8c6f 8b3d a552 043d 7b27 1e3d
00000010: 8b3c 2f3d
