imitation_learning/models/agent.pt (torch_old, 538361 bytes, 20 tensors)

batchnorm0.weight f4 [3]
1.0019293 0.99805844 1.000124
00000000: 383f 803f c280 7f3f 1004 803f

batchnorm0.bias f4 [3]
0.00044438144 0.00028514015 -0.00024853952
00000000: defb e839 dd7e 9539 694e 82b9

batchnorm0.running_mean f4 [3]
0.49463192 0.492265 0.49462187
00000000: 6540 fd3e 280a fc3e 143f fd3e

batchnorm0.running_var f4 [3]
0.16177377 0.16244683 0.16200653
00000000: 06a8 253e 7658 263e 0ae5 253e

conv1.weight f4 [6, 3, 7, 7]
-0.055836707 -0.07663425 0.007478352 0.005763061 0.023868218 0.037341423 -0.026571603 0.07626543
-0.05900162 0.033481028 -0.0137231145 0.048660073 -0.042178247 0.055390403 0.040901877 0.04223241
-0.04145621 -0.06555948 -0.006458239 0.04977669 -0.029259328 0.024040133 -0.074631326 0.028002316
-0.0029731218 0.044079028 -0.0027025999 0.025115347 0.056249227 0.018659538 -0.03089902 0.01461903
-0.0065778657 -0.07078602 0.021168284 0.06359086 0.036452536 0.062200747 0.02182198 0.08246594
0.020726502 -0.020722857 0.004979766 -0.037220303 0.06448879 0.06466548 0.01800314 -0.07822885
0.034560394 -0.06270194 -0.045404002 0.016177146 -0.04677053 0.06496532 -0.042379193 -0.018233057
-0.04970191 -0.025640717 0.00024074074 0.06838538 0.06121842 0.009066718 0.050022587 0.06785354
-0.030071098 -0.046846528 0.056413505 0.00808014 -0.051903225 0.04071834 -0.036629185 -0.04660836
-0.009827052 0.022096027 0.008475497 -0.031755157 -0.011308488 -0.06576639 -0.044731375 0.07052782
0.04611884 0.015143281 0.06211148 0.04365934 -0.064411946 -0.06972638 0.06498397 0.019534929
0.06664796 -0.06244019 -0.06803656 -0.04324609 0.014443445 0.019041091 -0.06823748 -0.026402669
-0.06868889 -0.058796413 -0.06025268 0.0020755015 0.029716283 -0.06334989 -0.075448275 -0.06981506
-0.03217984 -0.083192945 -0.0010493957 0.047006015 0.07896264 -0.05479038 0.08402061 0.009113177
0.012758819 -0.012855216 -0.038151156 0.045949332 0.0073329825 -0.04569087 0.04459158 -0.0255488
0.061830346 0.0019839515 0.042511836 0.050756957 0.012873771 0.064611904 -0.066074654 0.046170894
0.054753575 -0.0668899 0.038158633 -0.04118088 0.04818429 -0.014484346 -0.07617241 -0.040765654
0.023307735 0.02557271 -0.056058206 0.069229275 -0.004661016 -0.015698632 -0.04851089 0.046503615
0.043241292 -0.047128044 0.027807131 0.04292121 -0.037589077 -0.026886135 0.033540692 -0.058509875
0.0099145165 -0.07723459 0.06812691 0.07595916 0.01268841 -0.07496096 0.034153115 -0.076427154
0.043306213 0.052368272 -0.020512886 0.052221213 0.0406077 0.054005966 0.045193724 -0.08254111
-0.036297947 -0.01221239 -0.06201564 0.030628059 0.00807281 0.06240756 -0.0034073135 -0.051375005
0.06648987 0.036168866 -0.06100834 0.046801634 0.06869545 -0.03293056 0.061013494 0.016417209
0.00880909 -0.0747829 0.009741913 -0.079666264 -0.00022382423 -0.0209584 0.08084445 -0.03664608
0.04072302 0.040758 0.05484007 0.081494145 -0.014064918 -0.054466553 -0.0602435 -0.00826698
-0.030450191 -0.072766915 -0.021875184 -0.047160227 -0.0014631064 -0.047612768 0.043014303 -0.055609927
0.021796996 -0.021158671 0.07050195 -0.017665565 0.009555241 0.04084375 0.049960174 -0.05177331
0.06084989 -0.034040444 0.06286721 -0.07141466 0.07527128 -0.05198652 -0.06696904 0.029287226
0.02528929 -0.011558377 0.006347324 0.06659405 0.08090161 0.0094733145 0.03575963 -0.042857096
-0.003548488 0.07314609 0.040784545 0.025529029 0.049722094 0.07390063 -0.021531291 -0.028763896
0.016203975 -0.013917827 -0.04543698 0.0046382286 0.02219573 0.02076256 0.03962089 -0.014508285
0.06027272 0.012264721 0.0024958216 0.067662895 0.06219227 0.0696864 0.06480115 -0.05976616
00000000: 08b5 64bd 6bf2 9cbd f70c f53b 0fd8 bc3b
00000010: 4887 c33c 52f3 183d b1ac d9bc 0d31 9c3d
00000020: afab 71bd 6723 093d ead6 60bc c94f 473d
00000030: 19c3 2cbd 0ce1 623d ba88 273d e4fb 2c3d
00000040: fdcd 29bd 0c44 86bd a39f d3bb a4e2 4b3d
00000050: 42b1 efbc d0ef c43c 4fd8 98bd 1d65 e53c
00000060: b5d8 42bb 368c 343d 1a1e 31bb b3be cd3c
00000070: 9765 663d e3db 983c f11f fdbc a884 6f3c
00000080: 238b d7bb 43f8 90bd 1c69 ad3c ed3b 823d
00000090: 414f 153d 36c6 7e3d 02c4 b23c e7e3 a83d
000000a0: a0ca a93c fbc2 a9bc 4e2d a33b 5174 18bd
000000b0: b312 843d 566f 843d 527b 933c 7336 a0bd
000000c0: 338f 0d3d e069 80bd 8cf9 39bd ef85 843c
000000d0: 7592 3fbd 8a0c 853d ce95 2dbd 7e5d 95bc
000000e0: 3b94 4bbd 7b0c d2bc 5a6f 7c39 a20d 8c3d
000000f0: 2ac0 7a3d 928c 143c 7ce4 4c3d ccf6 8a3d
00000100: aa57 f6bc 25e2 3fbd d911 673d 9062 043c
00000110: 7a98 54bd 46c8 263d 7c08 16bd 68e8 3ebd
00000120: a501 21bc ba02 b53c d0dc 0a3c b211 02bd
00000130: 3d47 39bc 87b0 86bd 3f38 37bd e470 903d
00000140: 1ce7 3c3d 861b 783c 9b68 7e3d 23d4 323d
00000150: 69ea 83bd b4cc 8ebd 5116 853d b707 a03c
00000160: ba7e 883d 49c1 7fbd c156 8bbd d022 31bd
00000170: 33a4 6c3c 10fc 9b3c 18c0 8bbd 694a d8bc
00000180: c3ac 8cbd 82d4 70bd 84cb 76bd 2305 083b
00000190: 906f f33c 96bd 81bd a084 9abd 33fb 8ebd
000001a0: 02cf 03bd 1061 aabd e08b 89ba 6189 403d
000001b0: 2ab7 a13d e16b 60bd ff12 ac3d 6f4f 153c
000001c0: 5e0a 513c af9e 52bc 6344 1cbd 5e35 3c3d
000001d0: 8449 f03b 5a26 3bbd a9a5 363d b84b d1bc
000001e0: d141 7d3d 2f05 023b e420 2e3d 87e6 4f3d
000001f0: 82ec 523c 3f53 843d 2652 87bd b11d 3d3d
00000200: 4945 603d 92fd 88bd 3a4c 1c3d 48ad 28bd
00000210: e45c 453d c04f 6dbc 4800 9cbd e3f9 26bd
00000220: ddef be3c dc7d d13c 4a9d 65bd 14c8 8d3d
00000230: 70bb 98bb 6b9a 80bc 5bb3 46bd 937a 3e3d
00000240: c81d 313d 5609 41bd c8cb e33c 27ce 2f3d
00000250: 01f7 19bd 5040 dcbc f761 093d 0da8 6fbd
00000260: 7f70 223c 2b2d 9ebd 1f86 8b3d 7a90 9b3d
00000270: 0ce3 4f3c 2285 99bd 23e4 0b3d d785 9cbd
00000280: db61 313d 1d80 563d a40a a8bc e9e5 553d
00000290: 4254 263d 5c35 5d3d 0e1d 393d 500b a9bd
000002a0: 28ad 14bd 7a16 48bc 1d04 7ebd b2e7 fa3c
000002b0: d243 043c 129f 7f3d 3c4d 5fbb 996e 52bd
000002c0: d72b 883d ce25 143d e2e3 79bd 12b3 3f3d
000002d0: 33b0 8c3d 32e2 06bd 49e9 793d 627d 863c
000002e0: 0054 103c c727 99bd 8b9c 1f3c 1128 a3bd
000002f0: 5cb2 6ab9 f3b0 abbc c691 a53d 331a 16bd
00000300: 2ecd 263d dcf1 263d fb9f 603d 67e6 a63d
00000310: 8b70 66bc 5218 5fbd e3c1 76bd 3a72 07bc
00000320: ae72 f9bc d206 95bd 9633 b3bc 152b 41bd
00000330: b4c5 bfba 9b05 43bd c42f 303d 3cc7 63bd
00000340: 9d8f b23c f354 adbc 5463 903d 60b7 90bc
00000350: 968d 1c3c c74b 273d 0aa3 4c3d 4010 54bd
00000360: bc3d 793d fe6d 0bbd 86c0 803d d941 92bd
00000370: d427 9a3d d1ef 54bd 1027 89bd c4eb ef3c
00000380: 7c2b cf3c 595f 3dbc 36fd cf3b 7662 883d
00000390: beaf a53d f635 1b3c b178 123d ec8a 2fbd
000003a0: c08d 68bb 9ecd 953d b20d 273d 4122 d13c
000003b0: 65a9 4b3d 3759 973d 6462 b0bc 43a2 ebbc
000003c0: 33be 843c 9907 64bc 201c 3abd 48fc 973b
000003d0: d2d3 b53c 3f16 aa3c 8449 223d 28b4 6dbc
000003e0: 87e0 763d f8f1 483c f090 233b d892 8a3d
000003f0: 52bd 7e3d beb7 8e3d 77b6 843d 5ccd 74bd

conv1.bias f4 [6]
0.040261168 -0.06777651 0.049623344 0.057321936 0.07506725 -0.04458597
00000000: e5e8 243d 69ce 8abd d941 4b3d 68ca 6a3d
00000010: dcbc 993d c79f 36bd

batchnorm1.weight f4 [6]
1.0013001 0.99976283 0.9987413 1.0004925 0.9999451 0.9990303
00000000: 9a2a 803f 75f0 7f3f 83ad 7f3f 2310 803f
00000010: 67fc 7f3f 73c0 7f3f

batchnorm1.bias f4 [6]
-8.6364504e-05 0.00019184529 6.741125e-06 0.0019971523 -0.0008682401 0.0004777457
00000000: 971e b5b8 142a 4939 d331 e236 a8e2 023b
00000010: 9b9a 63ba f179 fa39

batchnorm1.running_mean f4 [6]
0.03993955 -0.055330154 0.05701151 0.046684567 0.07774623 -0.059570007
00000000: a797 233d dfa1 62bd e784 693d 5138 3f3d
00000010: 6a39 9f3d aeff 73bd

batchnorm1.running_var f4 [6]
0.31494612 0.36894703 0.777961 0.5682668 0.19476779 0.20003939
00000000: 9e40 a13e a0e6 bc3e 7428 473f ef79 113f
00000010: 3571 473e 20d7 4c3e

conv2.weight f4 [16, 6, 3, 3]
0.1102827 0.0012192103 -0.0064517315 0.12760404 0.058752786 -0.00030073334 0.08352068 -0.07640125
-0.007020831 0.076724656 0.0360734 0.023049366 -0.09296549 0.082136266 0.082509294 0.046781227
0.0432333 -0.04956569 -0.009873797 -0.045554314 -0.078256495 -0.075765505 -0.09989028 0.09027896
0.011536411 0.12994556 0.010101221 -0.119593985 0.016899606 -0.030519392 0.12998267 0.12146319
0.11941204 -0.07120268 0.13408084 -0.011398952 0.108272105 -0.007787121 0.04114544 -0.10446689
0.113393396 -0.1355145 0.10206172 -0.12552 0.050095744 -0.030785544 0.075965844 -0.08438853
0.12398007 -0.050764013 -0.07732087 -0.06714836 0.12184201 -0.032252986 -0.046399053 0.057011753
-0.017814785 -0.005934628 0.033940602 0.0684294 -0.024887998 0.066121176 0.05856401 -0.09378444
0.122825146 -0.0697197 0.00040906435 -0.028194526 0.08878245 -0.107697986 0.015440063 0.10115587
-0.13454543 -0.043300405 0.012753346 -0.023090338 0.102330215 0.13753562 0.028870812 -0.058827206
-0.12315125 -0.1357145 -0.11112451 -0.10007884 0.12274254 0.08159511 0.10334265 -0.08464292
-0.12707694 -0.12550312 -0.122095 -0.08688868 -0.10935247 -0.008497912 -0.06952523 -0.040557157
0.009867175 0.06808423 -0.002227118 0.086638846 0.11869093 0.10752371 0.06604529 -0.07881053
0.014754964 0.07128515 -0.03935397 0.01003935 0.0038078225 -0.0035459548 -0.08843164 -0.09727611
-0.013553127 0.07578203 -0.13526447 -0.002258407 -0.025398046 0.09375216 0.10975841 0.060030736
-0.07713817 0.09087342 0.11683466 0.1277398 -0.020137759 0.026058951 -0.04322446 -0.017540688
0.034824368 0.08829122 0.025485178 0.07821389 -0.08568645 -0.04010135 -0.08575183 -0.11694097
0.09340044 -0.016097957 0.043687485 0.11709299 -0.12568347 -0.08846994 -0.07639126 0.13126852
0.09067517 -0.04607385 -0.025875341 -0.017289527 0.008490214 0.05359514 0.08902613 0.11968086
0.026158174 -0.09268684 -0.0072786654 -0.11191504 -0.042400956 0.032457527 -8.964412e-06 0.07649167
-0.104671285 0.054827224 0.13054553 -0.06236368 -0.12636253 0.1090223 -0.106753156 -0.11956337
0.02388407 0.07285249 0.033375565 -0.123472 0.12995937 -0.012260703 0.038637273 -0.0065322085
0.13218267 -0.011950264 -0.024403742 0.12861575 -0.058561787 -0.09613097 0.0526197 0.13162671
-0.048683085 0.11440478 0.033074632 -0.042263698 0.12532695 0.13268314 -0.1012719 -0.10138883
-0.086722665 -0.03558204 0.09750968 0.03641307 0.077802025 -0.0113447355 -0.0575021 -0.010874924
0.029144423 0.121608876 -0.020519484 -0.11236897 0.043830756 0.06369074 0.04612599 0.027150195
0.11686159 -0.045481294 -0.13061525 0.09663577 -0.08680944 -0.025218127 -0.011565824 -0.0674639
0.05004183 0.13013567 0.0013398869 0.07331967 -0.045592133 -0.018249242 -0.0032609566 0.08118303
-0.007948332 -0.056909245 -0.049471278 -0.105633415 -0.13290945 -0.11094893 -0.131594 0.026340924
0.104732744 -0.0016679452 -0.039743107 0.07490471 -0.01697818 0.11323257 -0.034974393 -0.12940016
0.08441556 -0.06885421 -0.08492095 -0.052211054 0.12860948 -0.012034606 -0.08680044 -0.017252691
-0.10758866 -0.1317531 0.076109245 -0.10616392 0.01909969 0.06276151 0.11594567 0.0039349273
00000000: e5db e13d e9cd 9f3a 0c69 d3bb a2aa 023e
00000010: c3a6 703d bfab 9db9 e40c ab3d 4278 9cbd
00000020: 000f e6bb d121 9d3d b4c1 133d 06d2 bc3c
00000030: b164 bebd 0f37 a83d a2fa a83d ac9d 3f3d
00000040: 6715 313d 6505 4bbd b5c5 21bc 2997 3abd
00000050: f144 a0bd f22a 9bbd 4693 ccbd 2de4 b83d
00000060: 3703 3d3c 7310 053e 977f 253c b1ed f4bd
00000070: 0b71 8a3c ce03 fabc 2d1a 053e b1c1 f83d
00000080: 4d8e f43d b6d2 91bd 7d4c 093e acc2 3abc
00000090: c4bd dd3d 1b2b ffbb 1f88 283d bdf2 d5bd
000000a0: cc3a e83d 50c4 0abe bc05 d13d 5188 00be
000000b0: 3231 4d3d f731 fcbc fb93 9b3d e5d3 acbd
000000c0: 43e9 fd3d eded 4fbd 675a 9ebd 1485 89bd
000000d0: 4e88 f93d b51b 04bd ef0c 3ebd 2885 693d
000000e0: 50f0 91bc 4577 c2bb 4d05 0b3d b724 8c3d
000000f0: eae1 cbbc 8a6a 873d d1e0 6f3d 0e12 c0bd
00000100: c08b fb3d 34c9 8ebd b077 d639 35f8 e6bc
00000110: 93d3 b53d c390 dcbd 51f8 7c3c cf2a cf3d
00000120: 47c6 09be c45b 31bd 69f3 503c f327 bdbc
00000130: 8192 d13d 23d6 0c3e 7b82 ec3c ccf4 70bd
00000140: b936 fcbd bef8 0abe 3f95 e3bd 23f6 ccbd
00000150: 7160 fb3d 561b a73d 50a5 d33d 4459 adbd
00000160: 7520 02be e483 00be f20c fabd b1f2 b1bd
00000170: 30f4 dfbd d43a 0bbc 3e63 8ebd 431f 26bd
00000180: eea9 213c bf6f 8b3d d7f4 11bb b56f b13d
00000190: 3b14 f33d 6435 dc3d c142 873d 6a67 a1bd
000001a0: cebe 713c f3fd 913d a131 21bd 167c 243c
000001b0: a98c 793b 4063 68bb a61b b5bd b238 c7bd
000001c0: ef0d 5ebc 9c33 9b3d c582 0abe c801 14bb
000001d0: 900f d0bc 2201 c03d 04c9 e03d cae2 753d
000001e0: 9efa 9dbd d81b ba3d 0347 ef3d 39ce 023e
000001f0: f1f7 a4bc 9579 d53c 220c 31bd 7db1 8fbc
00000200: ffa3 0e3d 07d2 b43d 4bc6 d03c 9b2e a03d
00000210: 617c afbd 5041 24bd a89e afbd bf7e efbd
00000220: bb48 bf3d dddf 83bc a6f1 323d 73ce ef3d
00000230: 2bb3 00be ba2f b5bd 0573 9cbd 416b 063e
00000240: e7b3 b93d efb7 3cbd 86f8 d3bc c4a2 8dbc
00000250: 8a1a 0b3c 9486 5b3d 5553 b63d 3d1b f53d
00000260: ab49 d63c 99d2 bdbd df81 eebb b633 e5bd
00000270: a0ac 2dbd 2ff2 043d db65 16b7 aaa7 9c3d
00000280: e65d d6bd 8392 603d baad 053e 0f71 7fbd
00000290: 2e65 01be 1547 df3d 66a1 dabd a4dd f4bd
000002a0: 86a8 c33c b033 953d d1b4 083d e3de fcbd
000002b0: 1214 053e 1ee1 48bc 1e42 1e3d 230c d6bb
000002c0: e55a 073e 0acb 43bc 5bea c7bc d9b3 033e
000002d0: 7cde 6fbd 50e0 c4bd c187 573d 27c9 063e
000002e0: ea67 47bd 0e4d ea3d 4479 073d b31c 2dbd
000002f0: b555 003e 17de 073e a467 cfbd f2a4 cfbd
00000300: a79b b1bd 79be 11bd 28b3 c73d df25 153d
00000310: ab56 9f3d 45df 39bc 5287 6bbd bd2c 32bc
00000320: 49c0 ee3c 130e f93d 7a18 a8bc b421 e6bd
00000330: e187 333d 4a70 823d 9bee 3c3d 166a de3c
00000340: 2155 ef3d 984a 3abd 01c0 05be f9e8 c53d
00000350: 26c9 b1bd 3f96 cebc 957e 3dbc 832a 8abd
00000360: a9f8 4c3d 4942 053e 259f af3a a028 963d
00000370: d1be 3abd 6f7f 95bc c6b5 55bb 4a43 a63d
00000380: b839 02bc ab19 69bd 65a2 4abd 5556 d8bd
00000390: 6a19 08be 3139 e3bd 94c0 06be ecc8 d73c
000003a0: 1f7e d63d f49e daba abc9 22bd a467 993d
000003b0: d315 8bbc 7ae6 e73d 4f41 0fbd 7a81 04be
000003c0: 11e2 ac3d 7003 8dbd 09eb adbd 42db 55bd
000003d0: 34b2 033e cc2c 45bc 6ec4 b1bd 8455 8dbc
000003e0: 7257 dcbd 49ea 06be 2adf 9b3d 786c d9bd
000003f0: f476 9c3c 1b89 803d ec74 ed3d 90f0 803b

conv2.bias f4 [16]
-0.10862559 -0.0020837397 0.10043073 0.10151427 0.026602717 0.029942753 -0.09389853 0.0639437
-0.07488682 -0.106804535 -0.10308339 -0.07153372 -0.02448327 -0.113604724 -0.019592676 1.8727524e-05
00000000: 1877 debd 5a8f 08bb a0ae cd3d b7e6 cf3d
00000010: f1ed d93c 814a f53c df4d c0bd eaf4 823d
00000020: 435e 99bd 56bc dabd 621d d3bd 4580 92bd
00000030: 2391 c8bc 98a9 e8bd d280 a0bc 0d19 9d37

batchnorm2.weight f4 [16]
1.0010082 0.9993917 1.0018473 1.001736 0.9994856 1.0018295 1.0012075 0.9997574
1.0019495 1.001898 1.0000198 1.0011476 1.0009168 1.0006087 1.0018811 0.99961424
00000000: 0921 803f 22d8 7f3f 883c 803f e338 803f
00000010: 4ade 7f3f f33b 803f 9127 803f 1af0 7f3f
00000020: e23f 803f 323e 803f a600 803f 9b25 803f
00000030: 0b1e 803f f213 803f a43d 803f b8e6 7f3f

batchnorm2.bias f4 [16]
-0.00048101257 -0.0006141677 0.0018821422 0.001283455 0.00053087197 0.0018865132 0.000917726 -0.00065253704
0.0016826984 0.0018551929 0.0005989567 0.0019793906 0.0009150064 0.00018601744 0.0016088132 0.0001242241
00000000: 6a30 fcb9 1900 21ba 36b2 f63a 9b39 a83a
00000010: 372a 0b3a e144 f73a 8d93 703a 050f 2bba
00000020: fd8d dc3a f229 f33a 4e03 1d3a aab8 013b
00000030: 0add 6f3a ad0d 4339 d0de d23a 2742 0239

batchnorm2.running_mean f4 [16]
0.60148966 -0.15049337 0.23182473 0.36015427 0.32856682 0.34798852 -0.4786921 0.05307043
0.63210964 -0.17289016 0.34800744 0.18131152 -0.75503415 0.033529025 0.056085218 -0.48167047
00000000: 3afb 193f ef1a 1abe 7663 6d3e 2466 b83e
00000010: e939 a83e 8d2b b23e 2217 f5be 6160 593d
00000020: f0d1 213f 1e0a 31be 082e b23e baa9 393e
00000030: eb49 41bf bb55 093d 9db9 653d 839d f6be

batchnorm2.running_var f4 [16]
0.37060064 0.34563816 0.24832186 0.27513245 0.50152063 0.34563345 0.3211661 0.27239555
0.24957332 0.20083322 0.34179297 0.3101103 0.24255173 0.4777401 0.4366143 0.32259
00000000: 5ebf bd3e 7cf7 b03e 1648 7e3e 29de 8c3e
00000010: a863 003f def6 b03e e26f a43e 6e77 8b3e
00000020: 2690 7f3e 39a7 4d3e 7dff ae3e c7c6 9e3e
00000030: 7b5f 783e 5a9a f43e e98b df3e 842a a53e

fc1.weight f4 [128, 1024]
0.0095657585 -0.0059760837 0.003846796 0.012875655 0.025658669 -0.029356351 0.0020487602 -0.021281054
-0.0050325007 0.0075408956 -0.028517947 0.003283343 -0.021976622 -0.011249384 -0.009953968 -0.0073657674
-0.014205097 -0.025032844 0.0021217624 -0.0070383004 -0.022955872 0.027394583 0.015853358 0.029794808
-0.019643161 -0.013180683 0.00066539494 0.0157316 -0.014776191 0.012033106 -0.030091815 -0.029981637
-0.016608223 -0.013948643 0.016532036 0.029250108 0.006955792 0.00028781244 0.0027370083 0.010018335
0.0046019023 -0.024711052 0.004356083 -0.0059028137 -0.010165969 -0.015374436 0.007861091 -0.017120322
-0.0021520024 -0.031572655 0.029582232 0.026843 -0.018418794 -0.013361331 -0.030295176 -0.0016500294
-0.018591322 0.018307554 -0.023905711 0.014715501 0.021080233 -0.023820296 -0.013561225 -0.030553386
-0.027519632 0.009833432 -0.021380061 0.0013061722 -0.019147038 0.022827495 -0.0081602605 0.0077150315
-0.0014657676 -0.009997987 -0.0019708797 0.010044895 -0.03066685 0.0061340216 -0.0060833925 0.02879375
-0.015360825 -0.017559275 0.008258209 0.0018507451 0.007272325 -0.008120058 0.013923078 -0.021714184
0.026869634 0.014948868 0.015542971 0.017172728 -0.023730045 -0.024616377 -0.021077162 -0.028624417
0.003526799 -0.017086498 0.029470684 -0.030414568 0.018029341 -0.0042588827 -0.0131939165 0.0119037265
-0.005430078 -0.030100944 0.02184488 -0.011968145 -0.018719453 -0.017004557 -0.008708276 0.0149617065
0.015433033 -0.005547138 0.025296437 0.0034996448 0.0064859795 0.002060643 -0.024357695 0.019642534
0.023958553 -0.01690529 0.009912291 0.0144304335 -0.023785567 0.031320613 0.010922421 0.003969848
-0.025507024 0.013559875 0.023249693 -0.011507538 0.013060648 0.011884538 -0.025650244 -0.013031103
0.024768852 0.024011612 0.0050247526 0.024771946 0.013426065 0.011578542 0.023956383 0.0063724034
-0.011944978 0.019605994 -0.019776216 -0.0059626326 -0.00799403 -0.016427562 0.022749742 0.019820876
-0.027892152 0.030408071 -0.023617992 -0.030046409 0.012773817 0.021184772 0.001957943 -0.012732748
-0.010273375 -0.030018305 -0.01923457 -0.008073272 0.009871339 0.013646243 -0.002628967 0.019766267
0.02660114 -0.022151608 -0.027008751 -0.0278259 0.004864864 -0.030581754 0.023047628 -0.003160257
-0.03168655 0.0056221103 -0.01973621 0.021596469 -0.021554884 0.0024131092 0.020719005 -0.009590396
0.02929024 -0.0014997937 0.00075296056 -0.028629592 -0.015926627 0.021476965 0.028080054 0.026407767
-0.002502387 0.015722878 0.014956259 0.020882325 -0.024895413 0.0001701229 -0.018325938 -0.01684968
-0.017655877 0.018913286 0.008572095 -0.0040840902 -0.028915985 -0.0063001704 0.0074131596 -0.015753182
0.023655564 -0.025474964 -0.028899837 0.00090182683 -0.019377125 -0.027600808 -0.004342802 0.021961464
-0.0059425835 -0.016259642 0.012000656 0.024963917 -0.00041348074 0.0066600577 -0.026058426 -0.02082347
0.0042627826 0.007159807 0.011525085 -0.019760117 -0.013180744 0.028132917 0.030664118 -0.029032756
0.027420394 -0.020493852 0.0010886207 -0.029805178 0.026475785 0.004167398 0.030684482 -0.009987218
-0.01847213 0.005620222 -0.018919287 -0.022156708 0.028517766 -0.014558667 -0.010292355 -0.022556115
-0.011329224 -0.014227991 -0.0050506354 0.013618326 -0.030639261 0.0047550406 -0.002709938 -0.0042243474
00000000: b3b9 1c3c 06d3 c3bb 871a 7c3b 69f4 523c
00000010: 2132 d23c bb7c f0bc 7e44 063b 9b55 aebc
00000020: ade7 a4bb 9e19 f73b 789e e9bc 5b2d 573b
00000030: 5108 b4bc 564f 38bc f815 23bc 895c f1bb
00000040: 7fbc 68bc ae11 cdbc 440d 0b3b 8ba1 e6bb
00000050: f40d bcbc 9b6a e03c e7de 813c 3e14 f43c
00000060: b2ea a0bc cbf3 57bc e66d 2e3a 8edf 803c
00000070: d617 72bc 8126 453c 1c83 f6bc 0d9c f5bc
00000080: f80d 88bc d988 64bc 316e 873c ec9d ef3c
00000090: 6aed e33b 88e5 9639 615f 333b f123 243c
000000a0: 8ecb 963b d56e cabc 79bd 8e3b 646c c1bb
000000b0: 2a8f 26bc 0fe5 7bbc cecb 003c eb3f 8cbc
000000c0: 9c08 0dbb 5452 01bd 7056 f23c dae5 db3c
000000d0: 03e3 96bc 7ce9 5abc 972d f8bc cd45 d8ba
000000e0: d44c 98bc b9f9 953c e9d5 c3bc 4919 713c
000000f0: 74b0 ac3c c822 c3bc e62f 5ebc 184b fabc
00000100: da70 e1bc 671c 213c 3d25 afbc de33 ab3a
00000110: 40da 9cbc ba00 bb3c 9db2 05bc 60ce fc3b
00000120: 001f c0ba 99ce 23bc e029 01bb 5893 243c
00000130: 0c39 fbbc e7ff c83b 3257 c7bb dfe0 eb3c
00000140: f8ab 7bbc 78d8 8fbc 704d 073c b394 f23a
00000150: af4c ee3b fe09 05bc 9f1d 643c f2e1 b1bc
00000160: b51d dc3c 19ec 743c f2a7 7e3c d2ad 8c3c
00000170: 8365 c2bc 49a8 c9bc 03aa acbc c17d eabc
00000180: de21 673b fcf8 8bbc 816c f13c f927 f9bc
00000190: 45b2 933c 198e 8bbb 4c2b 58bc d907 433c
000001a0: ccee b1bb 4196 f6bc 09f4 b23c 0a16 44bc
000001b0: 8a59 99bc 244d 8bbc 28ad 0ebc f221 753c
000001c0: d5da 7c3c c4c4 b5bb 793a cf3c 4c5a 653b
000001d0: 5788 d43b da0b 073b ca89 c7bc 61e9 a03c
000001e0: ba44 c43c f67c 8abc 2967 223c a06d 6c3c
000001f0: f3d9 c2bc 0b4a 003d f4f3 323c 8015 823b
00000200: 1bf4 d0bc 3d2a 5e3c 2476 be3c 1d8a 3cbc
00000210: 54fc 553c 5eb7 423c 7620 d2bc 6880 55bc
00000220: 0ce8 ca3c 00b4 c43c aea6 a43b 89ee ca3c
00000230: 00f9 5b3c edb3 3d3c 2d40 c43c 98cf d03b
00000240: deb4 43bc c09c a03c bb01 a2bc 3062 c3bb
00000250: 64f9 02bc 1893 86bc ab5d ba3c 645f a23c
00000260: 157e e4bc 591a f93c 857a c1bc e323 f6bc
00000270: 4649 513c b08b ad3c d550 003b 049d 50bc
00000280: a851 28bc f3e8 f5bc d191 9dbc c245 04bc
00000290: 66bb 213c 7e94 5f3c bf4a 2cbb deec a13c
000002a0: a2ea d93c 4a77 b5bc 7541 ddbc 24f3 e3bc
000002b0: 7069 9f3b 9686 fabc 61ce bc3c 501c 4fbb
000002c0: c1c9 01bd ae39 b83b d5ad a1bc 14eb b03c
000002d0: de93 b0bc 4125 1e3b e7ba a93c 0921 1dbc
000002e0: 16f2 ef3c ba94 c4ba 5462 453a 9b88 eabc
000002f0: 8f78 82bc 76f0 af3c 2408 e63c 1a55 d83c
00000300: 16ff 23bb 44cd 803c 190b 753c 6911 ab3c
00000310: 77f1 cbbc 0563 3239 4720 96bc 5708 8abc
00000320: 0fa3 90bc 09f0 9a3c f971 0c3c d5d3 85bb
00000330: 37e1 ecbc a971 cebb 17ea f23b d10c 81bc
00000340: 50c9 c13c dfb0 d0bc 5abf ecbc 9368 6c3a
00000350: c7bc 9ebc 171b e2bc 104e 8ebb 87e8 b33c
00000360: 01ba c2bb f132 85bc 669e 443c 2181 cc3c
00000370: 72c8 d8b9 9d3c da3b 7b78 d5bc fb95 aabc
00000380: d0ae 8b3b d09c ea3b b6d3 3c3c f8df a1bc
00000390: 0cf4 57bc 0177 e63c 5133 fb3c 1ad6 edbc
000003a0: bca0 e03c b9e2 a7bc 0db0 8e3a fd29 f4bc
000003b0: bfe3 d83c ab8e 883b 065e fb3c 6ea1 23bc
000003c0: dd52 97bc d729 b83b 9ffc 9abc fc81 b5bc
000003d0: 179e e93c 7a87 6ebc 44a1 28bc 9ac7 b8bc
000003e0: 369e 39bc 851c 69bc cd7f a5bb 661f 5f3c
000003f0: 30ff fabc 2cd0 9b3b 3799 31bb 656c 8abb

fc1.bias f4 [128]
0.014977324 -0.0074409097 -1.9609928e-05 -0.025517812 0.014222607 0.006566655 -0.030232303 0.0019475773
0.014246449 0.002509566 -0.018520039 -0.028334513 0.02551259 -0.011508037 0.0019759045 0.031087475
0.011297709 -0.0033136276 -0.013124628 -0.00155228 -0.019954575 -0.02099679 -0.00014837511 -0.0021834853
-0.01307812 0.023274273 -0.006258437 0.0275005 0.02734354 0.0074630417 0.015140769 0.021291735
0.010011344 0.020732034 -0.021589242 0.023055363 0.019033026 -0.019029576 0.014076699 -0.02533683
-0.024557708 -0.006226072 0.0114461 0.008196758 0.00031018385 -0.005060546 -0.0032164715 0.018349826
0.021222338 -0.01914967 0.0224863 0.020143362 0.021522226 -0.016188383 0.015262957 0.015152897
0.008239849 -0.022178043 0.026404936 -0.0016137562 0.0072287084 0.00885565 -0.029761467 -0.019822497
-0.023633106 0.008145863 -0.0051640766 0.0074965074 0.010825975 0.0048663295 -0.002149713 0.027076984
-0.030019065 -0.00010793339 0.009557713 -0.0128792375 -0.010380979 -0.0064552175 0.020169424 -0.019142384
0.032894492 -0.019728579 0.01035865 -0.021537935 -0.020002663 0.029373374 -0.021219183 0.009713527
0.014219124 0.027757017 0.009048325 0.016419796 0.013674235 0.014105769 -0.0037316568 0.024676334
0.012480292 0.025786959 0.0069113625 -0.003874986 -0.0024083797 0.026021177 -0.0054059923 -0.01985362
0.020347089 0.0011178189 -0.014074 -0.009528819 -0.019075664 -0.0015254245 -0.011078985 -0.0014165938
0.024430089 -0.0040518614 -0.017187636 0.008242677 -0.007448074 -0.028307041 -0.0076749404 0.022609357
0.024649097 0.025583532 -0.013541315 -0.020120667 0.01594798 0.00277928 0.025502976 0.019726362
00000000: 7363 753c e0d2 f3bb 0080 a4b7 bb0a d1bc
00000010: f005 693c 182d d73b bca9 f7bc da45 ff3a
00000020: f069 693c 8877 243b 56b7 97bc c81d e8bc
00000030: c7ff d03c 358c 3cbc 2d7e 013b 29ab fe3c
00000040: 071a 393c 7229 59bb ae08 57bc e075 cbba
00000050: c777 a3bc 7601 acbc 2495 1bb9 ce18 0fbb
00000060: 9c45 56bc b0a9 be3c 9313 cdbb bb48 e13c
00000070: 8fff df3c 888c f43b fd10 783c 016c ae3c
00000080: 9f06 243c 3ad6 a93c ecdb b0bc 9ade bc3c
00000090: 26eb 9b3c eae3 9bbc f4a1 663c 2f8f cfbc
000000a0: 3f2d c9bc 1404 ccbb 6c88 3b3c b24b 063c
000000b0: 2ca0 a239 f0d2 a5bb 70cb 52bb 6052 963c
000000c0: 78da ad3c c5df 9cbc 3035 b83c b103 a53c
000000d0: 614f b03c 809d 84bc 7b11 7a3c db43 783c
000000e0: 6e00 073c baae b5bc 2a4f d83c ac84 d3ba
000000f0: cdde ec3b 4a17 113c 52ce f3bc ca62 a2bc
00000100: 379a c1bc 3a76 053c 6a37 a9bb 43a5 f53b
00000110: 6e5f 313c bb75 9f3b 33e2 0cbb 8dd0 dd3c
00000120: 8bea f5bc 4c5a e2b8 f497 1c3c 7003 53bc
00000130: fb14 2abc 4a86 d3bb 593a a53c 7dd0 9cbc
00000140: 60bc 063d d49d a1bc 54b7 293c 5370 b0bc
00000150: a0dc a3bc 6ea0 f03c dad3 adbc 7c25 1f3c
00000160: 54f7 683c af62 e33c 6d3f 143c cf82 863c
00000170: e609 603c e21b 673c d08e 74bb 0626 ca3c
00000180: 237a 4c3c 2c3f d33c b678 e23b 7af3 7dbb
00000190: e8d5 1dbb 5d2a d53c c024 b1bb 0fa4 a2bc
000001a0: f0ae a63c c783 923a a296 66bc c31e 1cbc
000001b0: 9144 9cbc c1f0 c7ba a284 35bc 00ad b9ba
000001c0: 9c21 c83c 7ac5 84bb 16cd 8cbc 4b0c 073c
000001d0: f90e f4bb 2be4 e7bc 117e fbbb 4237 b93c
000001e0: e7ec c93c 8e94 d13c 64dc 5dbc 19d4 a4bc
000001f0: 57a5 823c 9524 363b 9eeb d03c 2e99 a13c

fc2.weight f4 [5, 128]
-0.0058315177 -0.08250716 -0.06572249 0.04172418 0.0761923 -0.024987312 -0.053470727 -0.07617808
0.013189784 -0.026215674 0.028106458 -0.07744972 -0.032340374 0.042400494 -0.075358145 -0.0636246
-0.018937321 -0.032265387 -0.011876369 0.009370521 0.0598729 0.024200499 0.015839972 -0.07934566
0.079584055 0.064551055 -0.079551585 0.07506983 0.052758 0.037115563 -0.0728569 0.049958564
-0.07344493 0.0006254049 -0.073612496 -0.04760139 -0.021522302 -0.08664269 -0.08530131 0.038131732
-0.081803806 -0.040161453 0.07498145 -0.020818217 0.017465496 0.065425135 0.047580004 0.029368954
0.0750444 0.08486176 0.022384167 -0.06838778 -0.0042163995 -0.08743145 0.07144509 0.029778223
-0.0067918967 -0.055894133 -0.07068697 -0.010339469 0.054124765 -0.0805046 -0.023108039 -0.018813267
0.015811242 -0.0062205307 -0.08251939 -0.08040862 0.015605016 0.049051594 -0.06010288 0.0015326557
0.0041019944 -0.013163436 -0.013743888 -0.018606633 0.011691945 -0.085917674 0.07510341 -0.03651612
0.039659686 0.011011988 -0.04659361 0.025122087 0.06128738 -0.035807613 0.0890152 -0.038327206
0.011706698 -0.07171194 0.047644388 -0.016307408 -0.046954796 -0.019181134 0.032179043 -0.021253327
-0.07199559 -0.01726975 -0.060080737 -0.015612658 0.062466398 -0.038640983 0.074060515 0.08023137
-0.011636198 0.0009149531 0.05367483 -0.025788117 0.051647533 -0.057445705 -0.07032878 0.045452453
-0.071246296 -0.055902805 0.07309634 0.07171335 -0.08032048 0.019417744 -0.02552754 -0.0478207
-0.08602952 -0.067640334 -0.01094348 -0.023991475 -0.06429017 -0.027621536 0.023247192 0.08586383
0.033533573 -0.07877449 -0.05544598 -0.04593544 0.052157678 0.043860815 0.017440744 0.08002065
0.044059265 -0.061445568 -0.006489739 0.07015451 -0.08020773 0.0685905 0.024851419 0.084735274
-0.009147232 -0.052348927 -0.030190554 -0.046764974 -0.084010564 0.07274746 0.02831484 -0.041336562
-0.06817488 0.038819995 -0.04612671 0.06273719 0.058554918 -0.086368114 0.07707006 -0.030213205
-0.074356586 0.011017179 0.043635227 -0.036999412 -0.011229084 0.022930913 0.046176907 0.018887948
0.019116951 0.08293536 0.05666139 -0.040929418 -0.0130547285 0.06488522 -0.056157812 -0.0016616064
0.00086388737 0.08603364 0.055870652 0.0683173 -0.060863312 -0.015537403 0.057686746 -0.05543453
0.015467028 -0.013498608 0.009254963 0.085270435 0.03670733 0.06474185 0.0507598 0.038901664
0.07719992 0.060566157 -0.03115276 -0.07594397 -0.052215956 -0.017563025 -0.033297487 -0.014710132
-0.027342478 -0.07073552 -0.083399996 0.039341368 0.011333461 0.011309311 0.08306285 -0.017175471
-0.030533371 0.0006965995 0.07137277 -0.053794682 -0.017516568 -0.08702051 -0.07190763 -0.06971563
0.003304236 -0.013975539 -0.018330785 -0.07648014 0.026061552 -0.06848727 -0.05611267 -0.08092851
-0.006758897 -0.05474571 0.07588294 -0.078686625 -0.01551176 0.07088414 -0.050354864 0.0074430886
0.04363335 0.034487307 0.01641841 0.034840528 -0.08801165 0.04370034 -0.027315147 0.037015073
0.07660693 -0.08246277 0.060097165 -0.040557504 0.054589394 -0.050340693 0.06583272 0.0626084
-0.05276934 0.064291045 -0.011763126 0.024719417 -0.04654575 0.0023689924 0.0087140165 -0.062464397
00000000: 5116 bfbb 84f9 a8bd 8399 86bd f9e6 2a3d
00000010: b50a 9c3d 31b2 ccbc 1f04 5bbd 4103 9cbd
00000020: f719 583c 41c2 d6bc 843f e63c f59d 9ebd
00000030: 5777 04bd 24ac 2d3d 5f55 9abd 9d4d 82bd
00000040: 7122 9bbc b628 04bd 1a95 42bc d086 193c
00000050: 493d 753d 2040 c63c d4c2 813c fa7f a2bd
00000060: f7fc a23d 5833 843d f1eb a2bd 36be 993d
00000070: c618 583d 7d06 183d 0036 95bd 5aa1 4c3d
00000080: 4c6a 96bd 36f2 233a 26c2 96bd adf9 42bd
00000090: 8a4f b0bc b971 b1bd 74b2 aebd 0530 1c3d
000000a0: c188 a7bd 5680 24bd e08f 993d f78a aabc
000000b0: cd13 8f3c 9dfd 853d 40e3 423d 2997 f03c
000000c0: e1b0 993d 01cc ad3d 005f b73c e40e 8cbd
000000d0: b929 8abb 430f b3bd ce51 923d 76f1 f33c
000000e0: 8f8e debb 3ff1 64bd 55c4 90bd e066 29bc
000000f0: eeb1 5d3d 99df a4bd 124d bdbc 481e 9abc
00000100: 9486 813c 98d5 cbbb edff a8bd 46ad a4bd
00000110: 2eac 7f3c 53ea 483d 702e 76bd 64e3 c83a
00000120: 066a 863b 74ab 57bc 0b2e 61bc f06c 98bc
00000130: 928f 3f3c 9bf5 afbd d1cf 993d ed91 15bd
00000140: 3272 223d a06b 343c f1d8 3ebd d6cc cd3c
00000150: 7a08 7b3d 01ab 12bd 9a4d b63d fdfc 1cbd
00000160: 73cd 3f3c b6dd 92bd c326 433d 1d97 85bc
00000170: ac53 40bd c121 9dbc 2cce 033d 751b aebc
00000180: 6d72 93bd 4a79 8dbc 3817 76bd 3ccc 7fbc
00000190: c4dc 7f3d 0246 1ebd 0aad 973d 5850 a43d
000001a0: c0a5 3ebc 77d9 6f3a 23da 5b3d 9a41 d3bc
000001b0: 5d8c 533d 304c 6bbd 8908 90bd 5a2c 3a3d
000001c0: 94e9 91bd 57fa 64bd 89b3 953d 73de 923d
000001d0: 107f a4bd f611 9f3c 221f d1bc a3df 43bd
000001e0: 3f30 b0bd 0487 8abd 484c 33bc c589 c4bc
000001f0: 91aa 83bd 8f46 e2bc e570 be3c 60d9 af3d
00000200: 805a 093d 8554 a1bd 531b 63bd cd26 3cbd
00000210: 4aa3 553d 66a7 333d e4df 8e3c dee1 a33d
00000220: 7d77 343d 59ae 7bbd e0a7 d4bb 2bad 8f3d
00000230: f343 a4bd 2d79 8c3d 3495 cb3c b089 ad3d
00000240: 46de 15bc d46b 56bd 2e52 f7bc a18c 3fbd
00000250: bb0d acbd 9ffc 943d 86f4 e73c 8750 29bd
00000260: 469f 8bbd b701 1f3d 5cef 3cbd 5b7c 803d
00000270: 48d7 6f3d c4e1 b0bd e8d6 9d3d af81 f7bc
00000280: 4448 98bd 6681 343c daba 323d b28c 17bd
00000290: 31fa 37bc 9cd9 bb3c ff23 3d3d e6ba 9a3c
000002a0: 279b 9c3c 04da a93d c615 683d 9ba5 27bd
000002b0: 80e3 55bc 8be2 843d bc05 66bd 42ca d9ba
000002c0: 8076 623a 6832 b03d a0d8 643d f1e9 8b3d
000002d0: cf4b 79bd 9790 7ebc f048 6c3d 510f 63bd
000002e0: 6b69 7d3c 4429 5dbc 21a2 173c 44a2 ae3d
000002f0: 6d5a 163d 6097 843d 82e9 4f3d 5a57 1f3d
00000300: fe1a 9e3d 3814 783d 1334 ffbc 8388 9bbd
00000310: 66e0 55bd 55e0 8fbc f262 08bd c402 71bc
00000320: 55fd dfbc c9dd 90bd 9ecd aabd 6a24 213d
00000330: fbaf 393c b04a 393c db1c aa3d 93b3 8cbc
00000340: 1f21 fabc 009c 363a e32b 923d d057 5cbd
00000350: e87e 8fbc cf37 b2bd 4f44 93bd 11c7 8ebd
00000360: e28b 583b a9f9 64bc 712a 96bc 9fa1 9cbd
00000370: 097f d53c 0e43 8cbd 66d6 65bd d9bd a5bd
00000380: bd79 ddbb 0a3d 60bd 8468 9b3d 7426 a1bd
00000390: 0925 7ebc b42b 913d e740 4ebd 27e5 f33b
000003a0: e2b8 323d 9042 0d3d e77f 863c f1b4 0e3d
000003b0: 743f b4bd 21ff 323d 04c4 dfbc 1e9d 173d
000003c0: 18e4 9c3d 3ee2 a8bd 7228 763d a01f 26bd
000003d0: 2199 5f3d 0b32 4ebd 4ed3 863d d538 803d
000003e0: aa24 58bd 06ab 833d 20ba 40bc 6080 ca3c
000003f0: c2a6 3ebd 1941 1b3b 3cc5 0e3c abda 7fbd

fc2.bias f4 [5]
-0.08578657 -0.029475324 0.076508574 -0.007952329 -0.035482425
00000000: dfb0 afbd 3c76 f1bc 87b0 9c3d 7c4a 02bc
00000010: 0556 11bd
