imitation_learning/models/agent_best.pt (torch_old, 538361 bytes, 20 tensors)

batchnorm0.weight f4 [3]
0.99086577 0.99967873 1.0119591
00000000: 61a9 7d3f f2ea 7f3f e087 813f

batchnorm0.bias f4 [3]
-0.0018397827 -0.0015512595 -0.00079382927
00000000: dd24 f1ba a253 cbba fb18 50ba

batchnorm0.running_mean f4 [3]
0.55536807 0.5529025 0.5554394
00000000: 9a2c 0e3f 058b 0d3f 4731 0e3f

batchnorm0.running_var f4 [3]
0.0594736 0.060234226 0.059676223
00000000: 979a 733d 2ab8 763d 0e6f 743d

conv1.weight f4 [6, 3, 7, 7]
0.026982969 0.05739547 -0.0074942242 0.0689275 -0.054130614 -0.08364849 0.0482758 -0.066674136
-0.04456658 0.013864189 -0.022436766 -0.018067319 0.012335077 -0.06418034 -0.07158864 -0.041312154
0.06775645 -0.02248444 -0.015758762 -0.031346936 -0.04058625 -0.07951218 0.013568559 0.037280165
-0.015290106 -0.052053127 -0.07705532 0.057332993 -0.025676994 -0.055049833 0.04860436 -0.059031233
-0.07393497 -0.029442241 0.07809603 -0.030446865 -0.0076059783 0.0036551491 0.06905205 0.031611357
0.024363339 0.058112603 0.06502829 0.036494415 -0.056153513 0.015090851 0.036343154 -0.06324124
0.025471425 -0.06479884 0.0052755564 0.01773189 0.08356588 -0.020334953 -0.04507991 -0.061151825
0.08898972 0.06566789 0.06375224 0.07345956 -0.06323501 -0.039737944 0.018739812 0.012140559
0.028424345 0.0001878129 -0.048659857 -0.018673724 0.040346324 -0.055454604 0.034562487 -0.060914613
-0.021464387 0.023905408 -0.005013335 0.07389938 0.042592496 0.0075512505 -0.009186268 0.0449864
-0.049279988 -0.065475136 -0.017377783 -0.03554643 -0.0249361 0.0024583864 -0.07518088 0.006263302
-0.040960122 0.07689331 -0.06077334 0.04127841 -0.02225257 -0.061851863 0.01712304 -0.02433097
0.009238235 0.029615158 0.0727525 -0.023761576 -0.024585249 0.03834502 0.007115287 -0.07364185
-0.021420522 -0.008353746 0.014560002 0.01774224 0.028345076 0.06451056 -0.07506444 0.026407165
0.07170514 0.067049384 -0.03379687 0.005757803 0.02036468 -0.008834228 0.059915442 0.028554376
-0.05289211 -0.041285183 0.034637652 0.045584287 0.027248966 -0.028842408 -0.05756639 -0.00571454
0.061372902 -0.0026849092 0.051509075 0.090680026 0.047059443 0.044938236 0.028745899 -0.05915052
-0.008448361 -0.02670391 0.06631968 0.011299858 0.03459248 -0.002245906 0.040379096 -0.01533159
-0.05508368 -0.0548906 0.039463237 0.06653139 -0.064082675 0.063468896 -0.03333424 -0.017552232
0.07773928 0.023244405 0.06969587 0.008658977 0.052227505 0.01969296 -0.04792455 0.015990347
-0.049812622 0.028349005 -0.049546733 -0.039914504 0.0091588395 0.044415873 0.07588487 -0.024412202
0.03325357 -0.046035774 0.06331074 0.016434647 0.016208533 -0.05131833 0.07841238 0.04723537
0.010349484 0.03188595 -0.007803997 -0.024114065 0.027571332 -0.008950821 0.06093385 -0.07315859
0.05593204 0.008584479 0.029907467 -0.0017932181 0.0071160756 0.044602882 -0.029303668 0.0855025
-0.07019197 0.038742058 0.065793246 0.005677565 0.021468855 -0.050816264 -0.0101067 -0.07202145
-0.050766937 0.033973448 -0.00609439 -0.0041617835 0.053755812 0.043862417 -0.016928198 -0.058758754
0.040886782 -0.033183627 0.0089894105 -0.06867588 -0.04389175 -0.08029518 -0.0001453225 0.004135427
0.04767814 0.08746888 -0.010220599 0.054049145 -0.004210773 0.021453459 0.08053006 0.016844846
0.0024550639 -0.060927596 -0.04991307 -0.07941393 0.037858658 -0.047107033 0.006327528 0.040881846
-0.07797772 0.055243142 0.014464093 0.06368227 -0.014560922 -0.057196297 0.02554453 -0.037916664
0.002516835 -0.008572904 0.050788943 0.047865275 -0.042781077 0.023864107 -0.062421992 -0.0037795866
0.028008973 -0.06477796 -0.017265227 0.025296422 -0.03189727 0.0074746376 0.07947667 -0.03927871
00000000: 630b dd3c 8317 6b3d 1c92 f5bb dc29 8d3d
00000010: 10b8 5dbd e64f abbd d8bc 453d 738c 88bd
00000020: 728b 36bd a026 633c 4fcd b7bc ea01 94bc
00000030: 1019 4a3c fb70 83bd 119d 92bd ef36 29bd
00000040: e5c3 8a3d 4a31 b8bc 8518 81bc a565 00bd
00000050: c53d 26bd 48d7 a2bd a94e 5e3c 16b3 183d
00000060: 5a83 7abc a935 55bd 2ecf 9dbd 00d6 6a3d
00000070: 8f58 d2bc ef7b 61bd 5e15 473d bcca 71bd
00000080: 386b 97bd db30 f1bc d0f0 9f3d b46b f9bc
00000090: 923b f9bb 3a8b 6f3b 296b 8d3d e97a 013d
000000a0: a095 c73c 7b07 6e3d 8d2d 853d 2b7b 153d
000000b0: 3a01 66bd 9e3f 773c 8fdc 143d a084 81bd
000000c0: 73a9 d03c 41b5 84bd 93de ac3b 7842 913c
000000d0: 9724 ab3d 7d95 a6bc b6a5 38bd 567a 7abd
000000e0: 3e40 b63d e37c 863d 8990 823d f771 963d
000000f0: 5b81 81bd 41c4 22bd 3c84 993c 32e9 463c
00000100: 2cda e83c a4ef 4439 8f4f 47bd a3f9 98bc
00000110: 3042 253d 5e24 63bd 6591 0d3d 9a81 79bd
00000120: 15d6 afbc 46d5 c33c e746 a4bb 8f58 973d
00000130: 7875 2e3d 7b70 f73b 0082 16bc a943 383d
00000140: d0d9 49bd d417 86bd da5b 8ebc 2299 11bd
00000150: cb46 ccbc e11c 213b 6ff8 99bd 633c cd3b
00000160: cdc5 27bd 3d7a 9d3d 77ed 78bd 8d13 293d
00000170: 064b b6bc 6158 7dbd 9e45 8c3c be51 c7bc
00000180: f75b 173c 7d9b f23c 43ff 943d a3a7 c2bc
00000190: 0167 c9bc ab0f 1d3d 5a27 e93b 8ad1 96bd
000001a0: 177a afbc 26de 08bc 138d 6e3c 2d58 913c
000001b0: ef33 e83c 1d1e 843d 63bb 99bd d753 d83c
000001c0: 25da 923d 3051 893d 966e 0abd f4ab bc3b
000001d0: d4d3 a63c 70bd 10bc e569 753d deea e93c
000001e0: 66a5 58bd a71a 29bd 36e0 0d3d 97b6 3a3d
000001f0: 3939 df3c ea46 ecbc bcca 6bbd 0941 bbbb
00000200: 2762 7b3d 4df5 2fbb 2efb 523d 73b6 b93d
00000210: 67c1 403d 2811 383d 857c eb3c d147 72bd
00000220: ff6a 0abc 29c2 dabc 9dd2 873d 0a23 393c
00000230: d8b0 0d3d 0d30 13bb 8d64 253d 5931 7bbc
00000240: 6d9f 61bd f7d4 60bd 34a4 213d 9c41 883d
00000250: c73d 83bd fbfb 813d 7c89 08bd b3c9 8fbc
00000260: c635 9f3d 0d6b be3c b5bc 8e3d 62de 0d3c
00000270: 82ec 553d 2153 a13c 884c 44bd 30fe 823c
00000280: 5208 4cbd 2c3c e83c 84f1 4abd 647d 23bd
00000290: f50e 163c 6bed 353d 8769 9b3d 19fc c7bc
000002a0: e534 083d 0290 3cbd 10a9 813d f4a1 863c
000002b0: c2c7 843c 2b33 52bd ab96 a03d e079 413d
000002c0: e290 293c d89a 023d acb8 ffbb dc8a c5bc
000002d0: 46dd e13c 77a6 12bc c695 793d 2cd4 95bd
000002e0: ff18 653d eaa5 0c3c 8100 f53c 6a0a ebba
000002f0: f82d e93b 83b1 363d 3f0e f0bc ef1b af3d
00000300: cfc0 8fbd feaf 1e3d 9cbe 863d de0a ba3b
00000310: 74df af3c b724 50bd 9296 25bc fb7f 93bd
00000320: fef0 4fbd be27 0b3d 73b3 c7bb 925f 88bb
00000330: 0e2f 5c3d 14a9 333d 01ad 8abc 05ad 70bd
00000340: e678 273d 8eeb 07bd 5248 133c f1a5 8cbd
00000350: d6c7 33bd cd71 a4bd b661 18b9 7a82 873b
00000360: 274a 433d e222 b33d 4d74 27bc a362 5d3d
00000370: 86fa 89bb 2abf af3c f2ec a43d 34fe 893c
00000380: 23e5 203b 378f 79bd a671 4cbd c5a3 a2bd
00000390: ae11 1b3d 4ef3 40bd 2757 cf3b b973 273d
000003a0: c8b2 9fbd a246 623d cefa 6c3c da6b 823d
000003b0: ef90 6ebc aa46 6abd c342 d13c 814e 1bbd
000003c0: 7cf1 243b 5e75 0cbc 1108 503d 610e 443d
000003d0: 363b 2fbd a97e c33c 34ae 7fbd f1b2 77bb
000003e0: 1373 e53c 4faa 84bd ce6f 8dbc 713a cf3c
000003f0: b6a6 02bd ceed f43b aac4 a23d b6e2 20bd

conv1.bias f4 [6]
0.04782453 -0.044081237 -0.0192604 0.032706648 0.019201726 0.054917183
00000000: a8e3 433d 878e 34bd fdc7 9dbc 68f7 053d
00000010: f04c 9d3c d7f0 603d

batchnorm1.weight f4 [6]
0.999901 1.0198809 0.955556 1.0181382 1.0191643 1.0015278
00000000: 83f9 7f3f 758b 823f 519f 743f 5a52 823f
00000010: fa73 823f 1032 803f

batchnorm1.bias f4 [6]
0.007932174 -0.011853954 -0.014931595 -0.0028690868 0.015120532 0.013109337
00000000: f3f5 013c 1637 42bc a6a3 74bc 4a07 3cbb
00000010: 1cbc 773c 8bc8 563c

batchnorm1.running_mean f4 [6]
0.047702838 -0.05125876 -0.040662814 0.05167689 0.01541435 0.06521707
00000000: 0d64 433d b5f4 51bd 0d8e 26bd 26ab 533d
00000010: 788c 7c3c 8790 853d

batchnorm1.running_var f4 [6]
0.045024745 0.10862048 0.24291195 0.27872851 0.062635295 0.11300209
00000000: de6b 383d 6a74 de3d e9bd 783e 81b5 8e3e
00000010: ef46 803d a46d e73d

conv2.weight f4 [16, 6, 3, 3]
0.13294885 0.04979697 0.008197128 0.009432466 0.0876525 0.12270572 -0.105885714 -0.09446716
-0.10743939 0.016863326 0.117123984 0.10393804 -0.03647292 -0.08040898 0.019935913 0.099400155
0.1178525 0.0010325209 -0.15980028 -0.012280631 -0.055863746 0.09295776 -0.06662876 0.08281222
-0.044279736 -0.030378705 -0.03074475 -0.094492145 -0.10559407 0.09753079 0.025333403 -0.09163159
-0.025022712 0.057073664 0.076062225 -0.037038933 0.0018819218 -0.10792366 0.106576405 -0.0066427095
-0.024070218 -0.040455326 -0.036910705 -0.039650626 0.115554504 0.019469667 0.017822525 -0.056531746
0.1277195 -0.12712575 -0.095561944 -0.09351157 0.102028616 0.04533056 -0.08778398 0.07035994
-0.044404745 -0.0895576 0.00068314426 0.053909626 0.083130494 0.008094772 -0.04859494 0.111014515
0.005100395 0.06549729 -0.058953796 -0.069552384 0.014596261 0.099930815 0.024282167 0.0015485355
0.011388964 -0.024412423 0.07711182 -0.03535015 0.058805335 -0.08512997 0.04980622 0.13467617
-0.019592222 0.15369543 0.056596674 -0.102865756 -0.0043822625 -0.1414111 0.058942188 -0.019391142
-0.13945653 0.064676136 -0.018527402 -0.10228142 0.03948754 0.0901366 0.10584599 0.107812054
-0.12127695 0.02014296 0.06694368 -0.101367585 -0.08862811 -0.082696065 -0.013922402 -0.07544767
-0.026821515 -0.08570875 0.04609535 -0.0368271 -0.10861643 -0.024248643 0.040334754 0.009538332
0.10957134 0.043244135 -0.029642943 -0.10548419 -0.13692518 -0.010667383 0.03557909 -0.093477294
-0.06700063 0.017765554 0.06607346 -0.12789384 -0.020779952 0.12760127 -0.012687197 -0.034778055
-0.0056247567 -0.06802283 0.059247594 -0.039778057 0.12382777 0.013915674 0.06502969 -0.10141141
0.144114 -0.049595233 0.018664038 0.06312721 -0.1108879 0.11904439 -0.10020101 -0.05784667
0.10220138 -0.13743871 0.05096357 0.024119312 0.007795265 -0.113905996 0.043099605 -0.051036
-0.056018203 0.046046466 0.06056357 0.13196802 -0.013531786 -0.1282155 0.04517667 -0.0036324237
-0.03739671 0.037069228 0.11448312 0.10662944 0.08412684 -0.080670305 0.12717427 -0.067499205
-0.06763301 -0.080735385 0.0066250437 -0.004870482 -0.0962833 -0.0025180506 -0.10382821 0.05082814
-0.123360984 -0.009198086 0.13829125 -0.124012135 -0.034924917 -0.14770226 0.06942654 -0.09721544
-0.02874072 0.049902033 0.057939276 0.121843606 -0.08776498 0.06231541 0.036435116 -0.06318888
0.09183017 -0.14517543 -0.15096106 -0.03671611 0.054518774 0.100742996 -0.003497934 0.06591952
0.016739683 0.088906124 0.10260792 0.041119024 -0.025185818 0.093909584 -0.11104484 0.03449224
0.10715922 -0.047519777 0.06762424 0.002381209 -0.10327753 -0.019466966 0.090205595 0.09590287
-0.032500375 0.046393737 -0.07619701 0.037776705 -0.11070543 0.020632386 -0.07820458 0.15590692
-0.07899544 -0.025011752 -0.12133164 0.0026626522 0.027198618 0.098608844 -0.009786826 -0.072964236
0.02847126 -0.017314939 0.08434691 0.08410323 -0.069937006 0.004002896 0.0039848965 0.06328069
0.01773974 -0.025943302 0.07095443 0.056568623 0.12288154 0.0525089 0.12850498 -0.11951278
0.09969027 -0.0054518506 0.1294851 0.105044164 -0.012545021 0.10258213 -0.005960815 -0.043786068
00000000: be23 083e e8f7 4b3d 3f4d 063c a18a 1a3c
00000010: 2783 b33d 234d fb3d 9cda d8bd 0078 c1bd
00000020: 2f09 dcbd f524 8a3c b3de ef3d 78dd d43d
00000030: a164 15bd 77ad a4bd a450 a33c 4f92 cb3d
00000040: a75c f13d a755 873a afa2 23be b334 49bc
00000050: 62d1 64bd a360 be3d a974 88bd 7499 a93d
00000060: ab5e 35bd c3dc f8bc 6adc fbbc 1985 c1bd
00000070: b441 d8bd 39be c73d ff87 cf3c 58a9 bbbd
00000080: 6efc ccbc 13c6 693d 83c6 9b3d 23b6 17bd
00000090: d1aa f63a 1407 ddbd bb44 da3d 16ab d9bb
000000a0: e82e c5bc 7cb4 25bd ae2f 17bd b268 22bd
000000b0: d7a7 ec3d da7e 9f3c 8b00 923c d58d 67bd
000000c0: e7c8 023e 412d 02be fbb5 c3bd fe82 bfbd
000000d0: 61f4 d03d 8aac 393d 16c8 b3bd df18 903d
000000e0: c0e1 35bd fa69 b7bd 0915 333a 57d0 5c3d
000000f0: 5240 aa3d ef9f 043c 7d0b 47bd 945b e33d
00000100: 3721 a73b 7123 863d 8979 71bd 7b71 8ebd
00000110: 2825 6f3c 87a8 cc3d 65eb c63c 3bf8 ca3a
00000120: c798 3a3c 90fc c7bc cdec 9d3d 52cb 10bd
00000130: dddd 703d 9f58 aebd 9b01 4c3d 8de8 093e
00000140: de7f a0bc 5662 1d3e ead1 673d 48ab d2bd
00000150: 1599 8fbb 12ce 10be 5d6d 713d 2cda 9ebc
00000160: b1cd 0ebe ec74 843d c7c6 97bc ec78 d1bd
00000170: b0bd 213d 8a99 b83d c8c5 d83d 91cc dc3d
00000180: 0d60 f8bd d902 a53c c519 893d cf99 cfbd
00000190: a882 b5bd 8e5c a9bd c91a 64bc 4f84 9abd
000001a0: cbb8 dbbc 1288 afbd 7ace 3c3d 03d8 16bd
000001b0: 4a72 debd 17a5 c6bc 0e36 253d aa46 1c3c
000001c0: f066 e03d c320 313d c2d5 f2bc 1808 d8bd
000001d0: 1d36 0cbe 3fc6 2ebc 61bb 113d 0671 bfbd
000001e0: a037 89bd 1189 913c 8651 873d 9af6 02be
000001f0: b83a aabc e8a9 023e f6dd 4fbc 6f73 0ebd
00000200: e14f b8bb 8e4f 8bbd 9bad 723d 51ee 22bd
00000210: 6a99 fd3d 91fe 633c 492e 853d c9b0 cfbd
00000220: 9f92 133e 5f24 4bbd 53e5 983c d748 813d
00000230: 3219 e3bd 8ccd f33d 3036 cdbd a1f0 6cbd
00000240: f54e d13d bcbc 0cbe 2dbf 503d dd95 c53c
00000250: 6c6f ff3b 8c47 e9bd 3689 303d 200b 51bd
00000260: 5873 65bd 389b 3c3d 8211 783d a022 073e
00000270: 6db4 5dbc ed4a 03be 2c0b 393d f50d 6ebb
00000280: 4b2d 19bd e7d5 173d 2076 ea3d 8960 da3d
00000290: b14a ac3d 7936 a5bd f939 023e 063d 8abd
000002a0: 2d83 8abd 9858 a5bd e516 d93b 9098 9fbb
000002b0: 2e30 c5bd e105 25bb e2a3 d4bd 2b31 503d
000002c0: afa4 fcbd 92b3 16bc 399c 0d3e 13fa fdbd
000002d0: 6e0d 0fbd 433f 17be 802f 8e3d e318 c7bd
000002e0: a971 ebbc 1366 4c3d bc51 6d3d 2489 f93d
000002f0: 20be b3bd 713e 7f3d fd3c 153d 2c69 81bd
00000300: 7511 bc3d dea8 14be 8995 1abe a263 16bd
00000310: 144f 5f3d 5852 ce3d 983d 65bb d000 873d
00000320: a921 893c 6a14 b63d 1a24 d23d 6c6c 283d
00000330: 7d52 cebc ab53 c03d 7a6b e3bd bc47 0d3d
00000340: 4b76 db3d 19a4 42bd 947e 8a3d 0f0e 1c3b
00000350: 2b83 d3bd 3079 9fbc b6bd b83d b968 c43d
00000360: 1d1f 05bd 5c07 3e3d 2e0d 9cbd bfbb 1a3d
00000370: 87b9 e2bd 4005 a93c b929 a0bd 10a6 1f3e
00000380: 5cc8 a1bd 72e5 ccbc b97c f8bd e47f 2e3b
00000390: a3cf de3c 6ff3 c93d ec58 20bc 466e 95bd
000003a0: 8f3c e93c 0fd8 8dbc 13be ac3d 503e ac3d
000003b0: 223b 8fbd ba2a 833b bc93 823b 4e99 813d
000003c0: ee52 913c 0c87 d4bc 8e50 913d 80b4 673d
000003d0: 51a9 fb3d 9313 573d cf96 033e 1ec3 f4bd
000003e0: 6a2a cc3d 70a5 b2bb be97 043e 6521 d73d
000003f0: a289 4dbc 9416 d23d f152 c3bb 0559 33bd

conv2.bias f4 [16]
-0.009378547 0.06446913 -0.045422636 0.07779637 0.010078742 0.02167236 -0.024418352 0.09530277
-0.000112357186 0.03733048 -0.04110313 0.006789501 0.11113398 0.09443464 -0.03541706 0.05061345
00000000: 7aa8 19bc 6408 843d 160d 3abd b453 9f3d
00000010: 4f21 253c 3c8a b13c ff08 c8bc 192e c33d
00000020: 4ea1 ebb8 d8e7 183d c15b 28bd 767a de3b
00000030: 369a e33d f366 c13d 7b11 11bd 0d50 4f3d

batchnorm2.weight f4 [16]
1.049865 1.0590348 1.0451199 1.0387765 1.059701 1.0569965 1.0485398 1.0467119
1.0419918 1.0406202 1.0517259 1.0477562 1.056096 1.0402491 1.0582706 1.04813
00000000: fa61 863f 748e 873f 7dc6 853f a1f6 843f
00000010: 48a4 873f a94b 873f 8d36 863f a8fa 853f
00000020: fd5f 853f 0b33 853f f49e 863f e01c 863f
00000030: 272e 873f e226 853f 6975 873f 2029 863f

batchnorm2.bias f4 [16]
0.01470878 0.02245246 0.021237135 0.022805998 0.015447839 0.022832751 0.017770654 0.008142457
0.01967595 0.023592396 0.022089817 0.025807321 0.005573029 0.020956045 0.005506307 0.021947252
00000000: 18fd 703c 39ee b73c 80f9 ad3c a5d3 ba3c
00000010: ef18 7d3c c00b bb3c c393 913c f167 053c
00000020: 752f a13c d744 c13c b4f5 b43c e069 d33c
00000030: f59d b63b 03ac ab3c 406e b43b b9ca b33c

batchnorm2.running_mean f4 [16]
0.10349744 0.025144858 -0.4507506 0.5321915 1.154009 0.21539913 0.21003628 1.1861563
0.73786896 -0.20525055 0.19634382 0.3481538 0.64604926 0.36009982 -0.5420859 0.45571217
00000000: 77f6 d33d 97fc cd3c c8c8 e6be b43d 083f
00000010: 91b6 933f 9791 5c3e c013 573e f8d3 973f
00000020: fbe4 3c3f 332d 52be 5b0e 493e 3741 b23e
00000030: 7c63 253f 015f b83e 24c6 0abf 1b53 e93e

batchnorm2.running_var f4 [16]
0.16072524 0.1186985 0.14870672 0.22163256 0.26397863 0.14241901 0.15355936 0.28201202
0.30606177 0.18676373 0.26423797 0.26103207 0.17159063 0.17456341 0.20881172 0.20948112
00000000: 2895 243e 3318 f33d 9346 183e a5f3 623e
00000010: 3528 873e 4ad6 113e aa3e 1d3e e163 903e
00000020: 21b4 9c3e fe3e 3f3e 334a 873e ffa5 853e
00000030: 74b5 2f3e c0c0 323e bdd2 553e 3882 563e

fc1.weight f4 [128, 1024]
-0.029180393 0.018804247 -0.018496515 0.018455617 -0.040532485 -0.009844636 -0.031090613 -0.02132375
-0.026427897 0.015394131 0.03853398 -0.027337613 -0.012355665 -0.024519188 0.02089955 -0.0134560205
0.008749629 -0.01635167 0.0020503693 0.020425843 0.029482981 0.007622666 -0.017208103 0.019071702
-0.025107106 -0.010277574 -0.0023975677 -0.010269179 -0.01138715 0.030872012 -0.023856204 -0.041752927
0.0060458644 0.0025937292 -0.027975602 -0.0069175013 0.00614128 -0.009511891 0.040751513 -0.01868392
0.031588588 0.017588217 -0.011002062 0.027466083 0.021930264 0.0096392725 -0.003328993 0.0035157234
-0.011386542 0.003440149 0.001842169 -0.0016662035 0.019153398 -0.018487252 0.011901219 -0.027950207
-0.031166885 0.0025948838 0.024405858 -0.034069724 -0.052898154 0.009646553 -0.008932627 -0.016071768
0.03813997 0.018594485 -0.009499012 -0.009778687 0.021020863 0.02364683 0.025074607 0.021478767
0.016284717 -0.006952799 0.027063185 0.0073585534 -0.020202572 0.027013367 0.0036674987 -0.0003824969
-0.022463655 0.017855337 0.0015492558 -0.028638791 0.009205444 0.004496301 0.030833889 -0.022162784
-0.007099318 -0.014101013 -0.031842973 0.04086239 -0.027413817 -0.017261084 0.007607997 0.0054287217
0.0014777647 0.016309429 0.007656866 0.0014402345 0.02990787 -0.012508295 -0.029849526 0.01160113
-0.018832874 0.013250167 -0.025771825 -0.024827143 -0.039502636 0.014604366 0.028838923 -0.0026013243
0.017112562 0.011408252 -0.048308436 0.021547355 -0.037276626 -0.021857772 -0.017934693 0.025316158
0.019406205 -0.0060702297 0.015465457 0.0207115 0.006346119 0.013321052 0.016595662 0.017438658
0.016260756 -0.013572402 0.008059956 0.020897795 -0.009880426 0.013012132 -0.011678196 0.028379044
-0.0068523735 0.009383954 0.030970555 0.014832024 0.0100973165 -0.008507596 -0.0122256195 0.024802145
-0.009269477 -0.0020178414 0.022055022 -0.020734414 0.029008923 -0.01454464 -0.04221191 5.0088706e-06
-0.029115884 -0.026072338 -0.011151153 -0.018245282 -0.018002363 0.0010362867 0.017484175 0.03643031
-0.036594253 0.03023819 -0.008111062 -0.03318351 -0.0063993265 0.018123735 -0.0320772 -0.01273023
-0.016591933 -0.021205926 -0.026551226 0.008353646 -0.016022665 -0.027693769 -0.024191791 0.0061226995
-0.04081522 0.038624197 0.017316857 -0.0072329016 -0.0063869287 0.017470459 -0.004976524 0.010121612
-0.022043202 0.011949624 0.0064740586 -0.029900977 -0.015484289 -0.015355699 -0.02376409 0.024396636
-0.0057162116 0.019818824 -0.004787919 -0.027352417 5.985007e-05 -0.023775723 0.0030153731 0.0027870736
-0.021138988 0.033013474 0.0028974242 -0.0021733688 -0.0028740752 -0.0033476185 0.015825981 -0.010010431
-0.01464893 0.006355638 0.0074180523 0.003511982 -0.023775216 -0.015136151 0.027172128 0.03626951
0.007855771 -0.016530717 -0.020211205 -0.0005896004 -0.008036384 0.008076505 0.019771403 -0.019667912
-0.012923602 0.012116715 -0.015986653 0.022348512 0.0067519974 0.028831784 0.021638822 0.031219598
-0.027946293 -0.029635245 -0.021072367 0.00828933 -0.024439368 0.0176545 -0.013246528 0.029963814
-0.007525618 0.023737652 -0.019647725 -0.008629288 0.031737454 -0.023766987 -0.014509985 -0.005837144
0.028634205 -0.041864097 -0.015516007 0.009577409 -0.029653387 -0.03170613 0.01476579 0.005076068
00000000: b80b efbc 5d0b 9a3c 0186 97bc 3c30 973c
00000010: 6405 26bd 654b 21bc beb1 febc 25af aebc
00000020: 517f d8bc aa37 7c3c ced5 1d3d 21f3 dfbc
00000030: 6a6f 4abc 77dc c8bc 8835 ab3c a476 5cbc
00000040: 9b5a 0f3c f0f3 85bc 7d5f 063b 1954 a73c
00000050: 4b86 f13c 8fc7 f93b 02f8 8cbc 423c 9c3c
00000060: 6bad cdbc 4563 28bc 8320 1dbb 0f40 28bc
00000070: 2b91 3abc 4de7 fc3c 166e c3bc 1e05 2bbd
00000080: 631c c63b 8efb 293b 172d e5bc 35ac e2bb
00000090: ca3c c93b c3d7 1bbc 0feb 263d 050f 99bc
000000a0: 0963 013d 2a15 903c fe41 34bc 8d00 e13c
000000b0: 19a7 b33c 0aee 1d3c 3c2b 5abb 0d68 663b
000000c0: 9e8e 3abc 1f74 613b ef74 f13a 8364 daba
000000d0: 96e7 9c3c 9472 97bc 55fd 423c d5f7 e4bc
000000e0: b251 ffbc ed0e 2a3b cbee c73c b28c 0bbd
000000f0: bcab 58bd 930c 1e3c 275a 12bc f1a8 83bc
00000100: a838 1c3d 7653 983c bea1 1bbc c936 20bc
00000110: f233 ac3c ffb6 c13c 4369 cd3c 3df4 af3c
00000120: 8767 853c 4ed4 e3bb 9db3 dd3c 0520 f13b
00000130: dd7f a5bc 234b dd3c 6b5a 703b dd89 c8b9
00000140: b305 b8bc 5b45 923c 6610 cb3a e69b eabc
00000150: 6ed2 163c b555 933b 5a97 fc3c ba8e b5bc
00000160: 65a1 e8bb ef07 67bc c76d 02bd 525f 273d
00000170: f192 e0bc 1e67 8dbc 814c f93b 6be3 b13b
00000180: 8eb1 c13a 5a9b 853c 73e6 fa3b 40c6 bc3a
00000190: 5901 f53c 97ef 4cbc fe86 f4bc aa12 3e3c
000001a0: 6647 9abc 3a17 593c 6f1f d3bc 4b62 cbbc
000001b0: 84cd 21bd 2747 6f3c 9b3f ec3c fb7a 2abb
000001c0: a52f 8c3c ade9 3a3c 11df 45bd 1484 b03c
000001d0: 60af 18bd 120f b3bc c7eb 92bc d563 cf3c
000001e0: c3f9 9e3c c7e8 c6bb d462 7d3c 2aab a93c
000001f0: 1bf3 cf3b 8b40 5a3c a0f3 873c 84db 8e3c
00000200: 4735 853c c85e 5ebc e80d 043c da31 ab3c
00000210: 83e1 21bc d630 553c e755 3fbc 2b7b e83c
00000220: e089 e0bb 28bf 193c f6b5 fd3c 0502 733c
00000230: 376f 253c 7263 0bbc f74d 48bc de2d cb3c
00000240: 01df 17bc c33d 04bb bcac b43c 38db a9bc
00000250: 1fa4 ed3c a44c 6ebc 65e6 2cbd df11 a836
00000260: 6f84 eebc a895 d5bc 53b3 36bc 2177 95bc
00000270: b179 93bc 03d4 873a f93a 8f3c f337 153d
00000280: dbe3 15bd 15b6 f73c 43e4 04bc 6feb 07bd
00000290: 71b1 d1bb 3a78 943c 6263 03bd 7492 50bc
000002a0: ceeb 87bc 0db8 adbc f581 d9bc bbdd 083c
000002b0: f741 83bc 0bde e2bc dd2d c6bc eda0 c83b
000002c0: dc2d 27bd 6834 1e3d 15dc 8d3c fa01 edbb
000002d0: 7149 d1bb 351e 8f3c 1c12 a3bb 1ed5 253c
000002e0: f293 b4bc 5bc8 433c 5724 d43b e5f2 f4bc
000002f0: d1b1 7dbc 7896 7bbc e9ac c2bc 74db c73c
00000300: 0f4f bbbb 165b a23c fae3 9cbb 2d12 e0bc
00000310: 8607 7b38 4ec5 c2bc 919d 453b 56a7 363b
00000320: ac2b adbc 2339 073d b6e2 3d3b 146f 0ebb
00000330: fb5a 3cbb b863 5bbb 7da5 813c ca02 24bc
00000340: 1102 70bc f542 d03b 2213 f33b 4829 663b
00000350: 3ec4 c2bc 9efd 77bc 1598 de3c 568f 143d
00000360: 7eb5 003c 6d6b 87bc f891 a5bc 6a8f 1aba
00000370: 0aab 03bc 5153 043c a3f7 a13c 9a1e a1bc
00000380: 84bd 53bc 3085 463c 71f6 82bc 3a14 b73c
00000390: dc3f dd3b a230 ec3c e643 b13c 3ec0 ff3c
000003a0: a0ef e4bc 9dc5 f2bc f59f acbc f8cf 073c
000003b0: 1235 c8bc 2ca0 903c f707 59bc ac76 f53c
000003c0: 7699 f6bb 7775 c23c 44f4 a0bc db61 0dbc
000003d0: 22ff 013d fcb2 c2bc 4abb 6dbc 8345 bfbb
000003e0: 4892 ea3c b079 2bbd da36 7ebc 91ea 1c3c
000003f0: a9eb f2bc 49de 01bd 36ec 713c 2555 a63b

fc1.bias f4 [128]
0.025937479 -0.024086146 0.000103886436 -0.0034500824 -0.031040384 -0.03011523 -0.0048866756 0.009859011
0.02221648 0.028724518 -0.010059245 0.007693266 -0.007998311 -0.022278136 -0.001859996 -0.024836164
-0.020409888 0.029889802 -0.0069276933 0.0043600984 -0.024406685 0.028693965 0.01490953 -0.011433292
0.00641715 -0.0010865825 -2.1052145e-05 -0.020971779 0.008699692 0.007408484 0.02311113 -0.00905222
-0.022724273 -0.002187588 -0.0018221192 -0.005720622 0.013306355 0.024909219 -0.030028287 0.04026626
-0.005145621 -0.016580619 -0.014477471 -0.030343316 -0.01606294 -0.027891692 0.029448003 -0.011253605
-0.023904726 0.023652565 0.021202665 -0.0065402836 0.0007787382 0.00031921768 0.012456157 -0.027599908
0.026353603 -0.027755097 0.02836713 -0.0032058908 0.00048411926 0.008226866 -0.0034479264 0.022960722
0.031239834 -0.0068188244 -0.01833346 -0.025631389 -0.015952284 -0.029980246 -0.023356305 -0.027910376
-0.0018734693 -0.012820862 0.016420532 0.0033446858 -0.013204648 0.012475609 -0.008354951 -0.026955875
0.003560101 0.013985214 0.00046525107 0.009559794 0.027707558 0.00654064 0.005092583 -0.00070670445
0.026307495 -0.014945581 -0.003662784 -0.008453772 0.013290075 -0.012570591 -0.016296428 -0.029909194
0.0069963997 0.0238485 -0.016970135 0.02593076 -0.013175628 0.015174808 -0.023895556 0.0050275056
-0.020400424 -0.01549634 0.0191854 0.004620523 0.029478047 0.027609436 0.016777964 -0.017898276
0.016277824 0.0072028455 0.0109086735 -0.0015101185 -0.019601606 0.008437237 -0.0057322676 -0.01803561
-0.029454377 -0.016576413 -0.03121375 0.008384736 -0.023664389 -0.007614508 0.032331277 -0.009090494
00000000: d67a d43c 4f50 c5bc 9bdd d938 c71a 62bb
00000010: 6748 febc 37b4 f6bc 6820 a0bb b087 213c
00000020: 56ff b53c ae4f eb3c 88cf 24bc cb17 fc3b
00000030: 590b 03bc a380 b6bc 1ccb f3ba 3675 cbbc
00000040: a332 a7bc 75db f43c b401 e3bb 28df 8e3b
00000050: 87f0 c7bc 9b0f eb3c 1a47 743c b452 3bbc
00000060: f546 d23b a96b 8eba 2399 b0b7 02cd abbc
00000070: 2789 0e3c dec2 f23b 8d53 bd3c c34f 14bc
00000080: 4128 babc a35d 0fbb 2dd4 eeba 0e74 bbbb
00000090: e602 5a3c 6b0e cc3c e2fd f5bc 3cee 243d
000000a0: 999c a8bb 14d4 87bc ea32 6dbc 8c92 f8bc
000000b0: 6d96 83bc 1e7d e4bc f03c f13c 0a61 38bc
000000c0: d8d3 c3bc 06c3 c13c 36b1 ad3c e04f d6bb
000000d0: 3c24 4c3a ac5c a739 e914 4c3c 3419 e2bc
000000e0: 83e3 d73c a85e e3bc 2f62 e83c ec19 52bb
000000f0: 63d1 fd39 fac9 063c 9bf6 61bb 2018 bc3c
00000100: aeea ff3c 7270 dfbb 0d30 96bc ebf8 d1bc
00000110: 5dae 82bc 2299 f5bc b955 bfbc 4da4 e4bc
00000120: 338f f5ba 980e 52bc 5a84 863c 8432 5b3b
00000130: 4f58 58bc 7f66 4c3c 34e3 08bc 91d2 dcbc
00000140: 9550 693b 3d22 653c f1ec f339 afa0 1c3c
00000150: f6fa e23c dd52 d63b afdf a63b 2242 39ba
00000160: d182 d73c 4fde 74bc 510b 70bb b181 0abc
00000170: 9dbe 593c e1f4 4dbc 1680 85bc 2004 f5bc
00000180: 0e42 e53b ee5d c33c f404 8bbc bf6c d43c
00000190: 97de 57bc c29f 783c 9dc0 c3bc c6bd a43b
000001a0: ca1e a7bc 5ce4 7dbc b32a 9d3c c267 973b
000001b0: f27b f13c 2f2d e23c f171 893c 689f 92bc
000001c0: 1259 853c d905 ec3b 4bba 323c 2bef c5ba
000001d0: 8c93 a0bc 563c 0a3c bfd5 bbbb 6abf 93bc
000001e0: 4e4a f1bc 42cb 87bc fab3 ffbc 2260 093c
000001f0: d2db c1bc 1f83 f9bb cd6d 043d 4cf0 14bc

fc2.weight f4 [5, 128]
-0.0560578 -0.0027634678 -0.017297642 -0.057188638 0.03913431 0.04755102 0.0021383094 -0.02938978
-0.079901725 -0.037011243 0.0028869628 -0.013929949 0.009759143 0.07854003 -0.018878292 0.069333516
0.03815915 0.019333087 -0.072469436 0.0672312 0.10782281 -0.102646254 -0.078809895 0.023300245
0.05411304 0.10215487 0.05107601 0.061348684 0.08381839 0.08586045 0.083364785 -0.099119306
-0.027566604 -0.08272902 0.018964248 -0.025174668 0.030504474 -0.015820816 -0.04393511 0.014969772
0.06920355 0.016638754 0.020091074 0.060664915 -0.09703077 -0.09489667 0.04750915 0.017672988
0.050755978 0.031641014 0.03507755 0.0765597 0.07048669 -0.071138 0.057899408 -0.036324874
0.07814696 0.015298672 0.09570371 0.049230188 -0.020645047 -0.08943483 -0.059940886 0.020100461
0.060632728 0.061767425 -0.042591803 0.09295853 -0.04951758 -0.004818839 -0.08831296 0.0071664965
-0.07276704 -0.0032540765 -0.055974115 -0.036987994 0.052560613 0.017991975 -0.048848603 0.009701723
-0.07330586 0.010143616 -0.067037016 -0.0066308295 0.05885192 -0.08290914 -0.06837702 0.058052424
0.061818868 0.07224531 0.103415675 0.07677975 0.049025904 -0.10341475 0.059496466 -0.030480634
0.09899175 -0.09516686 -0.09729147 -0.023701137 0.049637936 -0.017334055 -0.040296234 -0.09773837
-0.017134545 0.033559788 0.02986605 -0.06727897 -0.08064128 0.044816423 -0.09729229 0.04989715
0.0512911 0.072234 -0.1057721 -0.0520106 0.0319942 -0.026940424 0.015551603 0.027339699
-0.084643215 -0.06923468 -0.078740485 0.11407534 0.035458088 -0.093495555 0.035836693 -0.043170694
0.09132627 -0.018277455 0.09625359 -0.0017367168 0.0013622562 -0.0281214 0.087259874 -0.07612859
-0.08291948 -0.024141133 0.05141273 -0.071022086 0.049190674 -0.023028897 -0.0062085185 -0.06260726
-0.11795793 0.020677768 0.07616512 0.041657887 -0.028304487 0.036525212 0.036031116 0.010616906
0.06456859 -0.022294294 -0.022705294 0.020451114 -0.095800124 -0.069360875 -0.08022426 0.04971456
-0.08381074 0.09113253 0.007021459 -0.05885978 -0.01677125 0.03470293 0.030671772 0.010317431
0.026439888 0.071270354 0.07038985 -0.03314719 -0.04314376 -0.063979805 -0.009856711 0.007139389
0.065782785 0.078045264 -0.10175728 -0.0008514896 0.078256935 -0.026335036 0.07455834 0.004259273
0.060217176 0.07611418 0.0060948515 0.050209865 -0.09492142 0.091544785 -0.06011415 -0.11838421
-0.007952802 0.08062237 0.05999971 -0.022643393 0.015003867 0.078203246 -0.048535757 0.058858976
0.01919802 0.00024209575 -0.079909384 -0.12146298 0.011473849 -0.08893655 -0.054881744 -0.12059026
0.0850537 -0.103621796 -0.067875475 0.06159008 0.07567014 -0.04326146 0.08928185 -0.05540839
-0.10487697 -0.07433507 -0.10834742 0.03333466 0.036262665 0.00044482847 -0.08328264 0.032295883
0.06480849 -0.10339507 0.07126062 -0.0681336 0.08622103 -0.0776736 -0.07077312 0.05663137
0.07074063 -0.02149283 -0.12082609 -0.07820427 0.03417356 0.048585616 0.08075373 -0.09520187
-0.02067943 -0.037687633 -0.093990885 0.073934056 -0.01317534 -0.12580784 0.06459881 -0.021348454
0.0703761 0.08827752 0.051676847 -0.059512306 -0.07289691 -0.03714342 0.04758709 -0.061808158
00000000: dd9c 65bd 4c1b 35bb c9b3 8dbc a23e 6abd
00000010: 4c4b 203d dcc4 423d e122 0c3b d6c2 f0bc
00000020: 84a3 a3bd 1a99 17bd 3333 3d3b 713a 64bc
00000030: d0e4 1f3c 98d9 a03d a6a6 9abc bbfe 8d3d
00000040: c54c 1c3d 6c60 9e3c db6a 94bd 83b0 893d
00000050: 35d2 dc3d 3338 d2bd 1567 a1bd 28e0 be3c
00000060: a3a5 5d3d 9336 d13d 1435 513d c248 7b3d
00000070: faa8 ab3d 9bd7 af3d 28bb aa3d 10ff cabd
00000080: 5cd3 e1bc d56d a9bd e95a 9b3c 1b3b cebc
00000090: 85e4 f93c a89a 81bc 4df5 33bd c643 753c
000000a0: 97ba 8d3d ff4d 883c 0996 a43c c67b 783d
000000b0: 11b8 c6bd 2f59 c2bd f498 423d f1c6 903c
000000c0: 80e5 4f3d 029a 013d 7aad 0f3d 55cb 9c3d
000000d0: 535b 903d cdb0 91bd ee27 6d3d 64c9 14bd
000000e0: 830b a03d 48a7 7a3c 4f00 c43d 98a5 493d
000000f0: cd1f a9bc 9c29 b7bd 9384 75bd b9a9 a43c
00000100: 065a 783d d7ff 7c3d be74 2ebd 0b61 be3d
00000110: f2d2 4abd 5ae7 9dbb 6ddd b4bd eed4 ea3b
00000120: e306 95bd 5842 55bb 1d45 65bd b980 17bd
00000130: cc49 573d e863 933c 7915 48bd faf3 1e3c
00000140: 6221 96bd 6931 263c b44a 89bd 6e47 d9bb
00000150: b60e 713d 44cc a9bd 4009 8cbd 61c8 6d3d
00000160: c835 7d3d 59f5 933d 99cb d33d b43e 9d3d
00000170: 63cf 483d 1dcb d3bd 91b2 733d 86b2 f9bc
00000180: 30bc ca3d d8e6 c2bd c040 c7bd e328 c2bc
00000190: 2651 4b3d 2600 8ebc aa0d 25bd 0e2b c8bd
000001a0: bf5d 8cbc fd75 093d a6a9 f43c 8ec9 89bd
000001b0: 4127 a5bd 6d91 373d 2e41 c7bd f460 4c3d
000001c0: 9e16 523d 6bef 933d 0b9f d8bd 1109 55bd
000001d0: 5a0c 033d 2ab2 dcbc 27cc 7e3c 81f7 df3c
000001e0: 6c59 adbd e9ca 8dbd b142 a1bd 55a0 e93d
000001f0: 803c 113d 997a bfbd 7fc9 123d c1d3 30bd
00000200: 4409 bb3d 9aba 95bc 9a20 c53d 8ca2 e3ba
00000210: bc8d b23a da5e e6bc 4eb5 b23d 4ee9 9bbd
00000220: b0d1 a9bd a0c3 c5bc 2896 523d 0774 91bd
00000230: 297c 493d 19a7 bcbc d470 cbbb 3c38 80bd
00000240: ed93 f1bd 6c64 a93c 75fc 9b3d 76a1 2a3d
00000250: d0de e7bc 769b 153d 5d95 133d 88f2 2d3c
00000260: 893c 843d 86a2 b6bc 7400 babc 1889 a73c
00000270: db32 c4bd 130d 8ebd 9e4c a4bd 7fa1 4b3d
00000280: f7a4 abbd b1a3 ba3d 4414 e63b f416 71bd
00000290: dc63 89bc a924 0e3d 5e43 fb3c 710a 293c
000002a0: 7798 d83c 31f6 913d 8e28 903d 59c5 07bd
000002b0: 83b7 30bd d807 83bd 0b7e 21bc 89f1 e93b
000002c0: 20b9 863d 32d6 9f3d 1f66 d0bd 8036 5fba
000002d0: 2c45 a03d 93bc d7bc 0bb2 983d 5f91 8b3b
000002e0: 49a6 763d c0e1 9b3d 52b7 c73b dca8 4d3d
000002f0: 2966 c2bd d57b bb3d 413a 76bd 6c73 f2bd
00000300: 784c 02bc 571d a53d 42c2 753d a37e b9bc
00000310: c8d2 753c 0629 a03d 6ecd 46bd 1c16 713d
00000320: 2b45 9d3c 15db 7d39 88a7 a3bd 95c1 f8bd
00000330: d0fc 3b3c 5e24 b6bd aecb 60bd 07f8 f6bd
00000340: a230 ae3d aa37 d4bd 4c02 8bbd e145 7c3d
00000350: f2f8 9a3d ee32 31bd 67d9 b63d e8f3 62bd
00000360: bdc9 d6bd fc3c 98bd 41e5 ddbd ed89 083d
00000370: 2988 143d de37 e939 1790 aabd b048 043d
00000380: 50ba 843d cbc0 d3bd 17f1 913d a189 8bbd
00000390: a794 b03d 5613 9fbd 7ff1 90bd 4cf6 673d
000003a0: 77e0 903d bb11 b0bc ab73 f7bd 8f29 a0bd
000003b0: 93f9 0b3d b601 473d 3662 a53d 33f9 c2bd
000003c0: e867 a9bc 595e 1abd 4b7e c0bd bd6a 973d
000003d0: 62dd 57bc c5d3 00be 624c 843d f4e2 aebc
000003e0: 5821 903d d8ca b43d 1aab 533d 2dc3 73bd
000003f0: fa4a 95bd b323 18bd aeea 423d 8d2a 7dbd

fc2.bias f4 [5]
0.0430493 -0.0075590974 -0.084999576 -0.0014416288 -0.043503955
00000000: 7654 303d 4eb2 f7bb 4214 aebd 09f5 bcba
00000010: 3431 32bd
